DomainAda/documents/ae_model_params.pth (torch, 72740 bytes, 38 tensors)

conv1.weight f4 [10, 20, 3]
-0.25719407 -0.07092654 -0.070002 0.016711228 0.18888505 -0.033878814 0.068552844 -0.17615263
0.015831571 0.16941556 0.06572645 0.016175782 -0.23670833 0.099294044 0.07936559 -0.08900395
0.037730843 0.023535673 -0.07434655 -0.13899077 0.23619053 0.09432343 -0.058770478 0.16051267
0.14704987 -0.15159684 0.19575039 0.20130204 0.3088623 0.0120817255 0.2572146 0.12325953
-0.16645426 -0.20326607 -0.014490174 -0.15681073 0.041174877 -0.023150986 -0.1591737 0.103114665
-0.103386395 0.17394644 -0.0037236975 0.07093867 -0.078047976 0.0012507201 0.017923139 -0.08816779
-0.04184583 -0.29062244 0.09544872 -0.014634194 0.062374987 0.018745193 0.27486846 0.30413073
0.21514814 -0.031780235 -0.19553775 0.19066031 -0.19647342 0.02755321 0.18407142 0.21225731
-0.16083395 -0.23078369 -0.027355798 0.10598523 0.28044292 -0.063504964 0.13550866 -0.016538022
-0.2289492 -0.16961129 -0.24246731 0.038816523 -0.12867619 -0.118152246 0.1906529 -0.18705212
0.12287279 0.07878381 -0.0074236235 0.267931 -0.12403512 -0.06751503 0.26273045 0.05008341
-0.12087394 0.21857372 0.26815698 -0.04246137 -0.24297218 -0.20661521 -0.06840781 0.17978217
0.012149551 -0.11344463 -0.117831044 0.10834824 0.23209918 0.26525927 -0.25689924 -0.02832412
0.119297296 0.024427544 -0.0804746 0.1232207 0.1403802 -0.118055694 0.18584655 0.20774785
0.2735615 0.0803905 0.0354644 0.15584312 -0.15827341 -0.20013966 0.0080430815 0.028733768
-0.108132444 0.17705788 0.3205518 -0.12029057 -0.11633377 -0.114651985 -0.22047266 0.07584801
0.03909823 -0.026454514 0.10732892 -0.19339399 0.12460965 -0.19263308 0.19442134 -0.12097281
-0.14542946 0.017016673 -0.24646495 0.06439079 0.19929938 -0.05089827 0.09560088 -0.02133172
0.15958041 -0.21954656 0.04258576 -0.030208634 -0.09656266 0.01920707 0.14355306 0.19411062
-0.21801464 0.18165001 0.03007636 -0.21843934 -0.24530843 0.20147 0.02089546 0.080500044
0.28456777 0.11350876 0.13497248 0.2548001 0.20519644 -0.1091223 -0.16377991 0.27602664
0.24964343 -0.209074 -0.046808336 -0.19214405 0.00907094 -0.17773126 -0.18237653 -0.20443252
0.2168577 0.1098413 0.2211032 -0.02194991 0.026339889 -0.009975366 0.030616503 -0.25384623
-0.19670664 -0.18871132 0.14576134 -0.09211359 0.025251854 0.007937266 -0.15584762 0.095206544
-0.14907898 -0.22497343 -0.1064986 -0.1891883 0.21911414 0.05901654 -0.09379718 0.102136455
0.1099895 -0.25443918 -0.08879773 -0.21526228 0.11800787 -0.28365245 0.09994384 0.18994072
0.005094877 -0.23600085 0.09976061 -0.29662737 -0.32457474 0.013509489 -0.1500615 0.17953505
-0.0009437081 -0.090132646 -0.1138915 -0.080552615 0.006227957 0.09362902 -0.12668744 -0.07012387
0.21154515 -0.23105818 0.0051600924 -0.20522642 -0.10136625 -0.2152413 -0.16438535 -0.09671421
-0.05621963 -0.1641372 -0.16013502 -0.27618623 0.061194737 -0.124537155 0.16626899 0.0006802748
0.029743908 -0.005010763 -0.08194492 0.18341966 -0.061007805 0.24633524 -0.055146154 0.12501647
-0.21854939 -0.12274529 -0.0050011603 -0.15354034 0.1509248 0.19663692 -0.17968297 -0.23545074
00000000: f1ae 83be ef41 91bd 355d 8fbd fce5 883c
00000010: 156b 413e 83c4 0abd 6f65 8c3d 5b61 34be
00000020: 36b1 813c 467b 2d3e 979b 863d 1383 843c
00000030: ab63 72be ad5a cb3d 6d8a a23d b447 b6bd
00000040: a88b 1a3d e2cd c03c 0143 98bd 9953 0ebe
00000050: eedb 713e a42c c13d 50b9 70bd 6f5d 243e
00000060: 3e94 163e 343c 1bbe ca72 483e 1f22 4e3e
00000070: 3323 9e3e 6ef2 453c a2b1 833e 7e6f fc3d
00000080: fc72 2abe fb24 50be 3268 6dbc fe92 20be
00000090: fda6 283d 23a7 bdbc 6efe 22be c82d d33d
000000a0: 3fbc d3bd 041f 323e 4709 74bb 4b48 913d
000000b0: 9ed7 9fbd 34ef a33a 8cd3 923c 5091 b4bd
000000c0: 8866 2bbd 77cc 94be 9e7a c33d 42c4 6fbc
000000d0: ea7c 7f3d 858f 993c 8fbb 8c3e 06b7 9b3e
000000e0: cb4f 5c3e fe2b 02bd 0c3b 48be 753c 433e
000000f0: 5430 49be 45b7 e13c 387d 3c3e fb59 593e
00000100: a8b1 24be 8f52 6cbe 4419 e0bc c90e d93d
00000110: 3796 8f3e e40e 82bd c8c2 0a3e bf7a 87bc
00000120: a971 6abe 95ae 2dbe 5a49 78be 13fe 1e3d
00000130: b1c3 03be cef9 f1bd 843a 433e 978a 3fbe
00000140: bba4 fb3d 6859 a13d de41 f3bb 412e 893e
00000150: 2006 febd 5245 8abd 9b84 863e 4324 4d3d
00000160: c28c f7bd cad1 5f3e df4b 893e f9eb 2dbd
00000170: b3cd 78be f092 53be 6519 8cbd d118 383e
00000180: e90e 473c a855 e8bd 6751 f1bd afe5 dd3d
00000190: 68ab 6d3e 10d0 873e 4c88 83be fc07 e8bc
000001a0: 2452 f43d 461c c83c decf a4bd 225b fc3d
000001b0: d4bf 0f3e 2fc7 f1bd 8f4e 3e3e dabb 543e
000001c0: 4110 8c3e c6a3 a43d 1e43 113d 5795 1f3e
000001d0: 6d12 22be 69f1 4cbe 21c7 033c 1463 eb3c
000001e0: 8b74 ddbd a94e 353e 5e1f a43e e75a f6bd
000001f0: 6640 eebd a9ce eabd 96c3 61be 3456 9b3d
00000200: 7725 203d 23b7 d8bc 44cf db3d 1309 46be
00000210: 5833 ff3d 9b41 45be 6316 473e 98c0 f7bd
00000220: 76eb 14be 8d66 8b3c 4f61 7cbe 52df 833d
00000230: 2315 4c3e b47a 50bd 65ca c33d dcbf aebc
00000240: 0c69 233e d0d0 60be 686e 2e3d 1978 f7bc
00000250: a5c2 c5bd 2558 9d3c 93ff 123e efc4 463e
00000260: 3b3f 5fbe 7602 3a3e b362 f63c 90ae 5fbe
00000270: 2232 7bbe 274e 4e3e f52c ab3c 35dd a43d
00000280: deb2 913e 4877 e83d 3a36 0a3e 2975 823e
00000290: 041f 523e 837b dfbd ecb5 27be 5d53 8d3e
000002a0: 87a2 7f3e 7f17 56be 19ba 3fbd 69c1 44be
000002b0: 489e 143c 2fff 35be eac0 3abe c256 51be
000002c0: f20f 5e3e 7af4 e03d e168 623e 4cd0 b3bc
000002d0: c0c6 d73c b86f 23bc 76cf fa3c 22f8 81be
000002e0: 776d 49be 8a3d 41be 7642 153e 0da6 bcbd
000002f0: fadc ce3c 4e0b 023c 8596 1fbe a6fb c23d
00000300: 29a8 18be 6f5f 66be f01b dabd 94ba 41be
00000310: 755f 603e 54bb 713d bc18 c0bd eb2c d13d
00000320: 2d42 e13d da45 82be 96db b5bd b76d 5cbe
00000330: 1cae f13d e53a 91be 5baf cc3d d27f 423e
00000340: edf2 a63b 35aa 71be 4a4f cc3d 8bdf 97be
00000350: a92e a6be e756 5d3c b9a9 19be 09d8 373e
00000360: 2e63 77ba 7797 b8bd f23f e9bd c5f8 a4bd
00000370: e413 cc3b 92c0 bf3d 5aba 01be 1b9d 8fbd
00000380: 4b9f 583e 849a 6cbe fe15 a93b e026 52be
00000390: 1c99 cfbd 3768 5cbe a254 28be 1a12 c6bd
000003a0: 8e46 66bd 9513 28be 6ffa 23be 4868 8dbe
000003b0: 55a7 7a3d 560d ffbd 6b42 2a3e 7854 323a
000003c0: 7fa9 f33c 5431 a4bb bdd2 a7bd 5dd2 3b3e
000003d0: 52e3 79bd 4e3f 7c3e efe0 61bd 5104 003e
000003e0: 69cb 5fbe e261 fbbd c6e0 a3bb ae39 1dbe
000003f0: 088c 1a3e 305b 493e d0fe 37be 001a 71be

conv1.bias f4 [10]
0.062970646 -0.12136464 -0.06010846 0.06975411 0.12272757 0.090199195 -0.20932156 0.29877067
0.37057725 0.020870076
00000000: c1f6 803d 068e f8bd 4a34 76bd 3edb 8e3d
00000010: 9858 fb3d 5bba b83d 6458 56be 78f8 983e
00000020: 4dbc bd3e b9f7 aa3c

bn1.weight f4 [10]
1.1052679 1.0132843 0.93481076 0.9115698 1.0496694 1.0375105 0.9999288 0.9826874
0.96673346 1.0152173
00000000: 6b79 8d3f 4db3 813f c24f 6f3f a35c 693f
00000010: 915b 863f 25cd 843f 55fb 7f3f 6791 7b3f
00000020: d87b 773f a4f2 813f

bn1.bias f4 [10]
-0.013570027 -0.05610627 -0.0399691 -0.09847186 0.058354586 0.02479474 0.06819614 -0.019796463
0.06299194 0.03481765
00000000: d254 5ebc b0cf 65bd a4b6 23bd 9dab c9bd
00000010: 3805 6f3d 571e cb3c 6baa 8b3d 312c a2bc
00000020: eb01 813d f49c 0e3d

bn1.running_mean f4 [10]
0.08055556 0.2439256 0.22294115 0.2851009 0.3430482 0.4793083 0.0355678 0.6130841
0.69780105 0.37463313
00000000: 50fa a43d a2c7 793e af4a 643e bff8 913e
00000010: 03a4 af3e e667 f53e 8baf 113d 14f3 1c3f
00000020: 17a3 323f eacf bf3e

bn1.running_var f4 [10]
0.05272005 0.08376933 0.035986055 0.18478543 0.1210411 0.32436422 0.009351669 0.048245855
0.16896677 0.25036657
00000000: fbf0 573d 418f ab3d 1d66 133d 6438 3d3e
00000010: 65e4 f73d 1113 a63e be37 193c 729d 453d
00000020: a005 2d3e 0c30 803e

conv2.weight f4 [10, 10, 3]
-0.13283624 0.3406803 0.18265598 -0.13803138 0.17161827 0.015757365 -0.092850484 0.049153145
0.17202534 0.12915418 0.014529747 0.021682631 0.25649527 0.08843369 0.027875714 0.2635877
-0.30474007 0.30832857 0.18461785 -0.027353512 0.06267042 0.10558827 0.11349758 0.11944605
-0.036679756 0.17812678 -0.078746386 0.13790162 -0.010925493 0.016910234 0.1929237 -0.09314589
0.14339052 0.43974733 -0.02637368 0.4917942 0.025375433 0.044384804 -0.10583541 0.15353869
0.12254264 -0.0033828062 -0.036199715 0.011930707 -0.1616114 0.18605107 0.057241444 -0.11947276
-0.2555709 -0.18502203 0.011617909 0.16995536 0.13696168 -0.13563767 0.052420292 -0.29210976
0.09898832 -0.19755347 0.11415423 0.108688965 -0.023696803 0.35508612 0.38202998 -0.20577034
0.080198325 -0.23844239 0.06460907 -0.02128795 -0.2521047 -0.32354018 0.17744306 0.048386298
-0.064808466 -0.16218965 -0.13480256 0.1461555 0.13031036 0.35118413 0.02249789 0.056056447
-0.21370703 -0.13189828 -0.046709795 -0.0029391104 0.14048916 -0.08157313 0.04137503 0.17320992
0.07485341 0.05654782 0.26709667 -0.24719164 -0.20154434 0.24066402 -0.13741252 -0.04022078
0.03278364 -0.19932355 -0.028335234 -0.24751382 -0.0010299827 -0.21312849 0.08702947 0.14347667
0.27834412 0.12558989 -0.11483354 0.3247909 0.3422647 0.17109619 0.04752978 0.235633
-0.19269708 -0.2931296 0.2887139 0.25847933 -0.0036202401 0.0015147382 0.15857321 -0.1699523
0.03377676 -0.16245048 0.010215411 0.08056793 0.17960532 0.118710436 -0.14089839 0.36948165
-0.123809636 0.22445945 0.052115154 -0.15040919 -0.021646487 -0.11572593 -0.1387161 0.03676478
-0.01850588 -0.038454287 -0.013947329 -0.0036886772 0.14726962 0.17890759 -0.2626839 -0.015254613
-0.076838784 -0.31837633 -0.26785493 -0.098448835 -0.2041718 -0.20479771 -0.14910951 -0.059172414
0.1352797 -0.18951346 -0.09963907 -0.13369682 -0.20929147 0.061851993 -0.22941954 0.2765456
-0.2054941 0.0761634 0.03109851 0.023542522 -0.18565841 0.3841186 0.19828811 0.42167604
0.0842097 -0.05715248 -0.026609443 0.1446844 -0.07779928 -0.04034765 -0.023230044 0.27583465
-0.10648002 0.365063 0.0064447266 -0.2010386 -0.026505651 0.083424635 0.21159272 -0.0005706783
0.21114519 0.118115634 -0.10068617 0.04527861 -0.0089491885 -0.19649562 0.14238013 -0.047793478
0.15744494 -0.12951098 -0.2935997 0.13429183 -0.015497673 0.12399933 -0.2757032 -0.25667736
-0.0431298 0.17611775 -0.022444058 0.20908973 -0.21254177 0.058240123 0.16870509 0.02930771
0.29741868 0.30743194 0.21514016 -0.17713532 0.16376524 0.0040891333 0.16401257 0.0124816885
0.17981724 -0.1046832 -0.15343653 -0.26470518 -0.23609923 -0.24133687 0.10651051 0.10470997
-0.17898783 0.042156596 -0.005953664 0.12912327 -0.040042486 -0.1395126 0.10141675 0.23232812
0.3875506 0.11360816 -0.11391065 -0.17603831 -0.1000766 0.047005817 0.29529262 -0.13492474
0.10768837 0.05269383 -0.09143254 -0.034689803 -0.05362585 0.15411203 0.31809267 -0.0141594075
0.38904938 0.18012644 0.29543832 0.20978211 0.18506671 -0.07100149 -0.13213375 0.07192841
00000000: 3906 08be a66d ae3e 2b0a 3b3e 1958 0dbe
00000010: b3bc 2f3e 9715 813c 6528 bebd cf54 493d
00000020: 6927 303e fe40 043e 2d0e 6e3c c69f b13c
00000030: 5953 833e b91c b53d 9c5b e43c f8f4 863e
00000040: e406 9cbe 3edd 9d3e 760c 3d3e 7914 e0bc
00000050: 5959 803d aa3e d83d 6b71 e83d 21a0 f43d
00000060: 833d 16bd de66 363e c945 a1bd 1536 0d3e
00000070: d700 33bc 5587 8a3c ca8d 453e 46c3 bebd
00000080: f7d4 123e 9026 e13e 9e0d d8bc 73cc fb3e
00000090: 24e0 cf3c d7cc 353d 3cc0 d8bd 3f39 1d3e
000000a0: a3f7 fa3d 12b2 5dbb 2746 14bd 0379 433c
000000b0: 757d 25be 2c84 3e3e 0176 6a3d 22ae f4bd
000000c0: 30da 82be 6a76 3dbe 0b59 3e3c c708 2e3e
000000d0: af3f 0c3e 9ae4 0abe a9b6 563d 698f 95be
000000e0: 63ba ca3d 754b 4abe b1c9 e93d 5298 de3d
000000f0: cc1f c2bc d9cd b53e 6f99 c33e 76b5 52be
00000100: 053f a43d 3e2a 74be c351 843d 1164 aebc
00000110: de13 81be 0fa7 a5be a2b3 353e b630 463d
00000120: 4dba 84bd 0b15 26be af09 0abe caa9 153e
00000130: 1470 053e 68ce b33e 7f4d b83c 729b 653d
00000140: 04d6 5abe 5810 07be c552 3fbd 179e 40bb
00000150: 64dc 0f3e d00f a7bd dd78 293d f15d 313e
00000160: bf4c 993d b09e 673d e5c0 883e ce1f 7dbe
00000170: a461 4ebe a170 763e deb5 0cbe 8bbe 24bd
00000180: 2348 063d 791b 4cbe 4b1f e8bc 4374 7dbe
00000190: 7c00 87ba 5b3e 5abe 823c b23d 8ceb 123e
000001a0: 1f83 8e3e a39a 003e d92d ebbd fe4a a63e
000001b0: 523d af3e d733 2f3e 96ae 423d c749 713e
000001c0: 6252 45be 1515 96be 4fd2 933e 6757 843e
000001d0: 8d41 6dbb 2e8a c63a 0461 223e fa07 2ebe
000001e0: 8059 0a3d 6b59 26be 8a5e 273c cd00 a53d
000001f0: 75ea 373e 751e f33d ab47 10be b32c bd3e
00000200: e88f fdbd b3d8 653e b376 553d de04 1abe
00000210: f953 b1bc b701 edbd 980b 0ebe aa96 163d
00000220: a599 97bc 3e82 1dbd 5683 64bc bcbd 71bb
00000230: d9cd 163e 8d33 373e 817e 86be 7cee 79bc
00000240: a75d 9dbd 3902 a3be 4824 89be 8b9f c9bd
00000250: 6a12 51be 7eb6 51be 2ab0 18be c65e 72bd
00000260: c386 0a3e d10f 42be 920f ccbd d2e7 08be
00000270: 8150 56be 8458 7d3d f5ec 6abe 6397 8d3e
00000280: 0c6d 52be 8ffb 9b3d 4dc2 fe3c 3fdc c03c
00000290: 3d1d 3ebe 31ab c43e 0a0c 4b3e ece5 d73e
000002a0: 2376 ac3d b818 6abd 0cfc d9bc 2628 143e
000002b0: 3b55 9fbd 9443 25bd ef4c bebc 333a 8d3e
000002c0: 3212 dabd 8ae9 ba3e 492e d33b 10dd 4dbe
000002d0: 6122 d9bc 89da aa3d c3ab 583e 9399 15ba
000002e0: 7236 583e 9ce6 f13d 8d34 cebd 1076 393d
000002f0: 9e9f 12bc 2636 49be 19cc 113e 18c3 43bd
00000300: 3f39 213e 879e 04be b352 96be cc83 093e
00000310: f4e9 7dbc 5cf3 fd3d f828 8dbe 376b 83be
00000320: e0a8 30bd 3658 343e 9adc b7bc 9e1b 563e
00000330: 8da4 59be 328d 6e3d 07c1 2c3e b916 f03c
00000340: 4347 983e b867 9d3e b44d 5c3e f662 35be
00000350: 13b2 273e 23fe 853b e9f2 273e ff7f 4c3c
00000360: 0322 383e 2564 d6bd 771e 1dbe 7087 87be
00000370: ffc3 71be 0321 77be 2f22 da3d 2e72 d63d
00000380: 9648 37be 65ac 2c3d f416 c3bb e438 043e
00000390: 9703 24bd 64dc 0ebe 96b3 cf3d 6ce7 6d3e
000003a0: 086d c63e 65ab e83d fd49 e9bd 6343 34be
000003b0: f6f4 ccbd 2c89 403d 9830 973e b629 0abe
000003c0: b88b dc3d 7cd5 573d fc40 bbbd e516 0ebd
000003d0: c7a6 5bbd 8bcf 1d3e 0bdd a23e dcfc 67bc
000003e0: 7b31 c73e 1173 383e b143 973e 1fd1 563e
000003f0: 2182 3d3e 3b69 91bd 124e 07be 344f 933d

conv2.bias f4 [10]
-0.162226 -0.17438105 -0.058585215 0.08404033 -0.14909303 0.12574486 0.012271201 0.0029518628
0.028537767 -0.031055612
00000000: 931e 26be f290 32be 0df7 6fbd 561d ac3d
00000010: d8ab 18be 43c3 003e 260d 493c 0a74 413b
00000020: 09c8 e93c 5768 febc

bn2.weight f4 [10]
1.0030086 1.0367968 0.98311627 0.98896915 0.9376767 0.9620926 0.98800457 0.9797066
1.0235804 1.0558587
00000000: 9662 803f c2b5 843f 82ad 7b3f 152d 7d3f
00000010: 950b 703f b34b 763f deed 7c3f 0dce 7a3f
00000020: af04 833f 6126 873f

bn2.bias f4 [10]
0.14042574 0.24285893 0.096209176 0.23033053 -0.03864336 0.054945175 0.023602823 -0.020020189
0.2446215 0.18091576
00000000: c4cb 0f3e 03b0 783e 5109 c53d c4db 6b3e
00000010: 8048 1ebd 310e 613d b55a c13c 6101 a4bc
00000020: 0f7e 7a3e fb41 393e

bn2.running_mean f4 [10]
0.36086598 0.5143368 0.59260064 0.7869025 0.43681788 0.7630455 0.7322524 0.7709976
0.7333791 1.0052843
00000000: 6dc3 b83e 94ab 033f adb4 173f 7172 493f
00000010: 98a6 df3e f356 433f e574 3b3f 1960 453f
00000020: bcbe 3b3f 28ad 803f

bn2.running_var f4 [10]
0.6180849 0.771799 1.7281271 2.0156507 0.4340998 1.2370867 1.9109412 1.3648208
1.2393972 2.3102932
00000000: d03a 1e3f 9f94 453f 4533 dd3f 6c00 0140
00000010: 5442 de3e db58 9e3f b999 f43f 73b2 ae3f
00000020: 91a4 9e3f d8db 1340

conv3.weight f4 [20, 10, 3]
-0.13749816 -0.14978841 -0.16675462 -0.06741029 -0.2653482 -0.29822817 -0.09110125 -0.11693086
0.032186024 -0.017161133 -0.034479883 -0.16554531 -0.13841617 -0.13484782 0.12811919 0.17437924
-0.19316253 0.22108768 -0.108028606 -0.0062843584 -0.0073473933 0.043312203 0.0845058 -0.1382218
0.24518354 0.1890225 0.20259081 -0.07418654 0.29885173 0.13163456 0.07431868 0.010062228
0.21668269 0.008229285 -0.2614798 0.0761949 0.0023004261 -0.08604701 0.07161728 0.25546333
0.13873206 0.22496562 0.12603699 -0.12931094 0.04537769 0.040094014 0.20180342 0.29090703
0.10596812 0.026187373 -0.17687595 0.23283364 0.23916899 0.026448041 -0.12381098 0.09474637
-0.11059734 -0.0586237 0.10883814 0.0031853234 -0.10186389 -0.20685646 -0.1302646 -0.12626782
-0.037499916 -0.125403 0.132528 0.06936124 -0.20386256 -0.042340763 -0.17789073 0.0022415512
-0.16471574 -0.14725848 0.06994094 0.1217705 -0.082334414 -0.19974326 0.08219449 0.2091032
-0.063917205 0.22454016 -0.110904075 -0.13934906 -0.12327456 -0.010872611 0.14972411 -0.11876704
-0.15362047 0.14317223 -0.0053733494 0.12143924 -0.22922121 0.11747876 0.02419027 0.2704378
-0.11471275 -0.19812696 -0.16091877 0.0020186931 -0.29511258 -0.23206975 0.17112006 0.14596166
0.14978665 -0.1734198 -0.12496298 -0.007740119 -0.22146666 -0.2119727 0.08913831 -0.13252477
0.0853473 0.19201268 -0.018355109 0.22151217 0.19357239 -0.14315233 -0.21073598 0.17039546
0.21103787 0.020983426 -0.099797376 0.18609793 -0.00308281 -0.09393957 -0.038865626 0.028867735
0.16729316 0.10902217 0.17312446 -0.027302263 0.11347887 -0.23583844 -0.2817635 0.024021745
0.21265249 0.11893634 0.13508445 -0.21629389 -0.16751987 0.22723408 -0.04912377 -0.009875264
-0.22386114 0.011103007 0.16403544 0.08085388 0.19033287 0.18509637 -0.16047409 -0.14249781
0.09239642 -0.0038960942 0.23947988 0.21356629 -0.096329704 0.03978705 0.1396437 0.09742036
0.07034681 0.119616926 0.14990138 0.3047766 0.34445608 -0.104337856 -0.084818654 -0.20129187
-0.107568204 -0.071125545 -0.21404739 -0.104521625 -0.07276365 -0.16028185 0.116301335 0.20169756
-0.0069326535 -0.08210582 -0.14936912 0.08163452 0.02687075 0.08022907 0.23606691 -0.11712547
-0.25102448 0.05569926 -0.14975269 -0.23133112 0.106235825 0.20041515 0.34953108 -0.1387067
-0.19326276 -0.22338831 -0.050309382 -0.17950705 -0.06895058 -0.04188547 0.058186106 -0.15595204
-0.12536167 -0.13598107 0.17896296 0.24408671 0.22335756 -0.084317066 0.03418602 0.3392317
0.1117616 0.30397815 0.25591308 -0.19816743 -0.17383803 0.17898336 0.3245176 0.24419741
-0.21601222 -0.16688377 0.05500684 -0.17703837 0.12963174 0.19490148 -0.10974193 0.11871658
-0.06287338 0.20057502 -0.11588881 -0.1723066 0.07081058 0.07211853 0.13534985 0.18278071
0.09639752 0.20819254 -0.19944689 -0.27551392 -0.19350927 -0.04365416 0.065251864 -0.0884858
0.07437199 -0.078762524 0.030765083 -0.15411074 -0.14874937 0.03770409 0.088125035 -0.13294621
0.1797019 -0.11252094 -0.12323634 0.25213423 0.09767775 -0.24125545 -0.14031655 -0.027517008
00000000: 51cc 0cbe 2262 19be b9c1 2abe 680e 8abd
00000010: b8db 87be 5db1 98be 4b93 babd 7279 efbd
00000020: 7ed5 033d 8195 8cbc c73a 0dbd b684 29be
00000030: f8bc 0dbe 8c15 0abe ad31 033e 7990 323e
00000040: 66cc 45be cf64 623e 1a3e ddbd 05ed cdbb
00000050: 67c2 f0bb 2368 313d 6011 ad3d 048a 0dbe
00000060: 6511 7b3e 1d8f 413e f773 4f3e 1def 97bd
00000070: 1803 993e 36cb 063e 6434 983d 0bdc 243c
00000080: 11e2 5d3e 1fd4 063c aee0 85be 120c 9c3d
00000090: bfc2 163b 6a39 b0bd 15ac 923d 17cc 823e
000000a0: c70f 0e3e 635d 663e d70f 013e 166a 04be
000000b0: f5dd 393d 9f39 243d 8ea5 4e3e c4f1 943e
000000c0: d005 d93d e786 d63c f81e 35be f16b 6e3e
000000d0: b7e8 743e 90a9 d83c 9c90 fdbd 630a c23d
000000e0: dc80 e2bd 681f 70bd 88e6 de3d dcc0 503b
000000f0: 049e d0bd 2ed2 53be 1564 05be 5a4c 01be
00000100: 8399 19bd a569 00be 6cb5 073e 440d 8e3d
00000110: 59c1 50be 826d 2dbd fd28 36be fde6 123b
00000120: 3eab 28be edca 16be 323d 8f3d d062 f93d
00000130: f29e a8bd 7f89 4cbe 9655 a83d 261f 563e
00000140: 06e7 82bd dbed 653e ad21 e3bd 85b1 0ebe
00000150: 5f77 fcbd 0923 32bc 4751 193e 223c f3bd
00000160: af4e 1dbe be9b 123e ec12 b0bb 23b5 f83d
00000170: f7b8 6abe b498 f03d ac2a c63c d376 8a3e
00000180: 85ee eabd cbe1 4abe e4c7 24be 0d4c 043b
00000190: ff18 97be b1a3 6dbe 193a 2f3e f976 153e
000001a0: ac61 193e f694 31be 97ec ffbd d3a0 fdbb
000001b0: 28c8 62be 5f0f 59be 258e b63d 93b4 07be
000001c0: 91ca ae3d f99e 443e 745d 96bc 16d4 623e
000001d0: d737 463e 8696 12be 2ccb 57be 267c 2e3e
000001e0: 501a 583e 6fe5 ab3c 9162 ccbd 7590 3e3e
000001f0: f808 4abb 6463 c0bd 9031 1fbd 077c ec3c
00000200: e64e 2b3e 0447 df3d 8a47 313e ffa8 dfbc
00000210: 9c67 e83d a27f 71be 4e43 90be 40c9 c43c
00000220: 93c1 593e e594 f33d 9453 0a3e 257c 5dbe
00000230: 548a 2bbe 0db0 683e 0236 49bd dccb 21bc
00000240: db3b 65be 63e9 353c e8f8 273e b896 a53d
00000250: 9fe6 423e e789 3d3e 5253 24be f2ea 11be
00000260: 563a bd3d 9d55 7fbb 373a 753e 1fb1 5a3e
00000270: 8248 c5bd bff7 223d c2fe 0e3e 5384 c73d
00000280: fd11 903d b8f9 f43d bf7f 193e ae0b 9c3e
00000290: 8c5c b03e 16af d5bd 67b5 adbd 751f 4ebe
000002a0: b84c dcbd 45aa 91bd 3d2f 5bbe 6f0f d6bd
000002b0: 1c05 95bd ed20 24be 652f ee3d ce89 4e3e
000002c0: 502b e3bb 1927 a8bd 38f4 18be 0030 a73d
000002d0: 0c20 dc3c 234f a43d 86bb 713e 7adf efbd
000002e0: 4886 80be e824 643d c558 19be 11e2 6cbe
000002f0: 2b92 d93d a139 4d3e bdf5 b23e 2109 0ebe
00000300: ace6 45be e8bf 64be 3611 4ebd b2d0 37be
00000310: f635 8dbd 1990 2bbd 8e54 6e3d e4b1 1fbe
00000320: cf5e 00be 9f3e 0bbe 1142 373e def1 793e
00000330: d8b7 643e 6dae acbd a406 0c3d c7af ad3e
00000340: 44e3 e43d 06a3 9b3e 0a07 833e 67ec 4abe
00000350: 9902 32be 6a47 373e 2c27 a63e e30e 7a3e
00000360: 4f32 5dbe 94e3 2abe da4e 613d 8c49 35be
00000370: 2fbe 043e 4194 473e 61c0 e0bd ae21 f33d
00000380: c2c3 80bd 8a63 4d3e 1d57 edbd 2471 30be
00000390: 2305 913d e1b2 933d 2799 0a3e de2a 3b3e
000003a0: 106c c53d 6d30 553e ce3b 4cbe 2910 8dbe
000003b0: 4b27 46be b4ce 32bd c5a2 853d 0b38 b5bd
000003c0: 5850 983d 3f4e a1bd 0e07 fc3c 35cf 1dbe
000003d0: c151 18be 9b6f 1a3d e67a b43d 0d23 08be
000003e0: c603 383e 6171 e6bd 5663 fcbd bd17 813e
000003f0: 460b c83d ab0b 77be 24af 0fbe 596b e1bc

conv3.bias f4 [20]
0.1723201 0.14087322 0.15875149 0.04511791 -0.12810008 0.065535285 -0.15541096 -0.103844404
-0.16482939 -0.037244488 -0.044421263 -0.14022928 -0.15830103 0.1289974 -0.16841704 0.018851245
-0.083997436 -0.028770488 -0.07147874 0.100984
00000000: ae74 303e 1241 103e c08f 223e 8fcd 383d
00000010: ab2c 03be 5d37 863d 0d24 1fbe 60ac d4bd
00000020: 09c9 28be ad8d 18bd 12f3 35bd 4498 0fbe
00000030: aa19 22be e517 043e 8475 2cbe ed6d 9a3c
00000040: d906 acbd 16b0 ebbc 7263 92bd b3d0 ce3d

bn3.weight f4 [20]
0.95594406 0.86077887 0.9008275 1.0805839 0.96294314 0.9787551 0.94190145 0.9569449
0.87494934 1.02839 1.022178 0.9869965 0.91566354 1.001494 0.9634286 1.0263917
0.94385856 0.92364156 0.8892551 1.025617
00000000: c0b8 743f 015c 5c3f a29c 663f 9350 8a3f
00000010: 7183 763f b28f 7a3f 7420 713f 57fa 743f
00000020: aefc 5f3f 49a2 833f bbd6 823f cdab 7c3f
00000030: ed68 6a3f f530 803f 42a3 763f ce60 833f
00000040: b7a0 713f c673 6c3f 39a6 633f 6b47 833f

bn3.bias f4 [20]
-0.06119362 -0.09513284 -0.023860862 0.008131712 -0.18215692 -0.14128347 -0.13698794 0.15275244
-0.064052306 -0.16590197 0.06790526 -0.22950116 -0.05909626 0.021937646 0.027722027 0.056388583
0.015290759 0.089140676 0.18385632 0.095951796
00000000: 29a6 7abd 02d5 c2bd db77 c3bc df3a 053c
00000010: 5887 3abe 9dac 10be 9146 0cbe 236b 1c3e
00000020: db2d 83bd 35e2 29be ea11 8b3d 5a02 6bbe
00000030: ec0e 72bd 94b6 b33c 4e19 e33c b7f7 663d
00000040: 1786 7a3c 638f b63d d544 3c3e 6082 c43d

bn3.running_mean f4 [20]
0.03544788 0.451874 -0.21565188 -0.031173721 0.19167495 0.26854324 0.08288981 -0.06733026
-0.35409966 0.10903244 -0.7143294 0.08314045 -0.4441254 0.38480824 -0.64012986 0.19496743
0.5090676 -0.33847526 -0.48845583 0.108745255
00000000: cc31 113d 075c e73e d9d3 5cbe 0860 ffbc
00000010: 7046 443e 807e 893e 22c2 a93d 73e4 89bd
00000020: 8d4c b5be 664c df3d 4bde 36bf 8a45 aa3d
00000030: 6864 e3be 9605 c53e 8ddf 23bf 8ba5 473e
00000040: 4152 023f a14c adbe e216 fabe d5b5 de3d

bn3.running_var f4 [20]
3.3974695 2.2263532 0.96220607 3.0772429 1.8373964 2.1840696 3.0276675 3.3287706
1.2091503 3.0451624 5.445313 3.8245842 2.7271204 2.934526 3.4915361 2.5117073
3.7547152 1.4338892 4.8193493 1.8358861
00000000: 2470 5940 927c 0e40 2353 763f 8cf1 4440
00000010: ce2f eb3f ccc7 0b40 4ec5 4140 940a 5540
00000020: 70c5 9a3f f1e3 4240 0140 ae40 fdc5 7440
00000030: 2489 2e40 46cf 3b40 5475 5f40 d0bf 2040
00000040: 414d 7040 ae89 b73f 1c38 9a40 51fe ea3f

fc_mu.weight f4 [20, 240]
0.081751816 0.034829855 0.05903807 -0.044564825 -0.18540862 -0.1181916 0.13326907 -0.07249594
0.14227061 0.058710657 0.017327 0.03843875 0.13149358 -0.045990042 0.08990052 -0.06485776
-0.16427892 0.09534003 0.023879794 -0.0036406177 0.09322578 0.051868457 0.040148325 -0.031932067
-0.13692595 -0.09072934 -0.13156477 -0.1017326 0.14964284 -0.036300693 0.03901778 0.027669558
-0.03555366 -0.0032908095 -0.010723026 -0.0032428633 -0.008498869 0.05740417 -0.070253946 -0.034226745
-0.2187241 -0.19210412 -0.029154312 -0.19889924 -0.0026982345 -0.17597535 0.02793164 0.02232115
-0.009071322 -0.05595976 -0.09830559 -0.16593929 0.07593895 0.14011995 0.08621939 0.046505246
-0.024880074 -0.010018521 0.08975657 0.009193293 0.0453912 -0.015264698 -0.19027409 -0.12022305
0.04238995 -0.12674235 0.017480118 0.08319609 -0.10465335 -0.03876894 -0.14982718 -0.21288733
-0.022127017 -0.11619173 0.073645845 -0.17657721 -0.020231282 -0.04659089 -0.053180072 -0.037464686
0.16510278 0.049299046 0.13708824 0.12978409 0.087010086 0.04620069 0.12065515 -0.093151435
-0.09277775 0.13617136 0.015760211 -0.17194486 0.09083448 -0.1132737 -0.03514109 0.106233045
0.008631835 -0.015711775 -0.08832579 0.018325042 -0.07898182 -0.06381481 0.021691486 0.04256919
-0.014200421 -0.0029251163 -0.039882887 0.014106222 -0.0051787933 0.053662892 -0.06953289 -0.093254864
0.031919234 -0.024853574 -0.118363865 0.06780273 0.11527606 -0.07703126 0.15401037 0.06561756
-0.017128835 -0.0883476 0.04954217 0.06841761 0.05894725 0.021612652 -0.011736625 -0.06831007
0.045239147 -0.07505201 -0.0711052 -0.11209196 0.039355632 -0.12274905 0.08237124 0.080370076
-0.1909034 -0.02467836 0.030939642 0.09356696 -0.101316564 -0.012550342 -0.12577666 -0.06815276
0.01613027 -0.12780178 -0.22938582 -0.1510676 0.053782713 -0.10790917 -0.13168687 -0.09674675
-0.16202466 -0.056568783 -0.1029288 -0.12484194 -0.014588724 -0.026018675 -0.018910017 0.020426665
-0.012471275 -0.0065382444 0.02734324 0.019239547 -0.15036589 0.055703666 0.21294828 0.06823094
-0.08614367 -0.11401356 -0.1126795 -0.055576947 0.1062596 -0.01838874 -0.018532177 -0.055852745
-0.008152422 0.093729205 -0.14323105 0.04546658 -0.012104377 0.036579706 0.07756442 0.11778974
0.115538724 0.15449783 -0.08568522 0.09292677 -0.062362928 -0.13724701 0.06272495 0.1901706
-0.14497833 -0.16982874 0.038215738 -0.049884293 -0.10073197 0.031035246 -0.051284853 -0.098927215
-0.1783518 -0.04853272 0.035113618 0.16356245 -0.10255592 0.09023017 -0.11850767 0.096808985
0.062375236 0.08830906 -0.026738824 -0.027016437 0.0305144 0.0064095254 -0.053627934 0.0701321
0.011788666 0.06661223 0.092827976 -0.081156254 0.029660579 0.14060281 -0.044349346 -0.030018821
0.01468403 -0.06021873 -0.029250665 0.092712015 0.001275752 -0.12863031 -0.18711607 -0.16191302
-0.076075904 -0.033160932 -0.07803932 0.117553934 -0.014684427 0.039975133 0.020926584 -0.10032818
-0.084948465 0.07484728 0.12192675 -0.07747764 0.027269866 0.037956975 0.113155305 0.022645125
0.0701592 -0.10538458 -0.1711668 -0.1539601 -0.0013285901 0.033288494 0.11997672 0.10748973
00000000: 7f6d a73d c0a9 0e3d e7d1 713d 9b89 36bd
00000010: c2db 3dbe 700e f2bd b077 083e c078 94bd
00000020: 63af 113e 967a 703d 5af1 8d3c f371 1d3d
00000030: 41a6 063e 0e60 3cbd c41d b83d 25d4 84bd
00000040: bc38 28be a241 c33d 8f9f c33c 6e97 6ebb
00000050: 28ed be3d 0574 543d 9272 243d 33cb 02bd
00000060: 5136 0cbe 4ed0 b9bd eab8 06be 2e59 d0bd
00000070: f93b 193e 09b0 14bd 1cd1 1f3d 45ab e23c
00000080: b7a0 11bd 9faa 57bb a1af 2fbc 3886 54bb
00000090: d73e 0bbc a320 6b3d 4de1 8fbd 5831 0cbd
000000a0: 36f9 5fbe f1b6 44be 06d5 eebc 3eac 4bbe
000000b0: ddd4 30bb e232 34be e5d0 e43c d8da b63c
000000c0: e29f 14bc 1036 65bd 7154 c9bd fdeb 29be
000000d0: e185 9b3d 9b7b 0f3e cb93 b03d 497c 3e3d
000000e0: 4cd1 cbbc b924 24bc 4bd2 b73d 779f 163c
000000f0: 1fec 393d c918 7abc 36d7 42be 8137 f6bd
00000100: 16a1 2d3d bfc8 01be 7732 8f3c b662 aa3d
00000110: 7f54 d6bd 2ecc 1ebd 4c6c 19be 23ff 59be
00000120: b843 b5bc eef5 edbd a2d3 963d a8d0 34be
00000130: 13bc a5bc 17d6 3ebd 59d3 59bd 9274 19bd
00000140: b410 293e cced 493d dc60 0c3e 1fe6 043e
00000150: 5832 b23d ef3c 3d3d 0c1a f73d 2ec6 bebd
00000160: 4302 bebd 8170 0b3e 8f1b 813c 5012 30be
00000170: 6e07 ba3d 0bfc e7bd 1bf0 0fbd b690 d93d
00000180: 8a6c 0d3c fbb5 80bc 27e4 b4bd 661e 963c
00000190: 38c1 a1bd 57b1 82bd 58b2 b13c 085d 2e3d
000001a0: e2a8 68bc 4fb3 3fbb 3d5c 23bd c91d 673c
000001b0: deb2 a9bb 9fcd 5b3d 4367 8ebd 68fc bebd
000001c0: bebd 023d b999 cbbc c168 f2bd 28dc 8a3d
000001d0: db15 ec3d 91c2 9dbd e5b4 1d3e 8062 863d
000001e0: c551 8cbc 96ef b4bd bbec 4a3d 881e 8c3d
000001f0: ac72 713d 040d b13c f94a 40bc 26e6 8bbd
00000200: af4c 393d deb4 99bd 9a9f 91bd 7890 e5bd
00000210: 5f33 213d db63 fbbd 41b2 a83d 1199 a43d
00000220: 2e7c 43be 462a cabc 2275 fd3c 09a0 bf3d
00000230: 0f7f cfbd f39f 4dbc 99cb 00be ad93 8bbd
00000240: a123 843c 78de 02be 1ee4 6abe 77b1 1abe
00000250: 434b 5c3d 7cff dcbd ecd8 06be 2923 c6bd
00000260: cbe9 25be abb4 67bd 56cc d2bd 22ad ffbd
00000270: 8b05 6fbc 1e25 d5bc 2ee9 9abc d255 a73c
00000280: 5254 4cbc c53e d6bb eefe df3c 419c 9d3c
00000290: 84f9 19be 8729 643d 1d0f 5a3e aabc 8b3d
000002a0: 186c b0bd f17f e9bd 82c4 e6bd a7a4 63bd
000002b0: a29e d93d fca3 96bc cbd0 97bc d9c5 64bd
000002c0: bc91 05bc 19f5 bf3d 29ab 12be 2a3b 3a3d
000002d0: 7051 46bc 9ad4 153d 18da 9e3d bf3b f13d
000002e0: 919f ec3d ae34 1e3e bc7b afbd 6450 be3d
000002f0: 4570 7fbd 7b8a 0cbe f075 803d 15bc 423e
00000300: 3375 14be 96e7 2dbe 1b88 1c3d 7953 4cbd
00000310: 904c cebd a13d fe3c 1110 52bd 5a9a cabd
00000320: dba1 36be 3fca 46bd 4cd3 0f3d ea7c 273e
00000330: d708 d2bd 98ca b83d 26b4 f2bd ca43 c63d
00000340: 2d7d 7f3d 61db b43d 610b dbbc 9351 ddbc
00000350: 56f9 f93c ff06 d23b f7a8 5bbd 6ba1 8f3d
00000360: 4025 413c fe6b 883d 981c be3d 4035 a6bd
00000370: befa f23c 2ffa 0f3e a9a7 35bd 08ea f5bc
00000380: 4995 703c eaa7 76bd 179f efbc ccdf bd3d
00000390: 2237 a73a aab7 03be 5b9b 3fbe 87cc 25be
000003a0: afcd 9bbd c2d3 07bd 14d3 9fbd 1ec0 f03d
000003b0: f396 70bc f7bc 233d 3a6e ab3c dc78 cdbd
000003c0: 76f9 adbd 8849 993d bbb4 f93d 99ac 9ebd
000003d0: 0e65 df3c c678 1b3d f8bd e73d 4582 b93c
000003e0: a0af 8f3d dfd3 d7bd 5a46 2fbe b7a7 1dbe
000003f0: 1624 aeba 8459 083d 5bb6 f53d 9323 dc3d

fc_mu.bias f4 [20]
0.080193326 0.13739051 -0.079245344 0.011320923 0.0931527 0.12021311 -0.062090524 0.13184369
0.15579408 0.17907973 -0.09211208 0.022563033 -0.011541192 -0.017893488 0.09039208 0.0018908309
-0.09385741 0.12813702 -0.0024542925 -0.0760711
00000000: 663c a43d 19b0 0c3e 624b a2bd 657b 393c
00000010: d8c6 be3d 4b32 f63d a252 7ebd 0802 073e
00000020: 7c88 1f3e ad60 373e 42a5 bcbd 1cd6 b83c
00000030: 4517 3dbc 5d95 92bc 7c1f b93d c2d5 f73a
00000040: 5038 c0bd 5a36 033e 32d8 20bb 2acb 9bbd

fc_logvar.weight f4 [20, 240]
-0.09775101 0.02056408 0.13555798 0.011325434 0.031499356 0.14766943 0.08269748 0.051364273
-0.1393067 0.057772323 -0.103392035 0.041391537 -0.013648793 0.12691787 -0.1168713 -0.024059564
-0.05199936 0.048719883 -0.100255236 0.10599133 0.04934457 -0.076810315 -0.10658142 0.032354742
-0.003365606 -0.061044037 -0.008280203 -0.12062676 0.09386495 -0.06955369 -0.07947968 0.12724733
-0.07836212 -0.078498036 -0.087514296 0.12058538 -0.14512949 0.11447543 0.089225486 -0.010180056
0.083309025 0.12225029 -0.082306616 0.067696035 -0.0559405 -0.059163287 -0.109284185 -0.151189
0.02954124 0.011930168 -0.0013257861 -0.065030195 -0.0016562343 0.052036077 -0.1350762 -0.13085914
-0.024673373 -0.13056946 -0.026843384 0.10448399 -0.044283457 -0.15025926 0.029390246 -0.13797769
-0.020362392 0.12871897 0.050859123 -0.12485705 -0.081842475 0.065154925 -0.00702323 0.14339364
0.01603809 0.1043579 0.047581807 0.07382125 -0.098231874 -0.06702639 -0.07838565 0.14461243
-0.08386518 -0.02982077 -0.13360429 0.09471938 -0.03460764 -0.06020739 -0.038630202 0.028281882
-0.09170993 0.10367286 0.05636552 0.08161083 0.008440405 0.06902774 0.11623967 0.11870763
-0.0037571639 0.115508944 0.0156786 -0.13629021 0.05945292 -0.10493805 -0.10291565 -0.03805159
0.12687957 0.04509449 0.0026085228 0.072617635 0.05130692 -0.032626532 -0.09873149 -0.10068433
-0.07329342 0.04034333 -0.117813036 -0.04410448 -0.114254884 0.12861675 0.06273045 0.0027544051
-0.081454396 -0.056160532 -0.012825623 -0.0016924888 0.13682994 0.00756526 0.08956075 -0.049895056
0.0404201 -0.0519042 0.089640245 -0.009211227 0.10698214 0.047680706 0.12606072 -0.065918215
-0.031365283 -0.03243974 -0.11814566 -0.13606241 -0.06070704 0.124598086 0.06820762 -0.0861611
0.034331873 0.05355619 0.09289794 0.028564319 0.033982635 -0.10564931 0.11744273 0.03986363
-0.017985359 0.105765164 -0.071672395 -0.076650955 0.0062360466 0.03191805 0.091871604 -0.10846512
0.079401776 0.119796276 -0.0032419562 -0.06243205 0.10197389 0.03702067 -0.11633378 0.115137696
-0.04726705 0.08607425 -0.12681085 -0.15011305 -0.09352526 0.14027572 0.008648515 0.12671605
-0.039834224 -0.14310342 -0.00034722686 -0.03981597 0.041385293 -0.13482247 -0.08355293 -0.14049065
0.026022986 -0.04086712 0.012988031 -0.087569274 0.031663135 -0.12486218 -0.012563109 0.07411407
0.038956314 0.10232639 0.046437368 -0.11925171 0.056018367 0.06612411 0.0892625 -0.147776
-0.0045107603 0.096730515 0.05106926 0.13094258 -0.15111962 0.14537263 -0.1404577 -0.07567541
0.14784554 0.01630272 0.0549476 -0.12689218 -0.14419541 -0.14105487 0.0027311593 -0.039417155
0.068795905 0.055236116 0.062310874 -0.12354784 0.06915161 0.019855201 0.07113372 0.13186342
-0.08568148 0.09409693 -0.10744628 0.019444004 0.033100814 -0.01815866 0.13898605 -0.1453492
0.117329925 0.027353749 -0.0032619387 0.14163479 0.10798535 -0.08907248 0.13922217 0.07330991
-0.14372358 0.030394629 0.017435253 0.104407966 -0.13442795 0.062952146 0.07315026 -0.07975914
0.07350168 0.09458242 -0.09245039 -0.0055450946 0.060499832 -0.13529325 -0.08162759 0.11849305
00000000: ae31 c8bd 0076 a83c b6cf 0a3e 508e 393c
00000010: 7805 013d a836 173e 4c5d a93d 5863 523d
00000020: 6aa6 0ebe aca2 6c3d 34bf d3bd 2c8a 293d
00000030: 309f 5fbc c2f6 013e 385a efbd 9018 c5bc
00000040: 48fd 54bd 808e 473d 9e52 cdbd fc11 d93d
00000050: 881d 4a3d ba4e 9dbd 5c47 dabd 6886 043d
00000060: 8091 5cbb 5009 7abd b0a9 07bc 2a0b f7bd
00000070: 443c c03d 2a72 8ebd 3ec6 a2bd 204d 023e
00000080: 527c a0bd 94c3 a0bd b23a b3bd 78f5 f63d
00000090: d39c 14be 1872 ea3d dabb b63d 40ca 26bc
000000a0: ec9d aa3d 5c5e fa3d 5f90 a8bd 38a4 8a3d
000000b0: de21 65bd 3455 72bd 63d0 dfbd 4ad1 1abe
000000c0: 7800 f23c c076 433c 00c6 adba 8d2e 85bd
000000d0: 0016 d9ba c823 553d 6a51 0abe f0ff 05be
000000e0: d01f cabc 00b4 05be a8e6 dbbc b4fb d53d
000000f0: 9262 35bd 90dd 19be d0c3 f03c 064a 0dbe
00000100: 08cf a6bc e8ce 033e a851 503d 0eb5 ffbd
00000110: 079d a7bd f26f 853d 2023 e6bb c8d5 123e
00000120: 5062 833c 98b9 d53d 24e5 423d 982f 973d
00000130: cb2d c9bd 2245 89bd a888 a0bd 4815 143e
00000140: 82c1 abbd b04a f4bc 90cf 08be 3cfc c13d
00000150: bec0 0dbd 069c 76bd b43a 1ebd 68af e73c
00000160: 6ad2 bbbd 7052 d43d 88df 663d 9423 a73d
00000170: a049 0a3c 6a5e 8d3d 100f ee3d fc1c f33d
00000180: c03a 76bb f48f ec3d 6870 803c a98f 0bbe
00000190: e884 733d c3e9 d6bd 71c5 d2bd fcdb 1bbd
000001a0: b8ec 013e 00b5 383d c0f3 2a3b 8eb8 943d
000001b0: 3427 523d 66a3 05bd bc33 cabd 9633 cebd
000001c0: dc1a 96bd 0c3f 253d f647 f1bd e6a6 34bd
000001d0: 77fe e9bd 1cb4 033e d278 803d 4083 343b
000001e0: 90d1 a6bd 9608 66bd 9022 52bc 80d6 ddba
000001f0: 261d 0c3e 00e6 f73b a06b b73d c25e 4cbd
00000200: 8c8f 253d 8099 54bd 4e95 b73d b0ea 16bc
00000210: 7419 db3d d84c 433d 1016 013e 2100 87bd
00000220: e278 00bd 88df 04bd 5af6 f1bd f253 0bbe
00000230: f2a7 78bd 482d ff3d 70b0 8b3d 3b75 b0bd
00000240: 949f 0c3d bc5d 5b3d 4641 be3d b8ff e93c
00000250: 6031 0b3d aa5e d8bd d085 f03d 0c48 233d
00000260: 0856 93bc 689b d83d fac8 92bd 2dfb 9cbd
00000270: c057 cc3b 80bc 023d 2e27 bc3d f622 debd
00000280: 669d a23d c057 f53d 0077 54bb c0b8 7fbd
00000290: b0d7 d03d fca2 173d 6840 eebd 50cd eb3d
000002a0: 189b 41bd b247 b03d b4da 01be 3cb7 19be
000002b0: 2c8a bfbd 70a4 0f3e 80b2 0d3c dac1 013e
000002c0: 3629 23bd b489 12be 000c b6b9 1216 23bd
000002d0: a083 293d e70e 0abe cc1d abbd c8dc 0fbe
000002e0: 282e d53c 4864 27bd c0cb 543c 8557 b3bd
000002f0: 34b1 013d beb7 ffbd 80d5 4dbc 1ec9 973d
00000300: a890 1f3d 8090 d13d 1c35 3e3d 3e3a f4bd
00000310: 8473 653d 146c 873d 42cf b63d 9752 17be
00000320: 00cf 93bb a61a c63d 002e 513d d015 063e
00000330: 1abf 1abe 90dc 143e 25d4 0fbe b6fb 9abd
00000340: d264 173e 488d 853c bc10 613d 06f0 01be
00000350: f6a7 13be b070 10be 40fd 323b e273 21bd
00000360: dee4 8c3d 443f 623d b039 7f3d a606 fdbd
00000370: 5c9f 8d3d 60a7 a23c 8eae 913d 3407 073e
00000380: c679 afbd e4b5 c03d cc0c dcbd 0849 9f3c
00000390: b894 073d 78c1 94bc 5c52 0e3e 6cd6 14be
000003a0: ac4a f03d f814 e03c 40c6 55bb b608 113e
000003b0: 6c27 dd3d a26b b6bd 4290 0e3e 8223 963d
000003c0: 462c 13be 28fe f83c 60d4 8e3c d8d3 d53d
000003d0: 7ba7 09be 0eed 803d cecf 953d c358 a3bd
000003e0: 0c88 963d 6eb4 c13d a156 bdbd a0b3 b5bb
000003f0: acce 773d 508a 0abe 5e2c a7bd 7cac f23d

fc_logvar.bias f4 [20]
0.046911992 -0.045900196 0.0049370304 -0.0047810413 0.032044426 0.03446456 0.057520077 -0.0050278865
0.057249554 -0.05494399 -0.019507814 -0.061479516 0.043555602 -0.054343063 -0.05118681 0.024757229
-0.006244663 -0.026382372 -0.051323105 -0.016838484
00000000: ca26 403d d801 3cbd d0c6 a13b 48aa 9cbb
00000010: 0441 033d b62a 0d3d 2c9a 6b3d f8c0 a4bb
00000020: 827e 6a3d f30c 61bd dace 9fbc f2d1 7bbd
00000030: 5c67 323d d596 5ebd 43a9 51bd accf ca3c
00000040: 08a0 ccbb d81f d8bc 2d38 52bd dcf0 89bc

fc1.weight f4 [120, 20]
0.067091756 0.20700946 -0.01917891 0.17885794 -0.0055517317 0.13259465 -0.064491145 0.045236077
0.109101854 -0.09788989 -0.011235471 0.051747397 0.024628706 -0.035413396 -0.08156151 0.08130919
-0.045302283 0.013622456 0.05633238 0.10279218 0.03194806 -0.024631692 -0.23062253 -0.14096059
0.123363316 0.005894384 0.07545533 0.07186363 0.0781568 0.17438467 -0.037178468 0.09592008
-0.022994976 -0.07500476 0.18548882 -0.054259542 0.027744101 -0.07637011 -0.041222673 -0.16528046
0.14227915 0.028975729 -0.08249638 0.057439025 -0.095532395 -0.035813406 0.111276545 0.1431811
0.06325542 -0.25470683 0.0006374685 0.098272994 0.105938666 0.07857279 -0.16840419 -0.0723561
-0.057324983 0.06876796 0.040774174 0.10820496 -0.04886939 -0.14110036 0.12328891 0.0209778
-0.06726003 0.013319317 0.0210637 0.04995027 0.06857422 0.20525934 0.16445129 0.06106692
0.03487844 0.100276425 0.122513495 -0.13350712 -0.1379805 0.16645376 -0.12743518 0.0004901047
0.08600838 0.031059654 -0.04117003 -0.11750651 0.11282759 0.042249873 -0.037916828 0.0008733102
-0.044318695 0.16552061 -0.02148518 -0.060651258 0.043562826 0.17197338 0.23075673 -0.06273905
-0.16865657 0.081149034 -0.16098763 -0.1054453 0.16241 -0.094633944 0.10880716 -0.016684813
-0.048867617 0.15917887 -0.060638506 0.13231018 -0.05008663 0.24142781 0.10281045 0.25022715
-0.09594064 0.2365873 -0.112387426 0.1325278 0.10859852 0.14948048 0.13449599 -0.016533516
0.010517054 -0.032296475 0.11061589 -0.22961816 -0.008646748 0.065714695 -0.049931116 0.15752366
-0.021091824 0.11454456 -0.0087992875 0.21927088 0.14225537 0.07948334 0.007317031 -0.040701795
-0.1322569 0.12510309 0.006010719 0.058753032 -0.12081469 0.12144384 -0.077284105 0.13534103
0.05807084 0.31948727 -0.096962765 -0.0059216097 0.14039446 0.10226555 -0.17593642 0.097815596
0.0017498988 0.04958678 0.1159524 -0.09935564 -0.037349623 -0.03252663 -0.106043495 0.033917952
0.057077393 0.12726136 0.058119033 -0.11240073 0.14317973 0.022348529 0.101665944 0.09094133
0.13100164 0.022044161 0.044414684 0.15429626 -0.032492537 0.12514624 -0.19782157 -0.113934636
0.07070723 0.10576009 -0.011280836 -0.010360087 0.028700056 0.014352518 0.051302157 -0.12087511
-0.17844258 -0.09618462 -0.20122968 -0.23901774 0.028387563 0.11910544 0.018705301 -0.21838818
-0.17955816 0.049351826 0.19786409 -0.05053171 0.0731369 0.09777536 0.17552404 -0.11330285
0.045649216 0.16099891 0.0809955 -0.21581402 -0.08591671 0.020178182 -0.04612381 0.043998037
0.08632619 0.032787997 -0.14902586 -0.16958608 0.14195813 -0.03505859 0.07460365 -0.16372272
-0.09369952 0.05422778 -0.017730484 -0.16670963 0.23627552 0.21429102 -0.21347506 -0.1523245
-0.012873831 0.13136251 0.22497949 0.13832107 -0.26220092 0.06949985 -0.082040295 0.23487833
-0.121043734 0.12896657 -0.039016545 -0.043306787 -0.15174063 0.08131063 0.19207132 0.08576493
0.30414832 -0.16848597 -0.12793104 0.0036220849 0.07482776 0.1203312 0.14118445 -0.037673548
0.017540084 0.0881173 -0.20833324 -0.3348086 -0.171802 0.034983497 0.24628362 0.17837192
00000000: 6767 893d 4afa 533e 171d 9dbc 8926 373e
00000010: 4deb b5bb e4c6 073e ef13 84bd 7749 393d
00000020: cb70 df3d 7f7a c8bd fb14 38bc 14f5 533d
00000030: 24c2 c93c a30d 11bd b909 a7bd 6f85 a63d
00000040: e38e 39bd b930 5f3c c8bc 663d b584 d23d
00000050: f8db 023d 67c8 c9bc 5028 6cbe f957 10be
00000060: e8a5 fc3d ad25 c13b 5388 9a3d 3d2d 933d
00000070: ac10 a03d e591 323e 7348 18bd bf71 c43d
00000080: f65f bcbc 189c 99bd c8f0 3d3e 413f 5ebd
00000090: 9947 e33c ef67 9cbd 1bd9 28bd 483f 29be
000000a0: a0b1 113e 825e ed3c ddf3 a8bd 2f45 6b3d
000000b0: 7da6 c3bd 14b1 12bd f5e4 e33d 119e 123e
000000c0: 0f8c 813d ef68 82be c91b 273a 5a43 c93d
000000d0: 5ff6 d83d c5ea a03d 2672 2cbe 6f2f 94bd
000000e0: 9acd 6abd 37d6 8c3d d202 273d 909a dd3d
000000f0: 452b 48bd 9d7c 10be e57e fc3d a3d9 ab3c
00000100: a0bf 89bd 4439 5a3c c88d ac3c a898 4c3d
00000110: a470 8c3d 812f 523e eb65 283e 4f21 7a3d
00000120: b2dc 0e3d ba5d cd3d 5be8 fa3d 17b6 08be
00000130: c34a 0dbe db72 2a3e 5e7e 02be 5f7a 003a
00000140: 2925 b03d d170 fe3c e8a1 28bd 41a7 f0bd
00000150: 2712 e73d 340e 2d3d ad4e 1bbd dbee 643a
00000160: 8587 35bd 3c7e 293e b001 b0bc 746d 78bd
00000170: ef6e 323d ca19 303e 7e4b 6c3e 557d 80bd
00000180: 4fb4 2cbe 7731 a63d f1d9 24be b5f3 d7bd
00000190: cf4e 263e 71cf c1bd 4ad6 de3d 97ae 88bc
000001a0: 6929 48bd c9ff 223e 1560 78bd 527c 073e
000001b0: a327 4dbd da38 773e 498e d23d c61d 803e
000001c0: 877c c4bd f143 723e 612b e6bd 5eb5 073e
000001d0: e768 de3d 6911 193e 51b9 093e 4c71 87bc
000001e0: b94f 2c3c 4f49 04bd 958a e23d 0621 6bbe
000001f0: 17ab 0dbc 6d95 863d 9284 4cbd e24d 213e
00000200: c3c8 acbc 5796 ea3d e32a 10bc 8c88 603e
00000210: 64ab 113e 29c8 a23d b4c3 ef3b edb6 26bd
00000220: 5a6e 07be 061b 003e 91f5 c43b 05a7 703d
00000230: b16d f7bd 8cb7 f83d 2147 9ebd d796 0a3e
00000240: b0db 6d3d d693 a33e 6a94 c6bd 100a c2bb
00000250: 91c3 0f3e 9a70 d13d ad28 34be 8b53 c83d
00000260: dc5c e53a 821b 4b3d 7478 ed3d f87a cbbd
00000270: ebfb 18bd a53a 05bd 552d d9bd 8ded 0a3d
00000280: fcc9 693d cd50 023e 390e 6e3d 5b32 e6bd
00000290: b59d 123e 4314 b73c 3c36 d03d 733f ba3d
000002a0: 4b25 063e f595 b43c 2cec 353d d7ff 1d3e
000002b0: e516 05bd 5626 003e bd91 4abe 9056 e9bd
000002c0: f4ce 903d bf98 d83d 41d3 38bc 5bbd 29bc
000002d0: 611c eb3c d326 6b3c 3622 523d 5f8d f7bd
000002e0: a7b9 36be 71fc c4bd 270f 4ebe 11c1 74be
000002f0: 098d e83c 8eed f33d dc3b 993c 27a1 5fbe
00000300: 18de 37be 2425 4a3d e29c 4a3e 57fa 4ebd
00000310: cdc8 953d 733e c83d 93bc 333e 530b e8bd
00000320: acfa 3a3d e6dc 243e f8e0 a53d 5afe 5cbe
00000330: 1af5 afbd b74c a53c 52ec 3cbd 4937 343d
00000340: c9cb b03d b54c 063d 3c9a 18be f9a7 2dbe
00000350: 795d 113e 9999 0fbd ccc9 983d eea6 27be
00000360: 89e5 bfbd f31d 5e3d 853f 91bc eeb5 2abe
00000370: 36f2 713e 1b6f 5b3e 3599 5abe f4fa 1bbe
00000380: c3ec 52bc e583 063e 0661 663e 0aa4 0d3e
00000390: 333f 86be f055 8e3d be04 a8bd f283 703e
000003a0: c7e5 f7bd d00f 043e d0cf 1fbd 7562 31bd
000003b0: e561 1bbe 3086 a63d 58ae 443e 86a5 af3d
000003c0: 54b9 9b3e 9687 2cbe 5b00 03be 8060 6d3b
000003d0: 4c3f 993d 3470 f63d a892 103e 944f 1abd
000003e0: 39b0 8f3c d876 b43d 4f55 55be 086c abbe
000003f0: ddec 2fbe db4a 0f3d c631 7c3e 21a7 363e

fc1.bias f4 [120]
-0.051101692 -0.0853187 -0.07452566 0.31490716 0.22522533 -0.15501852 0.28077474 -0.012736505
0.40208086 0.1179176 0.070912324 0.27242053 -0.02294469 -0.09217846 0.17722051 -0.091363326
0.08179675 0.16653204 0.023662087 -0.028362434 -0.08653273 -0.16547789 0.120976284 -0.002708755
0.118397884 -0.08966643 0.25611174 -0.0859128 0.119224966 0.22980547 0.2338151 -0.10895444
0.2390954 0.24410331 0.15282108 0.006879212 -0.24255109 0.060293477 -0.031482667 -0.14695588
-0.05588189 -0.23170602 0.120451406 -0.061536707 -0.05204804 -0.09689054 -0.057355434 -0.17197102
0.15186737 -0.043532785 0.19192033 -0.14565857 0.1982232 -0.17339066 -0.045153867 0.22023343
0.5510719 -0.2225952 0.09147357 0.58394074 0.17494029 0.0027827576 -0.23609214 -0.38550308
0.18369268 -0.043581333 0.08751303 0.09021525 -0.26593742 -0.11932093 0.23450021 0.3399458
0.24537654 0.2837271 0.08565972 0.20024034 0.22204623 0.25646088 0.18757899 -0.086434886
0.05403053 0.29855648 0.118140735 0.3070021 0.2052099 -0.043851476 0.00016669287 -0.044638883
0.116175644 -0.041901123 -0.09940723 0.19830707 0.112716585 0.009466715 0.13821486 0.17975461
0.17148653 -0.019929925 0.23411618 0.09476114 0.22645585 -0.06672544 0.036787596 0.16561566
0.11428265 -0.08472886 -0.21850792 -0.04451489 0.10146233 -0.016708525 0.00539231 -0.25613478
0.133816 -0.100942396 -0.041689686 -0.01350895 -0.19853151 -0.06669278 0.049890276 0.34707755
00000000: 0250 51bd 92bb aebd e9a0 98bd 833b a13e
00000010: 78a1 663e 2dbd 1ebe b5c1 8f3e c6ac 50bc
00000020: 8bdd cd3e c87e f13d 7b3a 913d b47a 8b3e
00000030: 81f6 bbbc 0fc8 bcbd 4b79 353e b21c bbbd
00000040: 0e85 a73d 6087 2a3e fed6 c13c 5658 e8bc
00000050: 1238 b1bd 0973 29be 6ac2 f73d 5e85 31bb
00000060: 977a f23d 09a3 b7bd 1421 833e 0df3 afbd
00000070: 382c f43d 2052 6b3e 3a6d 6f3e 8123 dfbd
00000080: 6dd5 743e 38f6 793e 217d 1c3e 036b e13b
00000090: 505f 78be 4bf6 763d f8f3 00bd 9a7b 16be
000000a0: 69e4 64bd 5844 6dbe 3aaf f63d ea0d 7cbd
000000b0: 5330 55bd 8c6e c6bd 88ed 6abd 2c19 30be
000000c0: 1f83 1b3e 6f4f 32bd c386 443e 8527 15be
000000d0: 06fb 4a3e 528d 31be 43f3 38bd df84 613e
000000e0: 0c13 0d3f ffef 63be 7f56 bb3d 247d 153f
000000f0: 8c23 333e ed5e 363b 23c2 71be a960 c5be
00000100: ef19 3c3e 5782 32bd 083a b33d c6c2 b83d
00000110: f328 88be 885e f4bd d320 703e 600d ae3e
00000120: fd43 7b3e ae44 913e 5d6e af3d ce0b 4d3e
00000130: 1660 633e d74e 833e b514 403e c604 b1bd
00000140: 1e4f 5d3d 65dc 983e c5f3 f13d 612f 9d3e
00000150: 8b22 523e 9b9d 33bd 47ca 2e39 43d7 36bd
00000160: 7fed ed3d 83a0 2bbd 0596 cbbd 0211 4b3e
00000170: f4d7 e63d 481a 1b3c 3288 0d3e 9811 383e
00000180: 2a9a 2f3e 1544 a3bc 27bc 6f3e 2112 c23d
00000190: 0be4 673e 59a7 88bd 97ae 163d 2797 293e
000001a0: 060d ea3d 5386 adbd 8ac0 5fbe 3f55 36bd
000001b0: 7bcb cf3d 51e0 88bc fab1 b03b 1924 83be
000001c0: 1007 093e e3ba cebd cec2 2abd a554 5dbc
000001d0: d84b 4bbe 3996 88bd bf59 4c3d 26b4 b13e
