DomainAda/documents/lae_model_params.pth (torch, 72740 bytes, 38 tensors)

conv1.weight f4 [10, 20, 3]
0	0x3e56c315	0.20972855
1	0x3c611fa3	0.013740453
2	0xbe2ef4e9	-0.17085613
3	0xbd9926dd	-0.07478116
4	0x3c6f336a	0.01459966
5	0x3e280212	0.1640704
6	0x3d87e188	0.066348135
7	0x3d90b23f	0.07065248
8	0x3d0ff3a3	0.03514446
9	0xbe052a1f	-0.13004349
10	0xbdf3ca7d	-0.11903856
11	0x3e7232e5	0.23652227
12	0xbb52fe01	-0.0032194855
13	0x3e1a89db	0.1509165
14	0x3e58781f	0.21139573
15	0xbd91f106	-0.0712605
16	0xbbc5a33e	-0.006031423
17	0x3e0b11ea	0.13581052
18	0xbd212cf4	-0.03934951
19	0xbd338e78	-0.04383704
20	0x3e63910b	0.22223298
21	0xbdf3ce04	-0.11904529
22	0x3e8fc804	0.28082287
23	0x3e7c42bb	0.2463483
24	0x3df679e9	0.12034971
25	0x3e6e391f	0.23263977
26	0xbe00dd45	-0.12584408
27	0xbe1b203b	-0.15149014
28	0xbe2b5f6c	-0.1673562
29	0x3e3a1fa8	0.18176138
30	0x3e3220f0	0.17395377
31	0xbd062570	-0.032750547
32	0xbde68e92	-0.11257662
33	0x3e7c95cc	0.24666518
34	0xbdd8e5b0	-0.105906844
35	0xbd87875e	-0.06617616
36	0x3d8941be	0.067019925
37	0x3ce46102	0.027878288
38	0xbe76f71d	-0.24117704
39	0x3e000248	0.1250087
40	0xbe3d24f8	-0.18471134
41	0x3d961baa	0.07329495
42	0x3e5b4093	0.21411352
43	0x3d9edff1	0.07757557
44	0x3cdb9145	0.026802668
45	0x3e547d47	0.20750915
46	0xbe32ff13	-0.17480116
47	0xbde4ef80	-0.111784935
48	0xbe6d72dc	-0.23188347
49	0xbe37dd38	-0.17955482
50	0x3e73d0ac	0.23810071
51	0xbe9b45f3	-0.30326805
52	0xbe48ced9	-0.19610156
53	0xbd01436f	-0.03155845
54	0x3b92ad1a	0.0044762017
55	0x3e97297a	0.29523832
56	0x3e7d7499	0.2475151
57	0x3c20ffe3	0.009826633
58	0xbe7debc4	-0.24796969
59	0x3e4f862a	0.20266023
60	0x3e15db00	0.14634323
61	0xbe6eab30	-0.2330749
62	0xbde57d64	-0.11205557
63	0xbe6f51dd	-0.23371072
64	0xbe7998cd	-0.24374695
65	0x3d89af5d	0.06722901
66	0xbdad86cd	-0.08472977
67	0x3e65eb76	0.22453102
68	0xbd3348c1	-0.043770555
69	0xbe5531b0	-0.20819736
70	0x3e5edf95	0.21764977
71	0xbccd9bd3	-0.025098717
72	0x3d11387a	0.03545425
73	0x3e2e3ecc	0.17016143
74	0xbe4ae073	-0.19812183
75	0xbe692d4e	-0.22771189
76	0x3da31b84	0.079642326
77	0xbd65901b	-0.056045633
78	0x3cf0bd21	0.029387059
79	0x3e00e819	0.12588538
80	0x3d8ae5c8	0.067821085
81	0xbc80f8da	-0.015743662
82	0x3e25b7b1	0.16183354
83	0x3e6c8771	0.23098542
84	0x3e3fc27a	0.1872653
85	0x3db0cda7	0.08632975
86	0xbe040512	-0.12892559
87	0x3e4eea47	0.20206557
88	0xbdb0d181	-0.0863371
89	0x3e530b01	0.20609666
90	0x3dd70ba6	0.10500269
91	0xbc4564a7	-0.012047923
92	0x3dd4a420	0.10382867
93	0x3c3486cf	0.011018469
94	0xbd73e241	-0.059541944
95	0xbd466d2a	-0.04844395
96	0xbdb76801	-0.08955384
97	0x3c96f2dd	0.018426353
98	0x3c781bae	0.015143318
99	0xbe14e715	-0.14541276
100	0xbe16e53e	-0.14735886
101	0x3db1ea1c	0.08687231
102	0xbe6788c0	-0.2261076
103	0xbcb05aeb	-0.021527728
104	0x3d240dd2	0.040052243
105	0xbe70dec7	-0.23522483
106	0x3e616814	0.22012359
107	0x3ddbd37d	0.107336976
108	0xbe52689e	-0.20547721
109	0xbe2d897a	-0.16946974
110	0x3e6451e9	0.22296871
111	0x3e0a5aec	0.13511246
112	0xbda8a212	-0.082340375
113	0x3dc5f80b	0.09666451
114	0xbe93c322	-0.28859812
115	0xbd5733d1	-0.05253965
116	0xba6c2914	-0.00090088067
117	0x3de57bbf	0.11205243
118	0xbcd1f7c5	-0.025630841
119	0xbe3c8bea	-0.18412748
120	0x3e1ce894	0.15323097
121	0xbe7b5960	-0.24545813
122	0x3bd2dd9d	0.00643511
123	0x3e26558a	0.16243568
124	0x3e09cdfb	0.13457482
125	0xbd106974	-0.035256818
126	0x3bcdd716	0.0062817438
127	0xbdcee668	-0.1010254
128	0x3dde964e	0.10868512
129	0x3d145075	0.036209542
130	0xbe851bff	-0.25997922
131	0x3de2952d	0.11063609
132	0xbdcb457b	-0.09925362
133	0x3dc15d5d	0.09441636
134	0xbe45d5a2	-0.19319776
135	0xbdbe914c	-0.09305057
136	0xbe085219	-0.13312568
137	0x3d262d1c	0.040570363
138	0x3e51fa4e	0.2050564
139	0x3e0156ea	0.12630811
140	0xbe6018dc	-0.21884483
141	0x3d751a42	0.059839495
142	0xbe4d6207	-0.20056926
143	0xbe4c64a1	-0.19960262
144	0xbe6fc060	-0.23413229
145	0x3db0b032	0.086273566
146	0x3e376d6d	0.17912836
147	0xbe800f7b	-0.2501181
148	0xbda9a1fb	-0.082828484
149	0x3ce68c19	0.028142976
150	0x3d6a520b	0.05720715
151	0xbc7dfdc5	-0.015502398
152	0xbe8de221	-0.27711585
153	0x3d849f04	0.06475642
154	0x3e1542cf	0.14576267
155	0x3e1a9b6e	0.15098354
156	0xbd4683f2	-0.048465677
157	0xbe20c437	-0.1569985
158	0x3e171706	0.14754876
159	0xbd14b5c4	-0.036306158
160	0x3e773b68	0.24143755
161	0xbd2f7478	-0.042835683
162	0x3e01b9f5	0.12668593
163	0xbd832c74	-0.06404963
164	0xbd9358dc	-0.07194683
165	0xbdc3d067	-0.09561234
166	0xbdb10d92	-0.086451665
167	0x3dffc916	0.12489526
168	0x3df10ab9	0.11769623
169	0xbe378741	-0.17922689
170	0x3e2d47e7	0.1692196
171	0x3de974a8	0.113992035
172	0xbd834772	-0.064101115
173	0xbe11b942	-0.14230826
174	0xbd8e19bb	-0.069385014
175	0xbd83e798	-0.064406574
176	0xbe76fd38	-0.24120033
177	0xbe2426d0	-0.16030431
178	0xbe6be0a3	-0.23034911
179	0xbe0570ee	-0.1303136
180	0x3ddf07a5	0.1089013
181	0xbe4ce64f	-0.20009731
182	0xbdc721b0	-0.09723222
183	0x3cdc6793	0.026904857
184	0x3e567f5c	0.20947021
185	0x3dc89469	0.09793932
186	0xbe024e11	-0.12725092
187	0x3e2a5bf1	0.16636635
188	0x3e6d5caf	0.23179887
189	0x3dd4898b	0.10377797
190	0x3c247a1a	0.010038877
191	0xbd82cd91	-0.06386865
192	0x3e224c3f	0.15849398
193	0x3e175620	0.14778948
194	0x3e8be19c	0.27320564
195	0x3e40264b	0.18764608
196	0x3e30688d	0.17227383
197	0x3e3bdb31	0.18345334
198	0xbe6b5416	-0.22981295
199	0xbd667f4c	-0.056273744
200	0xbe4c01d1	-0.19922568
201	0x3d906ac4	0.07051614
202	0xbe3eb41e	-0.18623397
203	0xbe4b162d	-0.19832678
204	0x3bbbd188	0.005731765
205	0xbd159243	-0.03651644
206	0x3e1fa0c8	0.15588677
207	0x3e8a945d	0.27066317
208	0x3e7e8f35	0.24859317
209	0xbdb2823f	-0.08716249
210	0xbc0a7aa9	-0.008452096
211	0xbe053d77	-0.13011728
212	0xbe70182f	-0.23446725
213	0xbd6cc382	-0.05780364
214	0xbce2d044	-0.0276872
215	0xbdc0e56f	-0.09418761
216	0x3e6273b5	0.22114451
217	0xbdf3d6df	-0.11906218
218	0x3e3e4898	0.1858238
219	0xbe5c681b	-0.21524088
220	0x3d6b321b	0.05742083
221	0x3d9f0947	0.077654414
222	0xbdaafd7c	-0.083491296
223	0xbe451534	-0.1924637
224	0xbe350a98	-0.17679822
225	0xbe207038	-0.15667808
226	0x3c040252	0.008057194
227	0xbe4f128f	-0.20221923
228	0xbe7991a4	-0.24371964
229	0x3caaff38	0.02087365
230	0x3dedbb2b	0.11607965
231	0xbd140c1f	-0.036144372
232	0xbd674802	-0.056465156
233	0xbe1e156e	-0.15437862
234	0x3dd3d19b	0.103427134
235	0x3e8073bd	0.250883
236	0x3e47733e	0.19477555
237	0x3e685182	0.22687343
238	0xbca7bd94	-0.02047614
239	0xbd48be08	-0.049009353
240	0xbe05d498	-0.1306938
241	0x3d1bc682	0.03803111
242	0xbd804404	-0.06262973
243	0x3dd0491f	0.10170197
244	0x3e7ac531	0.24489285
245	0xbe569ac8	-0.20957482
246	0x3dbc3a39	0.091907926
247	0x3d4b3847	0.049614217
248	0xbe06c87f	-0.1316242
249	0xbd1f111c	-0.038834676
250	0x3cf37bd7	0.029722137
251	0x3db4a83f	0.08821153
252	0xbe9548d0	-0.29157114
253	0x3db1e31f	0.08685898
254	0xbe891ad4	-0.2677828
255	0x3de5712a	0.11203225

conv1.bias f4 [10]
0	0xbca3dff7	-0.020004256
1	0x3d4b78a2	0.04967559
2	0x3e1befd5	0.15228207
3	0x3d850295	0.06494633
4	0x3dc14556	0.09437053
5	0x3defd792	0.11711039
6	0x3e67ecab	0.22648875
7	0xbd89a134	-0.067202
8	0xbe176af1	-0.14786889
9	0x3e04a3bf	0.12953089

bn1.weight f4 [10]
0	0x3f86e8f9	1.0539848
1	0x3f65e90d	0.8980873
2	0x3f8fe297	1.1241025
3	0x3f81bee6	1.0136383
4	0x3f67d641	0.905613
5	0x3f673b58	0.90324926
6	0x3f696c36	0.9118074
7	0x3f6ff355	0.9373067
8	0x3f8025e8	1.0011568
9	0x3f4f04cd	0.808667

bn1.bias f4 [10]
0	0x3e1be078	0.15222347
1	0xbac4d04e	-0.0015015693
2	0x3e9460d6	0.2898013
3	0x3e581a5a	0.21103802
4	0xbec282e9	-0.37990502
5	0x3e3e7a3b	0.18601315
6	0x3ea0afb2	0.31384045
7	0xbda741c4	-0.08166841
8	0x3dc0da98	0.094166934
9	0xbe9a7f01	-0.3017502

bn1.running_mean f4 [10]
0	0x3dc021f4	0.09381476
1	0x3bc9b7f3	0.0061559617
2	0x3f090a60	0.53531456
3	0x3d761c0f	0.060085353
4	0x3f56984c	0.83826137
5	0x3ed570e2	0.41687685
6	0x3f2478d9	0.642469
7	0x38eae112	0.00011199912
8	0x3c2745a4	0.010209475
9	0x3e878277	0.26466724

bn1.running_var f4 [10]
0	0x3d30695b	0.043069225
1	0x3b195f5b	0.0023402784
2	0x3cfe77ec	0.031063043
3	0x3ca689fb	0.020329466
4	0x3f01f263	0.5076048
5	0x3e2e9c74	0.1705187
6	0x3d650fbe	0.055923216
7	0x372936b8	1.0085925e-05
8	0x3b38122b	0.0028087
9	0x3d6ac270	0.057314336

conv2.weight f4 [10, 10, 3]
0	0x3e24f769	0.16110004
1	0xbdad4183	-0.08459761
2	0x3e69db27	0.22837506
3	0x3dc0b913	0.094103
4	0xbdffae58	-0.12484425
5	0xbe437207	-0.19086467
6	0xbe566fbd	-0.20941062
7	0xbeca72ab	-0.3954061
8	0x3d195eed	0.037444044
9	0x3d397cf6	0.045285188
10	0xbe2f3e74	-0.17113668
11	0xbe2a7dfc	-0.16649622
12	0xbe871617	-0.2638404
13	0xbe7e91f0	-0.24860358
14	0x3ba4589b	0.0050154454
15	0x3e6d8e3f	0.23198794
16	0xbd8aeb4a	-0.06783159
17	0xbe2435b7	-0.16036116
18	0xbe81a4d8	-0.25321078
19	0x3c0a9e9a	0.008460665
20	0xbeb8e991	-0.36115697
21	0xbe5d6629	-0.21621002
22	0xbe5c5ca3	-0.21519713
23	0xbe25d1bc	-0.16193289
24	0x3e863424	0.26211655
25	0x3dd6e0ca	0.10492094
26	0x3df69f1e	0.12042068
27	0xbe43b5b9	-0.1911229
28	0xbde7fddf	-0.11327719
29	0xbdd4576a	-0.103682354
30	0xbb8d4fb8	-0.0043124817
31	0x3e68811c	0.22705501
32	0x3deb1c96	0.11480062
33	0xbd9a2a34	-0.07527581
34	0xbd7de0a4	-0.061981812
35	0xbe1dcfb8	-0.1541127
36	0x3dd2b978	0.102892816
37	0xbddbba58	-0.107289016
38	0x3e051172	0.12994936
39	0x3e984f27	0.29747888
40	0x3e594eb7	0.21221434
41	0x3ebd721f	0.3700113
42	0xbe46597a	-0.1937007
43	0x3e5d4ef3	0.21612148
44	0x3c651450	0.013981894
45	0x3cbd0446	0.023073327
46	0xbdf1318c	-0.117770284
47	0xbe09cb45	-0.13456447
48	0x3da5fd6d	0.08104978
49	0x3ed0abd8	0.40756106
50	0xbe04535a	-0.12922421
51	0x3e47f54a	0.19527164
52	0x3e288426	0.1645666
53	0x3e566499	0.20936812
54	0xbc4213de	-0.011845557
55	0xbe0843f9	-0.1330718
56	0xbe11938b	-0.1421644
57	0xbe9720ce	-0.29517215
58	0x3ceb333d	0.028710956
59	0xbd89184e	-0.06694089
60	0xbd9d014f	-0.07666265
61	0xbe096ffb	-0.13421623
62	0xbdb50305	-0.088384666
63	0xbd3983f6	-0.045291863
64	0xbe044758	-0.1291784
65	0xbe443ae6	-0.19163093
66	0x3eeec54b	0.46634898
67	0xbe3dc79b	-0.18533175
68	0x3c755988	0.014974959
69	0xbe21f29c	-0.15815204
70	0xbd86d397	-0.06583326
71	0xbdb03790	-0.08604348
72	0xbe701c49	-0.2344829
73	0xbe8690bc	-0.262823
74	0xbe59592f	-0.21225427
75	0x3e17b51b	0.1481518
76	0xbdab681d	-0.083694674
77	0x3dfb2037	0.12262004
78	0x3e5b7ebb	0.21435063
79	0x3e985b86	0.29757327
80	0xbd5124ce	-0.05106049
81	0xbc9ea180	-0.019364119
82	0xbeb29426	-0.34878653
83	0xbeacbe10	-0.33738756
84	0x3e18eb7f	0.14933585
85	0xbef2864a	-0.4736808
86	0xbea16022	-0.31518656
87	0xbde21c67	-0.110405736
88	0xbd414393	-0.047183584
89	0x3e0f63a1	0.14002849
90	0x3f1028a7	0.5631203
91	0x3e2b2002	0.16711429
92	0x3e33f3c4	0.17573458
93	0x36e54f5a	6.8339696e-06
94	0x3e25aeb9	0.16179933
95	0xbe8f0e32	-0.27940518
96	0xbddfb3df	-0.109229796
97	0xba17bdb4	-0.0005788461
98	0xbd4c70b4	-0.04991217
99	0x3e75d834	0.24008256
100	0xbd2dc56f	-0.042424615
101	0xbbf3c88a	-0.0074396776
102	0xbc9b3405	-0.018945703
103	0x3d8abd77	0.06774419
104	0xbefdad54	-0.495463
105	0xbd74f6bc	-0.059805617
106	0x3dc82445	0.09772543
107	0xbd80c593	-0.06287684
108	0x3e0acb05	0.13554008
109	0xbe1853e1	-0.14875747
110	0x3e13dba4	0.14439255
111	0xbe6a3f5a	-0.22875729
112	0xbdc52ce7	-0.09627705
113	0xbe3b150d	-0.18269749
114	0x3d890961	0.06691242
115	0xbd607879	-0.05480239
116	0x3d028056	0.031860672
117	0x3cad0696	0.021121304
118	0x3e2c0b59	0.16801204
119	0xbdf07d16	-0.11742608
120	0xbea13142	-0.31482893
121	0x3dbe5267	0.09293061
122	0x3d14905e	0.03627049
123	0x3d661c8d	0.056179572
124	0x3e61283a	0.21988001
125	0xbc377ad0	-0.011198714
126	0x3eca3d67	0.3949997
127	0xbe616f57	-0.22015129
128	0x3d8842fa	0.066534
129	0x3e121879	0.14267148
130	0x3ececcb5	0.40390554
131	0xbe2e9d7a	-0.1705226
132	0xbe17dbbe	-0.14829919
133	0xbdc5accb	-0.09652098
134	0xbe9c4521	-0.3052149
135	0xbd55408b	-0.052063506
136	0x3da5c80f	0.08094799
137	0x3e14254d	0.14467354
138	0x3e9ad625	0.30241504
139	0x3e3434da	0.17598286
140	0xbdea3a82	-0.11436941
141	0xbe2c99ce	-0.16855547
142	0xbd1316d6	-0.03591045
143	0xbf1d1eaf	-0.61374944
144	0xbbd09207	-0.006365064
145	0x3e2b8775	0.16750892
146	0x3e2caeaa	0.16863504
147	0xbd9cc984	-0.076556236
148	0xbd3332dd	-0.04374968
149	0xbdddf627	-0.108379655
150	0xbe3824eb	-0.17982833
151	0xbe1df947	-0.15427123
152	0xbd46943f	-0.048481222
153	0xbe426367	-0.18983231
154	0x3dcd08f0	0.1001147
155	0xbe20ad9d	-0.15691228
156	0xbe812c8b	-0.25229296
157	0x3e484e7c	0.1956119
158	0xbda46304	-0.08026698
159	0x3cdc5af5	0.02689884
160	0x3ea3f1b8	0.32020354
161	0x3c896851	0.016773375
162	0x3e2d52d8	0.16926134
163	0x3e1c2fec	0.15252656
164	0xbce06672	-0.0273926
165	0x3e5726cc	0.21010894
166	0x3d582c88	0.052776843
167	0x3d880eac	0.066434234
168	0x3e0793a9	0.13239922
169	0x3c69561d	0.014241722
170	0x3e7a2acc	0.24430388
171	0xbe301ca4	-0.17198426
172	0x3e89cbd1	0.26913312
173	0xbd89cd48	-0.067286074
174	0xbe1b4e55	-0.151666
175	0xbc52bbbb	-0.012862141
176	0x3e29b65a	0.16573468
177	0x3ecc0067	0.39844057
178	0x3f04b884	0.5184405
179	0x3c4143d3	0.011795956
180	0xbdd53898	-0.10411185
181	0xb9a12be4	-0.00030741014
182	0x3da314bf	0.079629414
183	0xbd60d1d8	-0.054887623
184	0x3e125e59	0.14293803
185	0x3e876bef	0.26449534
186	0x3e70d32f	0.2351806
187	0xbd1ab092	-0.037766047
188	0x3d4d9dbb	0.05019925
189	0x3b892f71	0.0041865637
190	0xbdcba8ca	-0.09944303
191	0x3e09f75f	0.13473271
192	0x3d7e3014	0.06205757
193	0x3de3dd17	0.11126154
194	0x3ccced86	0.025015604
195	0x3f12a9eb	0.57290524
196	0xbd627221	-0.055284623
197	0x3de49f9d	0.11163256
198	0x3c5321e8	0.012886502
199	0xbcb54ac6	-0.022130381
200	0xbde1101e	-0.10989402
201	0xbdd35d33	-0.10320511
202	0xbd542fdf	-0.051803466
203	0xbe7979f0	-0.24362922
204	0xbe86b05b	-0.26306424
205	0x3daeceed	0.08535562
206	0x3e291f8d	0.16515942
207	0x3e26dec0	0.1629591
208	0x3e6e8a7c	0.23295015
209	0xbd6ba611	-0.05753142
210	0x3d7c7e8e	0.06164413
211	0x3e4ae69b	0.19814532
212	0x3e761f9f	0.240355
213	0xbe04f7a6	-0.12985095
214	0x3e71c64b	0.23610799
215	0xbe19dff6	-0.1502684
216	0x3e56ef2c	0.20989674
217	0xbe93c271	-0.28859285
218	0xbe686f65	-0.22698744
219	0x3e987f47	0.29784605
220	0xbe22c3da	-0.15895024
221	0xbe1fc359	-0.15601863
222	0xbd8391e0	-0.06424308
223	0xbeab1e61	-0.33421615
224	0x3d84c914	0.06483665
225	0xbd59efc5	-0.053207178
226	0xbdfa37e7	-0.12217694
227	0xbea79213	-0.32728633
228	0xbe402ea2	-0.18767789
229	0xbd2e007d	-0.042480934
230	0x3d8be432	0.06830634
231	0xbb7263ee	-0.0036985832
232	0x3ca155aa	0.019694168
233	0xbe94f445	-0.29092613
234	0x3f08fd27	0.5351128
235	0xbd5c72d0	-0.05382043
236	0x3e53def7	0.20690523
237	0x3de8384d	0.113388635
238	0xbc5a7b4b	-0.013335059
239	0xbe976df4	-0.29576075
240	0xbd9ea7f6	-0.0774688
241	0xbd186356	-0.03720411
242	0xbe43332b	-0.19062488
243	0x3e113191	0.14179064
244	0xbda93b37	-0.082632475
245	0x3ddd3e03	0.108028434
246	0xbed1e56b	-0.40995345
247	0xbe3c967d	-0.18416782
248	0xbf107b78	-0.564384
249	0x3e4b1136	0.19830784
250	0x3cee8654	0.029116787
251	0x3e195ce9	0.14976849
252	0x3e1576a9	0.14596047
253	0xbd93fa41	-0.072254665
254	0x3e0ad0d9	0.13556232
255	0x3da573be	0.08078717

conv2.bias f4 [10]
0	0x3de5e025	0.11224393
1	0xbce6434b	-0.02810826
2	0x3f2570d2	0.64625275
3	0xbddb0088	-0.10693461
4	0x3ef735ca	0.48283225
5	0x3d9beb04	0.07613185
6	0x3e8c9ca5	0.2746326
7	0x3cb51fed	0.02210995
8	0x3dd6765e	0.104717955
9	0x3f007d74	0.50191426

bn2.weight f4 [10]
0	0x3f7d9627	0.9905724
1	0x3f84df95	1.0380732
2	0x3f7106d5	0.9415105
3	0x3f8581c7	1.043023
4	0x3f7db63c	0.9910619
5	0x3f756f16	0.9587263
6	0x3f80e68b	1.0070356
7	0x3f85243f	1.0401686
8	0x3f83dfd2	1.030268
9	0x3f71884e	0.9434861

bn2.bias f4 [10]
0	0x3dd0771b	0.101789676
1	0xbd140e0e	-0.036146216
2	0xbdc822c7	-0.09772258
3	0x3e93b425	0.28848377
4	0x3c5c4744	0.013444725
5	0x3d3b2a9e	0.04569494
6	0x3d4a4eb9	0.049391482
7	0x3e1a1a90	0.15049195
8	0x3e6d7e03	0.23192601
9	0xbdce3cd3	-0.10070195

bn2.running_mean f4 [10]
0	0x3f2c1f38	0.67235136
1	0x3f0dafdf	0.55346483
2	0x3fa3f948	1.281045
3	0x3f19efd0	0.6013155
4	0x3f97bc5d	1.1854359
5	0x3f08ae0b	0.5339057
6	0x3f17b96f	0.59267324
7	0x3f27b569	0.65511185
8	0x3ee62218	0.44947886
9	0x3f8ad206	1.0845344

bn2.running_var f4 [10]
0	0x4007b7e9	2.1206
1	0x3fb811e0	1.4380455
2	0x3f9b02d6	1.211024
3	0x3fd52a15	1.6653467
4	0x3fef2d1a	1.8685639
5	0x3f382352	0.71928895
6	0x3f37e7f5	0.71838313
7	0x4021d230	2.5284538
8	0x3f91e47b	1.1397852
9	0x3f87684c	1.0578704

conv3.weight f4 [20, 10, 3]
0	0x3e45532e	0.19270012
1	0x3ea65616	0.32487553
2	0x3da29298	0.07938117
3	0xbdf7066e	-0.12061773
4	0xbe0e5f50	-0.13903546
5	0x3d01d3c6	0.031696104
6	0x3cef92b1	0.029244753
7	0x3ca4107e	0.020027395
8	0x3e3c5c42	0.18394569
9	0x3ea12692	0.3147474
10	0x3e8c5446	0.27408046
11	0xbc9a9b41	-0.018872859
12	0xbda34f22	-0.07974078
13	0x3e3ba316	0.18323931
14	0xbdf08866	-0.11744766
15	0xbe93b45d	-0.28848544
16	0xbdc9e109	-0.09857375
17	0x3de44ffb	0.111480676
18	0x3ddf7f6d	0.109129764
19	0xbe050ca2	-0.129931
20	0x3c8235c2	0.015894774
21	0x3db3d8c9	0.08781583
22	0x3e9e58bf	0.30927083
23	0x3d4ee2fb	0.050509434
24	0xbd1efa46	-0.038812898
25	0xbda86820	-0.08222985
26	0xbe8a3ad1	-0.26997998
27	0x3dfc7be5	0.123283185
28	0xbe0cf1a6	-0.13764057
29	0x3dff55ae	0.12467514
30	0x3dc2c0eb	0.095094524
31	0x3e081cf6	0.13292298
32	0x3e414410	0.1887362
33	0x3df9f349	0.12204606
34	0x3e80fd27	0.2519314
35	0xbd583601	-0.052785877
36	0xbd29f94f	-0.041497525
37	0xbdeb0492	-0.11475481
38	0xbd3c2d58	-0.04594168
39	0x3dd51c74	0.10405818
40	0x3e523802	0.20529178
41	0x3a49a0d8	0.0007691509
42	0xbde47781	-0.11155606
43	0xbd5b8824	-0.05359663
44	0x3dc0e80e	0.09419261
45	0xbddb8641	-0.10718966
46	0xbe306ac8	-0.17228234
47	0xbea1b69e	-0.31584638
48	0xbe0c80b8	-0.13720977
49	0xbe4f9006	-0.20269784
50	0xbe2a1430	-0.16609263
51	0xbddded0c	-0.10836229
52	0x3e647f3c	0.22314161
53	0x3cdc265f	0.026873766
54	0x3de1e1e3	0.110294126
55	0xbdbc281b	-0.09187337
56	0x3e457b7c	0.19285387
57	0x3cfdf7f9	0.031002032
58	0xbd7556f1	-0.059897367
59	0xbd9c4f74	-0.07632342
60	0x3e123482	0.14277843
61	0xbe1e96ef	-0.15487264
62	0x3d234267	0.039858248
63	0x3e8b54b3	0.27213058
64	0x3e56b2b7	0.20966612
65	0x3d322c87	0.043499496
66	0xbe2348e6	-0.15945777
67	0xbda8201b	-0.08209249
68	0xbe589d1b	-0.21153681
69	0x3e1bbe55	0.15209325
70	0x3bbc4440	0.0057454407
71	0x3e53a582	0.20668605
72	0x3d6132ab	0.05497996
73	0x3d00eab3	0.031473827
74	0x3e165142	0.14679435
75	0xbe49266c	-0.19643563
76	0x3ddc6895	0.10762135
77	0xbe1aafba	-0.15106097
78	0xbe85030b	-0.25978884
79	0x3df1f7b6	0.11814825
80	0x3e68af08	0.22723019
81	0x3e31cb67	0.17362748
82	0x3e6515c5	0.22371586
83	0xbd79b294	-0.06096132
84	0xbbf0a7a2	-0.007344202
85	0x3cea10a6	0.028572392
86	0x3d219eb6	0.039458
87	0x3e3fff5a	0.18749753
88	0xbd5d8c01	-0.054088596
89	0xbe74f0cb	-0.2391998
90	0x3e6ec7ed	0.23318453
91	0xbccdef07	-0.025138391
92	0x3e901361	0.28139785
93	0xbe3acf9a	-0.18243256
94	0xbd4a9bd1	-0.049465004
95	0xbd3a03c5	-0.04541375
96	0x3e2b9f19	0.1675991
97	0x3e79e799	0.24404754
98	0x3d787822	0.060661443
99	0x3eacbbe3	0.33737096
100	0xbe241dc2	-0.16026977
101	0x3e36ce6e	0.17852184
102	0x3e45fdbc	0.19335073
103	0xbdd0ee40	-0.102016926
104	0xbde60e71	-0.11233223
105	0xbc8793e9	-0.016550021
106	0x3dd0c999	0.10194702
107	0xbddc2b0d	-0.10750399
108	0xbd85c17b	-0.06531044
109	0xbe64d8e8	-0.22348368
110	0xbdcb6a5c	-0.09932396
111	0x3eae752f	0.3407378
112	0xbdf755b8	-0.120768964
113	0x3dc68bf0	0.0969466
114	0xbca9ac98	-0.020712182
115	0x3e7cd983	0.24692349
116	0xbd04eceb	-0.032452505
117	0xbde7a6b9	-0.11311097
118	0xbe0b30b8	-0.13592803
119	0xbe539e37	-0.20665823
120	0xbe029b51	-0.12754561
121	0xbde059e4	-0.10954645
122	0xbd452cda	-0.048138477
123	0xbc67d3a0	-0.014149576
124	0xbdf3ee69	-0.119107075
125	0xbe5868eb	-0.21133773
126	0x3c9782d2	0.018494997
127	0xbdbceb47	-0.09224563
128	0xbdaba9a0	-0.08381963
129	0xbe408e98	-0.18804395
130	0xbd554693	-0.052069258
131	0x3c93ccef	0.018042056
132	0xbe8b3618	-0.27189708
133	0xbd6e5871	-0.058189813
134	0xbe4f1de4	-0.20226246
135	0x3dac7df3	0.084224604
136	0x3e40132c	0.18757313
137	0xbe606e28	-0.21917021
138	0x3cad19ec	0.021130525
139	0x3e00265f	0.12514637
140	0x3e1b0e5b	0.15142195
141	0xbe83db3f	-0.2575321
142	0x3db8e1f8	0.09027475
143	0x3deaf10f	0.114717595
144	0x3e455d4b	0.1927387
145	0x3e0f7b42	0.14011863
146	0xbd09c28b	-0.033632796
147	0xbe28a1cc	-0.1646797
148	0xbe318e13	-0.17339353
149	0x3dda0760	0.10645938
150	0xbe4f900d	-0.20269795
151	0xbe6ada02	-0.22934726
152	0xbc97f32a	-0.018548567
153	0x3caa2692	0.020770345
154	0xbdb7753b	-0.08957907
155	0xbdf841ad	-0.12121902
156	0x3ddf1522	0.10892703
157	0x3e16d7e5	0.14730795
158	0x3e5e17af	0.21688722
159	0xbd6e3cf0	-0.058163583
160	0xbe3e82f1	-0.18604638
161	0xbe61db0d	-0.22056217
162	0x3e115946	0.14194211
163	0xbe3b900f	-0.18316673
164	0x3e060aec	0.13090104
165	0xbdcdc336	-0.10046999
166	0xbd18f541	-0.037343267
167	0xbe1936fa	-0.14962378
168	0xbbf57fac	-0.0074920263
169	0xbdafc991	-0.085833676
170	0xbe236d9c	-0.15959781
171	0xbd33326b	-0.043749254
172	0xbc9b947d	-0.018991703
173	0xbe1a10e6	-0.15045509
174	0xbdacdec5	-0.084409274
175	0xbea6789f	-0.32513902
176	0xbe1a72e9	-0.15082897
177	0x3e80cd41	0.25156596
178	0x3e952371	0.29128602
179	0xbe53ccac	-0.20683545
180	0x3e478fba	0.19488421
181	0xbd75c85f	-0.060005542
182	0xbe6aa2a6	-0.22913608
183	0xbe61717e	-0.2201595
184	0xbe8bd6e0	-0.27312374
185	0xbea9fbe8	-0.33200002
186	0xbe2fd0b7	-0.17169462
187	0xbdbd905e	-0.092560515
188	0xbd3ca613	-0.04605682
189	0x3d89905c	0.067169875
190	0xbd19f479	-0.037586663
191	0xbe103491	-0.14082552
192	0xbda8d14f	-0.082430474
193	0xbea0f26e	-0.3143496
194	0xbe28487e	-0.16433904
195	0xbdc9e522	-0.09858157
196	0xbb99bf81	-0.0046920185
197	0x3b30cce5	0.0026977595
198	0x3da014df	0.07816481
199	0xbd9e515c	-0.07730362
200	0xbdfb4a85	-0.12270073
201	0x3dbb6b91	0.09151376
202	0xbd2233e4	-0.039600268
203	0xbe8438bd	-0.25824538
204	0x3e5e8cd4	0.21733409
205	0xbde73394	-0.112891346
206	0xbe70fc49	-0.23533739
207	0xbe224b81	-0.15849115
208	0x3d86fdef	0.06591403
209	0x3e3614e7	0.17781411
210	0xbe3f0a7d	-0.18656345
211	0xbe476cc5	-0.19475086
212	0xbd7d9a2e	-0.061914615
213	0xbcbafb8c	-0.022825025
214	0x3e36a28a	0.17835441
215	0x3e4c9075	0.19976981
216	0xbdc6add7	-0.09701126
217	0xbda8838e	-0.08228217
218	0xbe88cb75	-0.26717725
219	0x3d89efd7	0.06735199
220	0xbe3193b8	-0.17341506
221	0x3e1f08e2	0.15530732
222	0xbc2d655c	-0.010583248
223	0xbd983a38	-0.07432979
224	0xbe17dd0a	-0.14830413
225	0x3e2c84eb	0.16847579
226	0xbdc97ea6	-0.098386094
227	0x3cedfd91	0.029051574
228	0x3e2f1434	0.1709755
229	0xbe507ac1	-0.20359327
230	0xbe8b08a8	-0.27155042
231	0xbdce447e	-0.100716576
232	0xbe105e83	-0.14098553
233	0x3d30eb44	0.043193117
234	0xbe61ff69	-0.22070087
235	0xbbb95a0e	-0.0056564873
236	0xbdf74661	-0.120739706
237	0x3c84ddf7	0.016219122
238	0x3da9aad0	0.08284533
239	0x3e52275e	0.2052283
240	0xbd0b858e	-0.034062915
241	0x3e20f0ac	0.15716809
242	0xbe0f4f77	-0.13995157
243	0x3d38f5d7	0.045156326
244	0xbdbffd62	-0.09374501
245	0xbdf53bd6	-0.119743034
246	0xbda82c9f	-0.08211636
247	0xbd47e71d	-0.04880439
248	0xbe0c497f	-0.13699912
249	0xbdde4760	-0.108534575
250	0x3e7beec2	0.24602798
251	0xbded6b36	-0.115927145
252	0xbd74cbb8	-0.059764594
253	0x3e6d493a	0.23172465
254	0xbddb3221	-0.10702921
255	0x3e175d46	0.14781675

conv3.bias f4 [20]
0	0xbdd90969	-0.10597498
1	0xbd7ea4b2	-0.062168784
2	0x3e1753db	0.14778082
3	0x3cc383fe	0.02386665
4	0xbd27e357	-0.040988293
5	0xbc24ca4a	-0.010057995
6	0xbe18f095	-0.14935525
7	0xbe220248	-0.15821183
8	0xbe2165ac	-0.15761441
9	0x3dddc85c	0.10829231
10	0xbdffd48a	-0.124917105
11	0xbd7c10a2	-0.0615393
12	0xbe05bacc	-0.13059539
13	0xbda10f33	-0.07864227
14	0xbca1252c	-0.019671045
15	0x3e166ed0	0.14690709
16	0x3c52c719	0.012864851
17	0xbe13afcb	-0.14422528
18	0xbd8425b0	-0.06452501
19	0xbe080844	-0.13284403

bn3.weight f4 [20]
0	0x3f7eebac	0.99578357
1	0x3f83cabb	1.0296243
2	0x3f7f797a	0.99794734
3	0x3f64fdcf	0.8944978
4	0x3f4813c2	0.7815515
5	0x3f82a192	1.0205557
6	0x3f78e43f	0.97223276
7	0x3f72f1f8	0.94900465
8	0x3f895965	1.0730406
9	0x3f6d284e	0.92639625
10	0x3f70daf9	0.94084126
11	0x3f6c5a30	0.92325115
12	0x3f6a6f4c	0.91576076
13	0x3f6b2311	0.9185038
14	0x3f58951c	0.8460252
15	0x3f4e124f	0.80496687
16	0x3f515eef	0.8178548
17	0x3f50d8b9	0.8158069
18	0x3f69c3d1	0.9131442
19	0x3f671cb6	0.90278184

bn3.bias f4 [20]
0	0x3e90f137	0.28309032
1	0xbd926c7b	-0.07149597
2	0xbc23499f	-0.009966283
3	0xbd36669f	-0.04453146
4	0xbe7f4638	-0.2492913
5	0x3e527c4f	0.20555232
6	0xbe706fa6	-0.2348009
7	0x3e14543f	0.14485262
8	0xbe588e61	-0.21148063
9	0x3de308ee	0.110856876
10	0xbd953a6e	-0.07286535
11	0x3c3362f5	0.010948886
12	0x3d658a8f	0.056040343
13	0xbe145246	-0.1448451
14	0x3f024ac8	0.5089536
15	0x3dc271f3	0.0949439
16	0xbe2d7168	-0.16937792
17	0xbdcd578a	-0.100264624
18	0xbe9829a0	-0.29719257
19	0xbea08c60	-0.31357098

bn3.running_mean f4 [20]
0	0x3e2d1381	0.16901971
1	0x3ce254de	0.027628358
2	0x3ed4f35e	0.41591924
3	0x3e8f18d0	0.27948618
4	0xbe188382	-0.14893916
5	0xbf0b3d54	-0.54390454
6	0xbefce2fa	-0.4939192
7	0xbeebc326	-0.46047324
8	0x3d2157e9	0.03939048
9	0x3d5988b4	0.053108886
10	0x3ebe9b82	0.37228018
11	0x3ec75f09	0.38939694
12	0xbe422464	-0.18959194
13	0x3e3d1489	0.18464865
14	0xbeec0040	-0.4609394
15	0x3f17c079	0.59278065
16	0xbe10a2d9	-0.14124621
17	0x3d9b12b9	0.075719304
18	0xbec8cc8c	-0.39218557
19	0xbe6fa122	-0.23401311

bn3.running_var f4 [20]
0	0x40060ddc	2.094596
1	0x406b21fe	3.6739497
2	0x4018da29	2.3883154
3	0x40280761	2.6254504
4	0x3fca7c9c	1.5819278
5	0x40817a81	4.046204
6	0x4074d030	3.8252068
7	0x3fa053de	1.2525594
8	0x406e3953	3.7222488
9	0x3f5eae11	0.86984354
10	0x40942f4c	4.6307735
11	0x405475d0	3.3196907
12	0x3f399790	0.7249689
13	0x400035c0	2.0032806
14	0x40478c3e	3.1179347
15	0x4057c554	3.371419
16	0x3f3d985c	0.74060607
17	0x3fdbf3d2	1.7183783
18	0x40149ab5	2.3219426
19	0x3f975a4f	1.1824435

fc_mu.weight f4 [20, 240]
0	0x3e020f4a	0.12701145
1	0xbdbae5ae	-0.09125839
2	0xbd42cbcb	-0.047557633
3	0xbe3eb7f7	-0.18624865
4	0xbe0ed8a6	-0.13949832
5	0xbd402765	-0.04691257
6	0xbe45c1cd	-0.1931221
7	0xbe317e36	-0.17333302
8	0xbd278949	-0.04090241
9	0xbd905c44	-0.07048848
10	0xbc79657f	-0.015221952
11	0x3d222c61	0.039593104
12	0x3e0d9ee5	0.13830145
13	0xbcdf8d3e	-0.02728903
14	0xbc157ee5	-0.009124492
15	0xbd9df8da	-0.0771348
16	0xbd25c703	-0.040472995
17	0xbcef29ad	-0.029194677
18	0xbd5f684f	-0.054542836
19	0xbabc4f80	-0.0014366955
20	0x3e32d36b	0.17463462
21	0x3d8fd9db	0.070239745
22	0x3e10e876	0.14151177
23	0x3c807384	0.015680082
24	0xbdef3b6b	-0.11681255
25	0x3e001e4c	0.12511557
26	0xbd5a7b63	-0.053340327
27	0xbc291445	-0.010319774
28	0xbdde1546	-0.10843901
29	0x3df9c3be	0.12195538
30	0x3d1b5691	0.037924353
31	0xbd6d8f8e	-0.057998233
32	0xb9d6d308	-0.0004097449
33	0x3e2fe2c4	0.17176348
34	0x3e2b014a	0.1669971
35	0x3e22f19a	0.15912476
36	0xbdfe4969	-0.124163456
37	0xbe0cedc1	-0.13762571
38	0xbd08d5ca	-0.03340701
39	0xbd9d98d0	-0.07695162
40	0xbe13eeeb	-0.14446609
41	0x3cf7d0d7	0.03025095
42	0x3c6e6802	0.014551165
43	0xbe0be66f	-0.13662122
44	0x3cd4b8f6	0.025967102
45	0x3d03ccab	0.03217761
46	0x3d566864	0.05234565
47	0x3d473547	0.048634794
48	0xbd80d624	-0.06290844
49	0x3d8bd364	0.06827429
50	0xbdeb3941	-0.1148553
51	0xbdea549d	-0.1144192
52	0xbe1534b1	-0.14570881
53	0x3d82c7d1	0.06385768
54	0xbdae2f4a	-0.085051134
55	0xbbee865e	-0.0072792014
56	0x3dc04585	0.0938826
57	0x3c695859	0.014242255
58	0xbc19a1a3	-0.009376916
59	0x3dda7629	0.106670685
60	0xbdba7321	-0.0910399
61	0xbcf1e3bc	-0.029527538
62	0xbd4f5315	-0.050616343
63	0xbdeb1a09	-0.11479575
64	0xbd5f8348	-0.05456856
65	0x3e288280	0.16456032
66	0xbb5d5566	-0.0033772825
67	0xbd1182af	-0.03552502
68	0xbd021728	-0.031760365
69	0xbe153fe0	-0.14575148
70	0xbe5d0fcd	-0.21588059
71	0xbeafadc3	-0.34312257
72	0xbe0396ca	-0.1285049
73	0x3dee807a	0.11645599
74	0x3c04e898	0.008112095
75	0x3de45f2d	0.11150966
76	0xbcba1cd2	-0.02271882
77	0xbcd30653	-0.025759852
78	0xbd03205c	-0.032013282
79	0xbd9c14cd	-0.07621155
80	0x3c5bc240	0.013413012
81	0xbd269256	-0.0406669
82	0xbd5ec04a	-0.0543826
83	0x3dc3f1b9	0.09567589
84	0x3ae7ee6b	0.0017694955
85	0xbd21da68	-0.03951493
86	0xbc8ff2de	-0.017571863
87	0x3d78e073	0.060760926
88	0xbca412f2	-0.020028565
89	0x3ddeeeb6	0.10885374
90	0xbb19a73a	-0.0023445622
91	0xbd958b67	-0.073019795
92	0x3d4e36b4	0.050345138
93	0x3d84341e	0.06455253
94	0x3dc44443	0.095833324
95	0xbe0fcc1d	-0.14042707
96	0xbd51af5d	-0.05119263
97	0xbe0832e1	-0.13300659
98	0xbde9df5a	-0.11419554
99	0xbcf710aa	-0.030159313
100	0xbd8556d6	-0.06510703
101	0xbe04b87c	-0.12961
102	0x39a546db	0.00031524044
103	0x3d52b987	0.051446464
104	0x3e1f9184	0.15582854
105	0x3e112cf0	0.14177299
106	0x3e4cad96	0.19988093
107	0x3dfb5a61	0.12273098
108	0xbd1c1f62	-0.038115866
109	0x3d870cc5	0.065942325
110	0x3e75333d	0.23945327
111	0x3d2fb64c	0.04289846
112	0xbde01625	-0.10941724
113	0xbc931b59	-0.017957376
114	0x3d232bfe	0.039836876
115	0xbdc45f94	-0.095885426
116	0xbd84c410	-0.064827085
117	0xbc23ca40	-0.009996951
118	0x3ccc9c63	0.024976915
119	0xbdefa1ca	-0.11700781
120	0xbda5e545	-0.0810037
121	0x3d3c8150	0.04602176
122	0xbdd879a7	-0.10570078
123	0xbd82380c	-0.06358346
124	0xbd63a12e	-0.055573635
125	0xbd80975d	-0.0627887
126	0xbdc50214	-0.09619537
127	0xbde354fc	-0.11100194
128	0x3db704bb	0.08936449
129	0x3dd2c683	0.10291769
130	0x3d165ccd	0.036709595
131	0xbda30210	-0.07959378
132	0xbd26658d	-0.04062419
133	0xbd0f47ac	-0.03498046
134	0xbdcf6c3b	-0.10128065
135	0xbc946e2a	-0.018118937
136	0x3d31f05d	0.04344212
137	0x3e0af669	0.1357056
138	0x3def4dfe	0.11684798
139	0x3db64c8e	0.089013204
140	0x3d0f74d8	0.03502354
141	0xbc6cf251	-0.01446207
142	0xbdad5f80	-0.08465481
143	0x3c8ae8b2	0.01695666
144	0xbdb25f41	-0.087095745
145	0x3d80c1b6	0.062869474
146	0x3dbd1a35	0.09233514
147	0x3c1a5658	0.00942
148	0xbd381aa4	-0.04494728
149	0x3d38e2e2	0.045138247
150	0xbd328445	-0.043583173
151	0xbd4b9f18	-0.04971227
152	0xbdaa02f0	-0.083013415
153	0xbdf77726	-0.12083273
154	0x3df1bdb6	0.118037626
155	0x3c3a1d19	0.0113594765
156	0xbdc01396	-0.09378736
157	0x3d999edf	0.075010054
158	0x3d856dea	0.06515105
159	0xbd335cd4	-0.0437897
160	0xbc0921a6	-0.008369839
161	0x3dc3e017	0.09564226
162	0x3d277f70	0.04089302
163	0x3d9f49c1	0.07777739
164	0x3dd2938e	0.1028205
165	0xbd913b19	-0.0709135
166	0xbcf86b66	-0.030324649
167	0xbe250bb2	-0.16117743
168	0xbda8a99e	-0.08235477
169	0x3dadab19	0.084799
170	0xbd66e17d	-0.056367386
171	0xbdcb813a	-0.099367574
172	0x3d90739a	0.07053299
173	0x3d995453	0.07486787
174	0xbd745a8a	-0.059656657
175	0xbd9da0a7	-0.07696658
176	0x3d40066f	0.046881136
177	0x3dd2a6c3	0.102857135
178	0xbd16c77d	-0.03681134
179	0xbe4471e0	-0.19184065
180	0x3cbf0fa4	0.023322888
181	0xbe3063f9	-0.17225637
182	0x3db1b469	0.08676989
183	0x3d4c24da	0.049839832
184	0x3def037a	0.11670585
185	0xbd9adb30	-0.07561338
186	0xbc9f5600	-0.019450188
187	0xbdc205a6	-0.094737336
188	0x3d38eb56	0.04514631
189	0xbc5af2c6	-0.013363546
190	0x3dbbeae3	0.091756605
191	0xbd7de029	-0.061981354
192	0x3e044196	0.12915644
193	0x3e04ebdb	0.12980597
194	0xbdf4e866	-0.11958389
195	0xbd21103a	-0.039322115
196	0x3c61be01	0.013778211
197	0xbce945c7	-0.028475655
198	0xbd54813c	-0.05188106
199	0xbd056d34	-0.032574847
200	0xbbf9b185	-0.007620039
201	0x3dd64c1a	0.10463734
202	0xbc0fd514	-0.008778829
203	0xbc9a8c98	-0.018865868
204	0x3d870726	0.0659316
205	0xbc7f6f20	-0.015590459
206	0x3dbff394	0.09372631
207	0xbe32dc48	-0.17466843
208	0x3d8ffacd	0.07030258
209	0x3ccb20db	0.02479594
210	0x3dfef742	0.124495044
211	0xbd893d06	-0.067010924
212	0xbe59313c	-0.21210188
213	0xbd5fae14	-0.054609373
214	0xbe2841fd	-0.16431423
215	0xbd9c146d	-0.076210834
216	0x3db0ef5b	0.086394034
217	0x3dc278ce	0.09495698
218	0xbdbd5bd3	-0.0924603
219	0xbd59d2bb	-0.053179484
220	0xbdb8d321	-0.09024645
221	0x3d80f501	0.06296731
222	0xbe209cd3	-0.15684824
223	0xbb4e8a8a	-0.0031515681
224	0xbd9684cd	-0.073495485
225	0xbc83c4e8	-0.016085103
226	0xbdef9901	-0.11699105
227	0x3d0aa6b4	0.033850387
228	0x3e2af04d	0.1669323
229	0x3d4f7398	0.05064735
230	0xbdac248a	-0.08405407
231	0xbdb05c82	-0.086113945
232	0x3da850d8	0.08218545
233	0xbda16d5c	-0.07882187
234	0xbd70e0eb	-0.05880825
235	0x3c5313a4	0.012883101
236	0x3e042e18	0.12908208
237	0x3e1345b6	0.14382061
238	0xbca8f765	-0.02062578
239	0x3e004647	0.12526809
240	0x3d880dca	0.06643255
241	0xbbd276b3	-0.0064228415
242	0xbd90ce1b	-0.070705615
243	0x3cef7ff2	0.029235814
244	0xbe498f8a	-0.19683662
245	0xbb82d4c0	-0.003992647
246	0x3d9a2a18	0.0752756
247	0x3e1975b4	0.14986306
248	0xbde984a3	-0.114022516
249	0x3d0ecb44	0.034861818
250	0xbd64c32c	-0.055850193
251	0x3da6750b	0.08127793
252	0xbe3d94ae	-0.18513748
253	0x3d60b228	0.054857403
254	0x3dccfbf2	0.10008992
255	0x3da48d48	0.0803476

fc_mu.bias f4 [20]
0	0x3d1c4985	0.03815605
1	0x3ddf2ea2	0.108975664
2	0xbdbbab43	-0.09163525
3	0x3e2f6a61	0.17130424
4	0xbe56633b	-0.20936291
5	0x3d8c931e	0.06863998
6	0xbe5bb74d	-0.21456642
7	0xbdf92399	-0.12164993
8	0x3ea2c689	0.31792095
9	0x3e0b8aa0	0.136271
10	0xbce87fb5	-0.028381208
11	0x3d80bbd9	0.06285829
12	0xbe730a00	-0.23734283
13	0x3e66546d	0.22493143
14	0x3e079494	0.13240272
15	0xbe05003a	-0.12988368
16	0x3e5158d2	0.20444039
17	0x3d85c373	0.065314196
18	0x3e460d8f	0.1934111
19	0x3dccc8d0	0.099992394

fc_logvar.weight f4 [20, 240]
0	0x3dc8c86c	0.098038524
1	0x3e000868	0.12503207
2	0xbda00cc8	-0.07814938
3	0x3e053bcc	0.13011092
4	0x3c7f5960	0.0155852735
5	0x3d2fe248	0.042940408
6	0xbd47c8a8	-0.048775345
7	0x3cdf9f78	0.02729772
8	0xbc654550	-0.013993576
9	0x3d81d514	0.063394696
10	0xbd9ff818	-0.07810992
11	0xb9a3da00	-0.00031252205
12	0xbcd8a6e8	-0.026446775
13	0xbd0d08e4	-0.034432307
14	0x3c94b298	0.018151566
15	0xbd84c072	-0.064820185
16	0xbe054132	-0.13013151
17	0xbc7ebfd0	-0.015548661
18	0x3e0507f4	0.12991315
19	0xbd97201e	-0.07379173
20	0x3d9dcbec	0.07704911
21	0xbdee6df8	-0.116420686
22	0xbdee24a8	-0.116280854
23	0x3caf0b20	0.02136761
24	0x3e09d054	0.13458377
25	0x3d01b16c	0.031663343
26	0xbd67d042	-0.056595095
27	0x3d28ae10	0.041181624
28	0x3d805052	0.0626532
29	0xbd88ccb2	-0.066796675
30	0x3dd95e90	0.106137395
31	0x3e0c1600	0.13680267
32	0x3d7cff28	0.061766773
33	0x3df0dbcc	0.11760673
34	0xbdd028fc	-0.10164067
35	0xbcc3e4c0	-0.023912787
36	0xbd3ca386	-0.046054386
37	0x3d80cc4e	0.06288968
38	0x3d134e54	0.03596337
39	0xbd7e1104	-0.062027946
40	0xbe02e687	-0.12783252
41	0xbd115000	-0.035476685
42	0xbe0952fe	-0.13410565
43	0xbe11e905	-0.14249046
44	0x3d24ad7c	0.04020451
45	0x3bb133c0	0.0054077804
46	0x3cf05d40	0.02934134
47	0xbe0be439	-0.13661279
48	0xbdf303ff	-0.118659966
49	0x3e0564c4	0.1302672
50	0x3e1920d2	0.14953926
51	0x3dc393d0	0.09549677
52	0xbdf1b6c5	-0.11802439
53	0xbd93c539	-0.072153516
54	0x3d572144	0.05252196
55	0xbe028b94	-0.12748557
56	0xbc081420	-0.008305579
57	0xbd95935b	-0.073034965
58	0xbdbb09c9	-0.09132726
59	0x3d3ea7b4	0.046546653
60	0xbde4c240	-0.11169863
61	0xbaeb0c80	-0.0017932802
62	0x3e0b5b0a	0.13608947
63	0xbd9ef337	-0.07761233
64	0x3db3effc	0.08786008
65	0x3da0b06e	0.07846151
66	0x3da0ac16	0.07845323
67	0xbdd7f057	-0.10543888
68	0x3d89c102	0.067262664
69	0x3e1b40d2	0.15161446
70	0xbc3336b0	-0.0109383315
71	0x3df62e70	0.12020576
72	0xbd15397e	-0.036431782
73	0xbcb88578	-0.02252458
74	0x3be23c60	0.00690417
75	0xbdc98242	-0.09839298
76	0x3e130006	0.14355478
77	0xbe10797c	-0.14108843
78	0xbaf49380	-0.0018659681
79	0x3dd8ebb0	0.10591829
80	0xbd57683e	-0.052589647
81	0xbe15b2d4	-0.14618999
82	0xbd6bca40	-0.057565928
83	0xbda36b83	-0.079794906
84	0x3da3f506	0.08005719
85	0xbc15ac30	-0.009135291
86	0x3d94aaf8	0.07259172
87	0x3de1158c	0.10990438
88	0xbd83f965	-0.064440526
89	0x3d0bcb1c	0.034129247
90	0xbe0580df	-0.13037442
91	0x3bb86500	0.0056272745
92	0xbda3abd4	-0.07991758
93	0x3e0c59c8	0.13706124
94	0x3ded75bc	0.11594722
95	0x3c41c280	0.011826158
96	0xbd1199ac	-0.035546944
97	0xbd3965a8	-0.045262963
98	0xbe02e5f0	-0.12783027
99	0x3de965f8	0.11396402
100	0xbce81d34	-0.028334238
101	0xbcb13ba8	-0.021634892
102	0x3de0787c	0.109604806
103	0xbb025d80	-0.0019892156
104	0x3dbd6684	0.09248069
105	0xbd850739	-0.06495518
106	0xbdd43f8c	-0.10363683
107	0xbdafa94b	-0.08577212
108	0x3e195d22	0.14976934
109	0x3dad361c	0.08457586
110	0x3cd5f6a8	0.026118591
111	0x3df139b4	0.11778584
112	0xbda6d671	-0.0814637
113	0x3dbc1abe	0.09184788
114	0x3c936b60	0.017995536
115	0x3d088494	0.03332956
116	0x3d9b1bb4	0.07573643
117	0x3ca021a8	0.019547299
118	0xbd318d5c	-0.0433477
119	0xbcd29808	-0.02570726
120	0x3e122670	0.14272475
121	0xbe09a402	-0.1344147
122	0xbdeb14b0	-0.11478555
123	0x3d923096	0.07138173
124	0x3cf97f10	0.030456096
125	0xbe12e679	-0.14345731
126	0xbe04012a	-0.12891069
127	0xbdea5045	-0.114410914
128	0x3d003784	0.031302944
129	0x3d7d1490	0.061787188
130	0x3d1f5560	0.03889978
131	0x3df786b4	0.120862395
132	0x3bf6ff60	0.0075377673
133	0xbd8dc989	-0.069232054
134	0x3de77260	0.11301112
135	0xbdb987dd	-0.09059117
136	0x3dd7dbf0	0.105399966
137	0xbe167235	-0.14692004
138	0x3cf95058	0.030433819
139	0xbdd1cfa2	-0.10244681
140	0x3d70afd8	0.058761448
141	0x3e08e29a	0.13367692
142	0xbd541ea4	-0.051787034
143	0x3c5850a0	0.013202816
144	0x3bfeec00	0.0077795982
145	0x3dee6494	0.116402775
146	0xbcd25e98	-0.025679871
147	0xbdec78e0	-0.115464926
148	0x3c6030c0	0.013683498
149	0xbda2bd54	-0.07946268
150	0xbd1c058e	-0.038091235
151	0xbdc8341c	-0.09775564
152	0xbdba5380	-0.090979576
153	0xbdb676fb	-0.089094125
154	0x3dc197c4	0.09452775
155	0xbd812c0d	-0.0630723
156	0x3d70811c	0.05871688
157	0xbd3d4086	-0.046204112
158	0xbc5d2e90	-0.013499871
159	0xbae52400	-0.0017482042
160	0x3db9775c	0.09055969
161	0xbd604bd6	-0.054759823
162	0xbdb5f820	-0.08885217
163	0xbe13ff0a	-0.14452758
164	0xbc8aeb40	-0.016957879
165	0xbbfb1ea0	-0.007663563
166	0xbd9f488f	-0.07777511
167	0xbde343d0	-0.110969186
168	0xbdd63660	-0.1045959
169	0xbe163b41	-0.14671041
170	0xbd339c50	-0.043850243
171	0xbdea342a	-0.11435731
172	0xbd8d681a	-0.069046214
173	0xbc2e2730	-0.01062946
174	0x3dd5cf48	0.104399264
175	0xbdaa0583	-0.083018325
176	0x3dbe7f26	0.093015954
177	0x3df46fe8	0.11935407
178	0x3d5d30c0	0.05400157
179	0xbdad2f94	-0.084563404
180	0x3e16819e	0.14697883
181	0x3deb92d4	0.115026146
182	0xbdb57587	-0.08860307
183	0x3da95416	0.08267991
184	0x3d646694	0.05576189
185	0xbe0d7f25	-0.13818033
186	0xbe09d889	-0.13461508
187	0xbdfde48a	-0.12397106
188	0x3dd367fc	0.10322568
189	0xbd2111b0	-0.03932351
190	0x3e0283d0	0.12745595
191	0x3e0d25a8	0.13783896
192	0xbd2dcce6	-0.042431735
193	0xbd7e96c6	-0.062155508
194	0xbd9eb48d	-0.07749281
195	0xbdfa144e	-0.12210904
196	0x3b8a0fe0	0.004213318
197	0x3e0d8e00	0.138237
198	0xbd6f7b54	-0.058467224
199	0xbd9e224a	-0.07721384
200	0x3def9c80	0.11699772
201	0x3dbdf2a2	0.09274794
202	0xbd8af4a0	-0.0678494
203	0xbd98316f	-0.07431304
204	0xbdd475e8	-0.10374051
205	0x3dd08ac0	0.101827145
206	0xbe13efbb	-0.14446919
207	0xbe0cdbd6	-0.13755736
208	0x3d40d42c	0.047077343
209	0x3d9fec7e	0.07808779
210	0x3de4dcd0	0.11174929
211	0xbdbfe5f0	-0.09370029
212	0x3b823040	0.003973037
213	0x3de556d0	0.11198199
214	0xbc828890	-0.015934259
215	0x3d1578f0	0.036492288
216	0x3d29401c	0.041320905
217	0xbbd72660	-0.006565854
218	0x3d1a00cc	0.037598416
219	0x3dc2ef4a	0.09518297
220	0x3dacbbd2	0.084342614
221	0xbd6c5f24	-0.05770792
222	0x3b1cd580	0.0023930967
223	0x3daca942	0.08430721
224	0x3e08f520	0.13374758
225	0x3e088df8	0.13335407
226	0x3e13a936	0.14420018
227	0xbdae46f6	-0.085096285
228	0xbd8fca32	-0.070209876
229	0x3dd1a1d4	0.102359444
230	0xbce8be88	-0.028411165
231	0x3e012c44	0.12614542
232	0x3e05f4f6	0.13081726
233	0xbd605580	-0.05476904
234	0xbdfffa4f	-0.124989145
235	0x3dd92ed0	0.10604632
236	0x3dd16ce0	0.102258444
237	0xbe17be76	-0.14818749
238	0x3d99817a	0.07495399
239	0xbd218f60	-0.039443374
240	0xbd01066c	-0.031500265
241	0xbe0598ad	-0.13046522
242	0x3d40e920	0.047097325
243	0x3da193dc	0.0788953
244	0x3d974078	0.07385343
245	0x3dcef5bc	0.10105464
246	0xbda6214f	-0.08111822
247	0xbdd2fbaf	-0.10301911
248	0xbdeb158e	-0.114787206
249	0x3c8eaaf0	0.017415494
250	0xbd105488	-0.035236865
251	0x3bdafd60	0.0066830367
252	0x3d517fc0	0.051147223
253	0xbd678e80	-0.056532383
254	0xbc969ae0	-0.018384397
255	0xbd466fba	-0.048446395

fc_logvar.bias f4 [20]
0	0xbd1c36c0	-0.03813815
1	0xbcc29892	-0.023754392
2	0x3c926b48	0.017873421
3	0x3ba50ff0	0.0050373003
4	0xbb2375f0	-0.0024942122
5	0xbd290dad	-0.041272808
6	0x3bea96b0	0.0071590766
7	0xbd3e24b0	-0.046421707
8	0xbd059a3c	-0.032617792
9	0xbcd318d6	-0.025768679
10	0x3d73085e	0.05933415
11	0xba7fe080	-0.0009760931
12	0x3d2a545c	0.041584358
13	0x3d32f3b2	0.043689437
14	0x3d6e5f16	0.05819615
15	0x3d3b7cfc	0.04577349
16	0x3c93daf0	0.018048733
17	0x3c1de190	0.009636298
18	0x3d21ac08	0.039470702
19	0x3d36cb3e	0.04462742

fc1.weight f4 [120, 20]
0	0xbda33aa9	-0.07970173
1	0x3dbd85d7	0.092540435
2	0xbe16f7f8	-0.1474303
3	0xbdba8c59	-0.091088004
4	0xbe16cd51	-0.1472676
5	0xbc8eedc6	-0.017447364
6	0xbd2f2c67	-0.042766955
7	0xbd86bf56	-0.06579463
8	0xbd4398a2	-0.047752984
9	0xbd1b20a3	-0.03787292
10	0x3e368e4c	0.1782772
11	0x3d955ba9	0.072928734
12	0xbe2d670a	-0.16933838
13	0x3e17841b	0.14796488
14	0xbda76dd4	-0.08175245
15	0xbe1fac76	-0.15593132
16	0xbe113a49	-0.1418239
17	0x3e252089	0.16125692
18	0x3e0d0867	0.13772736
19	0xbbe487da	-0.0069742026
20	0xbe717dbd	-0.23583122
21	0x3dafcb49	0.085836954
22	0x3d82718f	0.06369316
23	0x3bb13b02	0.0054086456
24	0xbca5e942	-0.020252828
25	0x3d020657	0.031744327
26	0xbe2f9f20	-0.17150545
27	0x3e0145e2	0.12624314
28	0xbe7a749f	-0.2445855
29	0xbd229879	-0.03969619
30	0xbe2be101	-0.16785051
31	0x3d66133c	0.056170687
32	0xbd5e7428	-0.054309994
33	0xbe035bbe	-0.12827966
34	0xbe0601da	-0.13086644
35	0xbdee057e	-0.11622141
36	0x3dc61958	0.09672803
37	0xbd9a09fa	-0.07521434
38	0x3dbebe3c	0.09313628
39	0x3e43f2ea	0.19135633
40	0x3ddc4499	0.107552715
41	0x3d6ebb5a	0.05828414
42	0x3d0b5e4b	0.03402547
43	0x3df19a2a	0.117969826
44	0xbd98d04a	-0.07461603
45	0x3dd154cd	0.102212526
46	0xbdbf565e	-0.09342645
47	0xbd753dba	-0.05987332
48	0x3e6d354e	0.23164865
49	0xbc1a6dee	-0.009425623
50	0xbdb7709b	-0.08957025
51	0xbe3be8d6	-0.18350539
52	0xbe109c89	-0.14122213
53	0xbe0755e6	-0.13216361
54	0xbd2b38b4	-0.041802123
55	0x3d47eb1f	0.048808213
56	0x3dbf14c1	0.0933013
57	0xbd2c31db	-0.042039733
58	0xbe03e085	-0.12878616
59	0x3dbff700	0.093732834
60	0x3dc86b9f	0.09786152
61	0xbda9d00b	-0.08291634
62	0x3cb50eaa	0.022101719
63	0xbe25b139	-0.16180886
64	0x3dd08070	0.101807475
65	0x3e1a86ee	0.15090534
66	0x3da6d1ac	0.081454605
67	0x3d5c3d6d	0.053769518
68	0x3e31a8e3	0.17349581
69	0xbdbf27ad	-0.093337394
70	0x3e0feb00	0.14054489
71	0xbd0b5103	-0.034012806
72	0xbe499cb5	-0.19688685
73	0x3d950567	0.07276421
74	0x3dcb1237	0.099155836
75	0x3ca61f29	0.02027853
76	0x3d84b734	0.06480256
77	0x3d164fd1	0.036697213
78	0x3e541f85	0.20715149
79	0x3e4e0e5c	0.20122665
80	0xbcc63a40	-0.024197698
81	0xbd181994	-0.03713377
82	0xbb31a715	-0.0027107645
83	0x3dd32b13	0.1031095
84	0x3c2261d1	0.009911017
85	0xbd162226	-0.03665366
86	0xbc49d421	-0.012318642
87	0x3ce05021	0.027381958
88	0x3e74b62e	0.23897621
89	0xbd5df2be	-0.054186575
90	0xbdd88993	-0.10573115
91	0xbd48e2de	-0.049044482
92	0xbe20ae1d	-0.15691419
93	0x3da99f3e	0.08282326
94	0x3d0bb866	0.034111403
95	0x3e5d6c5e	0.2162337
96	0x3e092536	0.13393101
97	0x3e0fb7c7	0.14034949
98	0x3da85684	0.082196265
99	0xbda4266d	-0.08015142
100	0xbba4f766	-0.005034375
101	0x3dbeb78a	0.09312351
102	0x3de1c48f	0.11023819
103	0x3d91c4eb	0.07117637
104	0xbcc9af89	-0.024619834
105	0x3db35e76	0.08758251
106	0x3d4ca7b4	0.04996462
107	0x3ca1d0de	0.019752916
108	0xbd3bf794	-0.045890406
109	0xbd7842b1	-0.060610477
110	0xbc8e2898	-0.017353341
111	0xbcd80ef8	-0.026374325
112	0xba86868c	-0.0010263487
113	0x3e1f2380	0.15540886
114	0x3c311441	0.010808052
115	0xbd8eb4bf	-0.06968068
116	0x3e2f47cb	0.1711723
117	0xbdecfaab	-0.115712486
118	0x3e35222d	0.17688818
119	0x3e889d3d	0.26682463
120	0x3bdf9e45	0.006824287
121	0x3d6f9221	0.05848897
122	0x3e2c10e7	0.16803323
123	0xbe04d89f	-0.1297326
124	0xbe5096ed	-0.20370074
125	0x3e40b8bf	0.18820475
126	0xbe3d6b7c	-0.18498033
127	0x3ccba18b	0.024857303
128	0xbe189f73	-0.14904575
129	0x3d6963c2	0.056979902
130	0x3ceaca35	0.028660873
131	0x3dacde46	0.08440833
132	0xbde4b6e0	-0.11167693
133	0xbe0283d9	-0.12745608
134	0xbdfc1a0b	-0.12309655
135	0xbdc43e92	-0.09582247
136	0x3cc8c928	0.024509981
137	0xbdf7951a	-0.12088986
138	0xbd0a97ca	-0.033836164
139	0x3e63b464	0.22236782
140	0xbe1929f4	-0.1495741
141	0xbcbed28d	-0.023293758
142	0x3d97a8e3	0.074052595
143	0x3db924a5	0.090401925
144	0x3e5fc8d3	0.21853952
145	0xbdc3780c	-0.095443815
146	0xbd16185a	-0.036644317
147	0x3caa9df3	0.02082727
148	0x3ce77128	0.0282522
149	0x3dec1920	0.1152823
150	0xbcfab067	-0.030601693
151	0xbb756dd1	-0.003744949
152	0x3db2a21f	0.087223284
153	0x3c3c0568	0.011475898
154	0xbdceeca5	-0.1010373
155	0x3d7f1981	0.06228018
156	0x3e217a5c	0.15769333
157	0xbc00c40e	-0.007859243
158	0x3d8c2acc	0.068441
159	0x3cc6c10c	0.024261974
160	0xbd2cebc7	-0.042217042
161	0x3e8384ad	0.2568716
162	0x3d81b9cc	0.06334266
163	0xbe0d5915	-0.13803513
164	0xbdf20323	-0.118170045
165	0x3d8a852b	0.06763681
166	0xbcc809db	-0.024418762
167	0x3e2b22a5	0.16712435
168	0x3db0b49a	0.08628197
169	0x3d988ee9	0.07449133
170	0xbe0a1c2e	-0.13487312
171	0x3def21e6	0.116763875
172	0xbc5b89f5	-0.013399591
173	0x3da28389	0.079352446
174	0x3d20044e	0.039066605
175	0x3d893b20	0.0670073
176	0xbd8b26f0	-0.06794536
177	0xbddaa204	-0.10675433
178	0x3dff8915	0.12477318
179	0x3e8466c4	0.25859654
180	0xbe8be541	-0.27323344
181	0x3da8ee01	0.08248521
182	0x3e0cf168	0.13763964
183	0xbdd9bd2d	-0.106317855
184	0xbd25193c	-0.04030727
185	0x3cfc0f07	0.030768884
186	0xbcd7ea9c	-0.026356988
187	0x3da1cf15	0.07900826
188	0x3ddb193e	0.10698174
189	0x3d51568e	0.051107936
190	0xbd71d553	-0.059041332
191	0xbe3ad582	-0.1824551
192	0x3c535127	0.012897766
193	0xbe87593e	-0.26435274
194	0x3e16387f	0.14669989
195	0x3e38040f	0.17970298
196	0x3a375aad	0.0006994408
197	0xbc547d37	-0.012969307
198	0x3d9fbaf0	0.077993274
199	0xbc564173	-0.013077128
200	0x3d14f4ed	0.036366392
201	0x3d8554f6	0.06510346
202	0x3defb3a0	0.117041826
203	0x3e0b526c	0.1360566
204	0xbd26acf7	-0.040692296
205	0xbe544567	-0.207296
206	0xbe0b7036	-0.13617024
207	0xbdaa0081	-0.08300877
208	0xbca7d36e	-0.02048656
209	0xbe054333	-0.13013916
210	0x3e61fb64	0.22068554
211	0x3e8affc3	0.27148256
212	0xbe009256	-0.12555823
213	0xbbb300c8	-0.0054627396
214	0xbe0a3b27	-0.13499127
215	0xbe35508e	-0.1770651
216	0xbd6ab738	-0.057303637
217	0xbe1f6fdd	-0.15570016
218	0x3d8fbac8	0.070180476
219	0x3d8c8128	0.06860572
220	0x3dfa57e4	0.12223795
221	0x3e596991	0.21231677
222	0xbd7249d7	-0.05915245
223	0xb99f90f7	-0.0003043485
224	0x3d7250d1	0.059159104
225	0xbcfff40d	-0.031244302
226	0x3e4b2ef4	0.1984213
227	0x3dae943a	0.08524366
228	0x3e60b204	0.21942908
229	0xbdb7418c	-0.08948049
230	0xbda2126a	-0.079136685
231	0x3d8b3c81	0.067986496
232	0xbdf58f83	-0.11990263
233	0xbdb9dcab	-0.09075292
234	0xbde78e0c	-0.1130639
235	0xbdaa6464	-0.08319929
236	0xbce7692e	-0.028248396
237	0xbbf6d658	-0.007532876
238	0x3e560565	0.20900495
239	0x3d23ef9a	0.040023424
240	0xbdd47524	-0.10373905
241	0x3d90d7d9	0.0707242
242	0xbd4ae3b7	-0.049533572
243	0x3d2571fc	0.040391907
244	0xbe0aa1f7	-0.13538347
245	0x3dff7880	0.124741554
246	0x3c4f9258	0.012669168
247	0x3d566077	0.05233809
248	0xbd820eb1	-0.063504584
249	0x3e3c4c92	0.18388584
250	0xbe0393c2	-0.12849334
251	0xbe1860fd	-0.14880748
252	0x3e2ba6a2	0.16762784
253	0x3de520cd	0.11187897
254	0x3ac9adc3	0.0015386868
255	0xbc2415e6	-0.010014987

fc1.bias f4 [120]
0	0xbd82e519	-0.06391353
1	0x3ddce3b8	0.107856214
2	0x3e3790cd	0.17926331
3	0xbd7fdcb6	-0.062466346
4	0x3e0b6159	0.13611354
5	0xbd8b72bc	-0.06808993
6	0x3e624d5f	0.22099827
7	0x3d898982	0.06715681
8	0x3e161c12	0.14659145
9	0x3e2bf7b9	0.16793717
10	0x3cc9051e	0.024538573
11	0x3dd68af9	0.10475726
12	0xbe7acea9	-0.24492897
13	0xbe040fb9	-0.12896623
14	0x3ea3f025	0.32019153
15	0x3e203a7c	0.1564731
16	0x3ea78da2	0.32725245
17	0xbc86e3ce	-0.016466048
18	0xbdfb1550	-0.122599244
19	0xbde08534	-0.109629065
20	0xbe012d67	-0.12614976
21	0xbb9710d0	-0.0046101585
22	0x3ea5735e	0.3231458
23	0x3d3a2ad5	0.045451004
24	0x3dcb3803	0.09922793
25	0x3dc66522	0.09687258
26	0xbc80cc9d	-0.015722567
27	0x3e007c21	0.12547351
28	0xbc553c4d	-0.013014865
29	0xbcd8ca03	-0.026463514
30	0x3cef3a73	0.029202675
31	0xbe7899df	-0.24277447
32	0xbd29ce98	-0.04145679
33	0x3e044353	0.12916307
34	0x3e21c127	0.15796338
35	0xbd452acb	-0.048136514
36	0x3d663e86	0.05621197
37	0xbd8a218c	-0.0674468
38	0x3e802462	0.25027758
39	0x3ec0e6af	0.37675998
40	0x3b885390	0.004160352
41	0xbc8db300	-0.017297268
42	0xbe73c31e	-0.238049
43	0x3e8404d6	0.2578494
44	0x3da29227	0.079380326
45	0x3e4c299b	0.19937746
46	0x3eb92e25	0.36168018
47	0x3e62a8d9	0.22134723
48	0xbe70729f	-0.23481224
49	0xbe7e5dc1	-0.24840452
50	0xbad720e9	-0.0016413006
51	0xbd2601aa	-0.04052893
52	0xbe37bfe9	-0.17944302
53	0x3e34d2ea	0.17658582
54	0x3e291052	0.16510132
55	0xbdbc0364	-0.09180334
56	0x3e3599b4	0.17734414
57	0xbdd10838	-0.10206646
58	0x3ec0277a	0.37530118
59	0xbe0ad625	-0.13558252
60	0x3d8db236	0.06918757
61	0xbdb46e35	-0.08810083
62	0xbe17e6d6	-0.1483415
63	0x3e63c94a	0.22244754
64	0x3e5c66a1	0.21523525
65	0x3e70d9d7	0.235206
66	0xbde41af2	-0.11137952
67	0x3e2e5208	0.1702348
68	0x3e44c372	0.19215181
69	0xbe64193e	-0.22275254
70	0x3e112d01	0.14177324
71	0xbb95900c	-0.004564291
72	0x3dfb115f	0.12259173
73	0xbdf6eb6b	-0.12056621
74	0xbcebe9a0	-0.028797925
75	0xbe12bd41	-0.14330007
76	0x3e32617e	0.17420003
77	0xbde3972d	-0.11112819
78	0x3da3ecff	0.08004188
79	0xbbc3f6ee	-0.005980364
80	0x3c52d310	0.012867704
81	0xbe9fd27c	-0.31215274
82	0x3d1a56a7	0.037680294
83	0x3e0af3e7	0.13569604
84	0x3dc96914	0.09834495
85	0xbbf8df60	-0.0075949878
86	0x3cd2d97d	0.025738472
87	0xbe8c2c22	-0.2737742
88	0x3e278189	0.16358007
89	0x3e909ed7	0.28246185
90	0x3e432118	0.19055593
91	0xbc231c39	-0.009955459
92	0x3e196841	0.14981176
93	0x3d8b9cb0	0.06816995
94	0x3d8dc1b5	0.06921712
95	0x3e6502d2	0.22364357
96	0x3d087c4a	0.033321656
97	0xbe173bc0	-0.14768887
98	0x3dc0204d	0.09381161
99	0xbe05548f	-0.13020538
100	0x3da5dd1d	0.08098815
101	0xbdb7ff61	-0.089842565
102	0x3d81562d	0.06315265
103	0xbe8cb30b	-0.2748035
104	0xbdfd428c	-0.123662084
105	0x3ddb9dd6	0.10723464
106	0x3d830473	0.06397333
107	0x3ddc849c	0.10767481
108	0x3eb71f1a	0.35765916
109	0x3e383ace	0.17991182
110	0x3c846ff8	0.016166672
111	0x3ed2e230	0.41188192
112	0x3e2614df	0.16218899
113	0xbcbd441e	-0.02310377
114	0x3e247722	0.1606107
115	0x3d95b26d	0.07309423
116	0x3e527f41	0.20556356
117	0x3edc25fe	0.42997736
118	0x3d48643f	0.048923727
119	0x3e464edb	0.19366018
