DomainAda/documents/mae_model_params.pth (torch, 72740 bytes, 38 tensors)

conv1.weight f4 [10, 20, 3]
-0.013014231 0.04831005 0.28318048 -0.10655108 0.052170817 -0.19414575 -0.08393343 -0.1454751
0.20535561 -0.05932432 0.096343294 -0.17193426 0.12024849 0.19208175 0.00078957994 -0.17086644
0.06663891 0.16734701 -0.03535575 0.0086373985 0.2022411 0.24417418 0.10519469 0.20275193
0.21388425 0.069189236 -0.030739233 0.17332248 -0.2223059 0.1804237 0.10297285 0.007017789
-0.16416775 -0.10375884 0.18537802 0.022165626 0.12665427 0.2807963 -0.061166912 -0.11086877
0.16384184 0.1655015 -0.20239605 0.059163563 0.027002063 -0.05648886 0.09057325 0.025338832
0.27488637 0.1140853 -0.00044690206 -0.21856807 0.18083842 0.0810702 0.18123928 0.050381448
-0.028713023 -0.12243893 -0.21185003 0.0155261 0.094751865 0.20604362 0.22123799 0.018566774
-0.19926505 0.17467391 0.08020082 0.14821522 -0.10560232 0.24693525 -0.08460068 -0.122717634
0.19924785 -0.18806419 0.100733034 -0.036402643 -0.10607399 -0.0937249 -0.0932191 0.10797474
0.1213802 -0.12033001 0.105553545 -0.151103 -0.21778165 0.21656309 -0.028354539 0.2332326
0.23163642 -0.17895417 -0.08453212 0.18022014 -0.12254867 -0.16721873 0.09817843 -0.16025653
-0.0697479 0.107992254 0.13559093 0.13240471 0.18824603 -0.13077725 0.2808047 0.24421401
0.052482847 0.25667548 0.25527966 -0.09145695 0.25324535 -0.013761065 -0.071425766 0.10220277
0.12210521 -0.1583644 0.058471415 -0.061680995 -0.034592137 0.03159289 -0.24726002 -0.121980645
-0.18091956 -0.04637466 0.116762646 0.23896778 -0.104764536 0.016650084 -0.158432 0.12876816
-0.105788276 -0.16541737 -0.010660383 -0.25602797 -0.12658834 -0.13308051 0.027375773 0.14974253
-0.06269417 0.114412 0.020415029 0.09697802 0.20786512 0.020691136 0.18807124 0.30605954
0.27381662 0.20329064 0.13413548 -0.25016218 -0.22137696 -0.15218805 0.25837767 -0.08815724
0.2701751 0.035443887 0.10253379 -0.01842897 0.13046739 -0.2379041 -0.18875015 0.17185442
-0.27009875 -0.051570646 -0.13774876 0.018914737 0.2612275 -0.17973441 0.1824727 -0.22980702
-0.2743081 0.18075569 0.0038729676 0.097606376 0.08782374 0.05396678 0.38547674 0.09868444
0.24147326 0.29245993 -0.13010074 0.032233313 -0.031801526 0.15956348 -0.06830279 0.17068715
-0.1499627 -0.04559413 0.051648393 0.15818696 0.023988687 0.19565766 -0.24125975 -0.11307951
0.07963075 0.24527884 0.013937728 -0.2448595 0.19129883 0.061615292 -0.023337029 0.12543364
-0.19129336 -0.04510569 -0.18463092 0.035501543 0.2927159 -0.042346522 -0.2574229 0.2523317
0.02116399 -0.17015232 -0.14459439 -0.11194407 -0.15475579 0.20211622 0.07805813 0.25482345
0.010815701 0.069396205 -0.18691948 -0.020316968 0.13903739 -0.3621409 -0.042203262 0.13760212
0.060034 0.1791754 0.14819692 -0.33892357 -0.028889963 -0.26885265 0.17580646 -0.114284165
-0.115027204 0.00047432474 -0.18661599 -0.23603673 -0.31059647 -0.02959126 0.1465558 0.03305766
0.17342548 0.10607406 -0.18061697 -0.178269 -0.18785915 -0.17291877 0.14949483 0.06295067
-0.20430166 0.0032409714 -0.022930115 0.26079628 -0.27713296 -0.13680775 0.1202771 -0.21244906
00000000: a439 55bc c2e0 453d 08fd 903e 7437 dabd
00000010: 11b1 553d 25ce 46be 4ae5 abbd 6df7 14be
00000020: be48 523e 0ffe 72bd a24f c53d 890f 30be
00000030: d744 f63d 14b1 443e d0fb 4e3a 9df7 2ebe
00000040: fb79 883d 045d 2b3e 31d1 10bd e083 0d3c
00000050: 4a18 4f3e cc08 7a3e 5070 d73d 349e 4f3e
00000060: 7904 5b3e 16b3 8d3d d8d0 fbbc 737b 313e
00000070: 28a4 63be fec0 383e 6ee3 d23d 7bf5 e53b
00000080: 971b 28be 847f d4bd bcd3 3d3e b094 b53c
00000090: a8b1 013e 88c4 8f3e 288a 7abd 2a0f e3bd
000000a0: 28c6 273e 3a79 293e e940 4fbe 7e55 723d
000000b0: 6e33 dd3c dd60 67bd 787e b93d 6293 cf3c
000000c0: e8bd 8c3e 8ea5 e93d 2e4e eab9 4fd0 5fbe
000000d0: b52d 393e 2208 a63d ca96 393e c75c 4e3d
000000e0: 9337 ebbc 43c1 fabd 37ef 58be 2f61 7e3c
000000f0: 440d c23d 19fd 523e 368c 623e 5919 983c
00000100: 230c 4cbe b8dd 323e 5440 a43d bbc5 173e
00000110: 0746 d8bd 98dc 7c3e 1f43 adbd 6253 fbbd
00000120: a107 4c3e e693 40be 1f4d ce3d f01a 15bd
00000130: 523d d9bd d7f2 bfbd a8e9 bebd dc21 dd3d
00000140: 2f96 f83d 956f f6bd 752c d83d bfba 1abe
00000150: 2702 5fbe b7c2 5d3e c747 e8bc 87d4 6e3e
00000160: 1932 6d3e c33f 37be 2d1f adbd a18b 383e
00000170: ccfa fabd 633b 2bbe c611 c93d 4a1a 24be
00000180: fdd7 8ebd 0b2b dd3d 59d8 0a3e 1a95 073e
00000190: 91c3 403e 79ea 05be a2c5 8f3e 3d13 7a3e
000001a0: 41f8 563d f86a 833e 04b4 823e c84d bbbd
000001b0: 60a9 813e 1776 61bc ac47 92bd b04f d13d
000001c0: 4c12 fa3d 472a 22be b97f 6f3d 36a5 7cbd
000001d0: 7cb0 0dbd 8c67 013d bb31 7dbe fdd0 f9bd
000001e0: fa42 39be 5bf3 3dbd 4121 ef3d f8b3 743e
000001f0: ca8e d6bd c265 883c 003c 22be cddb 033e
00000200: 86a7 d8bd 2c63 29be e3a8 2ebc 1916 83be
00000210: 60a0 01be 4246 08be 2843 e03c 1b56 193e
00000220: cd65 80bd d750 ea3d 6b3d a73c 6a9c c63d
00000230: 98da 543e 7580 a93c bf95 403e d6b3 9c3e
00000240: b131 8c3e 6c2b 503e d05a 093e 4215 80be
00000250: a4b0 62be 2fd7 1bbe 144a 843e c88b b4bd
00000260: 6454 8a3e 9c2d 113d 3cfd d13d 5af8 96bc
00000270: 3e99 053e 229d 73be b847 41be 9bfa 2f3e
00000280: 624a 8abe be3b 53bd 030e 0dbe 14f3 9a3c
00000290: 9cbf 853e 4c0c 38be 20da 3a3e 8852 6bbe
000002a0: 1c72 8cbe 0518 393e 9dd1 7d3b dae5 c73d
000002b0: efdc b33d 450c 5d3d 355d c53e 111b ca3d
000002c0: c444 773e 4fbd 953e 2139 05be 1407 043d
000002d0: 5142 02bd 9c64 233e 55e2 8bbd 9dc8 2e3e
000002e0: d28f 19be e9c0 3abd 448d 533d c3fb 213e
000002f0: ec83 c43c 7b5a 483e cc0c 77be 3b96 e7bd
00000300: 7215 a33d 602a 7b3e 115b 643c 73bc 7abe
00000310: d7e3 433e 5160 7c3d 4c2d bfbc ad71 003e
00000320: 68e2 43be bec0 38bd e30f 3dbe 116a 113d
00000330: dcde 953e 8c73 2dbd efcc 83be 9f31 813e
00000340: 1b60 ad3c 693c 2ebe 8d10 14be ef42 e5bd
00000350: 4d78 1ebe 8ef7 4e3e f1dc 9f3d 3878 823e
00000360: 5734 313c 991f 8e3d d267 3fbe c56f a6bc
00000370: d15f 0e3e 886a b9be 54dd 2cbd 92e7 0c3e
00000380: 36e6 753d c279 373e efc0 173e 6487 adbe
00000390: a5aa ecbc 0ea7 89be 9c06 343e d10d eabd
000003a0: 6293 ebbd caae f839 4318 3fbe 9db3 71be
000003b0: 8006 9fbe 5f69 f2bc b912 163e 7867 073d
000003c0: 7396 313e 5b3d d93d a8f3 38be 268c 36be
000003d0: 265e 40be 9e11 31be 2c15 193e 48ec 803d
000003e0: 7434 51be 7a66 543b f0d7 bbbc 1787 853e
000003f0: 5fe4 8dbe 5517 0cbe d753 f63d 3f8c 59be

conv1.bias f4 [10]
-0.06255987 0.14058131 -0.05865294 0.22327769 -0.053487346 -0.074248426 0.15075403 0.012594143
-0.12695326 -0.11726855
00000000: 641f 80bd 8cf4 0f3e 113e 70bd e8a2 643e
00000010: 8c15 5bbd 8f0f 98bd 445f 1a3e aa57 4e3c
00000020: 0900 02be 7e2a f0bd

bn1.weight f4 [10]
0.9456891 1.0421672 1.0633309 1.0723938 0.8910334 1.0373555 0.9840266 0.9630133
0.9197012 0.9053772
00000000: ae18 723f bc65 853f 3a1b 883f 3344 893f
00000010: c41a 643f 11c8 843f 2be9 7b3f 0a88 763f
00000020: 8a71 6b3f cdc6 673f

bn1.bias f4 [10]
-0.0719518 0.09853208 0.14865375 0.015940674 -0.05861284 -0.10195273 -0.3921869 0.20163059
-0.010526537 0.21754313
00000000: 775b 93bd 30cb c93d b038 183e 0496 823c
00000010: 0414 70bd 98cc d0bd b9cc c8be 4078 4e3e
00000020: 7f77 2cbc a0c3 5e3e

bn1.running_mean f4 [10]
0.3909766 0.87057316 0.029379014 0.6606725 0.0038847786 0.0038437028 0.41575962 0.3182415
0.1310843 0.17030706
00000000: 162e c83e e2dd 5e3f 42ac f03c d521 293f
00000010: c597 7e3b a2e6 7b3b 72de d43e 8df0 a23e
00000020: f63a 063e f964 2e3e

bn1.running_var f4 [10]
0.24570833 0.18051356 0.008408874 0.17620385 0.001405531 0.0014220156 0.13161527 0.1525623
0.03177699 0.094053335
00000000: f79a 7b3e 8cd8 383e 60c5 093c c86e 343e
00000010: cb39 b83a ed62 ba3a 27c6 063e 4b39 1c3e
00000020: 9728 023d 099f c03d

conv2.weight f4 [10, 10, 3]
0.052311074 -0.17906985 0.21358873 0.04141341 0.096792884 -0.07799982 0.07780483 0.55304134
0.027996091 -0.22545424 -0.29130423 -0.1349275 -0.29800877 0.060597807 0.08230185 0.17149784
-0.10294861 -0.054109883 0.076950885 -0.09177582 -0.06827644 0.093421526 8.502219e-05 -0.07419755
0.006730683 0.21285982 0.34710526 0.07695876 -0.090976 0.09065821 -0.13149983 0.048524097
0.09186045 0.323382 0.30560198 0.39431083 0.41246036 -0.11945904 -0.03193852 -0.1400965
-0.23668987 -0.030048309 -0.2266014 0.06893646 -0.34466287 -0.1704383 -0.30928078 0.11500919
0.042196397 0.10160958 -0.28764838 -0.31485802 -0.1014779 -0.25162026 0.032298762 0.3355632
-0.19642222 0.25411525 -0.13885705 -0.17442577 0.038968388 0.00077537 -0.018027714 0.06869689
-0.049939122 -0.12695773 -0.13698143 0.05481174 0.026776616 0.026389387 0.106744416 0.03287962
0.11226277 -0.08657558 0.29986733 -0.051397 0.11284484 0.3861461 0.0898952 0.1325901
0.4618123 0.062175952 -0.02695876 -0.1377921 -0.013172817 -0.003941256 0.21499285 0.04257655
-0.159381 -0.10167075 -0.22200792 0.08038747 -0.05335383 -0.47190723 -0.53828067 -0.14673856
0.003702974 -0.1463435 0.34478843 0.07664702 0.33896637 -0.09129928 0.193829 -0.22797768
-0.008931727 0.14615518 0.2713741 -0.15858279 0.051013913 0.031001404 0.18714805 0.07213364
0.13106321 0.09417375 -0.11923966 0.046252552 0.18856904 0.08705427 -0.10564719 0.19200484
-0.1622937 -0.20293213 -0.036374718 -0.27346826 0.0040150117 -0.17757627 -0.20271482 -0.32567406
0.2242063 0.37158358 0.32469618 0.28281718 -0.29268315 -0.077251405 0.12659134 0.03398151
-0.43339214 -0.15158924 -0.22521417 -0.21006964 -0.056035552 -0.08295755 0.26492742 0.01939111
-0.22638354 -0.08167715 -0.33231023 0.2110003 -0.14170474 -0.26705858 0.35980523 0.03928178
0.22955284 0.076422535 -0.03087516 0.27506992 0.16735363 0.081640765 0.050894357 -0.020785816
-0.20749651 0.049864788 -0.03155117 0.13173018 0.17654078 -0.10692426 0.093572125 0.025014376
-0.09497548 -0.10269973 0.20598474 0.028796058 0.2601949 0.019659346 -0.1040108 0.05316212
-0.17493999 0.5505093 0.25271854 -0.072031386 0.21802911 0.33467016 0.33128697 -0.049918745
-0.02345352 -0.030868609 -0.25720826 0.3157043 0.08970679 0.008407146 -0.05540455 0.09067991
-0.19946711 -0.2683993 -0.023493674 -0.30680516 -0.16042416 0.09788728 -0.104021 -0.03632285
-0.17337954 -0.10444203 -0.11005229 0.1329487 -0.25324452 0.016780002 -0.038903184 -0.09529462
0.013822771 0.26533508 0.3027588 -0.15651175 -0.19991939 0.103105806 -0.3279755 0.03673407
-0.22806568 -0.32632795 -0.35930198 0.21647881 0.2486229 -0.056767114 -0.16466558 -0.055727944
-0.03280774 -0.2583847 0.23887275 -0.09207631 -0.35023624 0.045129288 -0.03742424 0.1376878
0.32025346 0.08687545 -0.27849793 -0.19282246 0.1702225 -0.1447747 0.2461412 0.23894921
0.10699636 -0.024858486 -0.17966688 0.18074225 -0.005918339 0.022732235 -0.14646643 -0.0077294502
0.052294787 0.09757934 -0.13266057 -0.16132681 0.0036607 0.10853353 -0.28692573 -0.27671897
00000000: 2344 563d 165e 37be 01b7 5a3e 1ca1 293d
00000010: 593b c63d 5fbe 9fbd 2458 9f3d 1e94 0d3f
00000020: 0f58 e53c 7add 66be d425 95be 6f2a 0abe
00000030: 9b94 98be 6835 783d df8d a83d 219d 2f3e
00000040: b9d6 d2bd 53a2 5dbd 6d98 9d3d f6f4 bbbd
00000050: 85d4 8bbd c953 bf3d f14d b238 e3f4 97bd
00000060: 108d dc3b edf7 593e c8b7 b13e 8e9c 9d3d
00000070: a051 babd 03ab b93d e4a7 06be 34c1 463d
00000080: 5521 bc3d 5392 a53e dd77 9c3e 1ce3 c93e
00000090: 012e d33e f1a6 f4bd f7d1 02bd 7575 0fbe
000000a0: d45e 72be df27 f6bc 330a 68be 8f2e 8d3d
000000b0: a777 b0be 6187 2ebe 0d5a 9ebe f089 eb3d
000000c0: 21d6 2c3d af18 d03d a646 93be 1235 a1be
000000d0: a5d3 cfbd 5fd4 80be b54b 043d f1ce ab3e
000000e0: e822 49be 651b 823e 8b30 0ebe ab9c 32be
000000f0: 519d 1f3d 3342 4b3a dbae 93bc f4b0 8c3d
00000100: f78c 4cbd 3501 02be dc44 0cbe 4682 603d
00000110: a25a db3c 8e2e d83c d19c da3d c8ac 063d
00000120: 06ea e53d 8a4e b1bd 3688 993e a985 52bd
00000130: 321b e73d f1b4 c53e fa1a b83d b3c5 073e
00000140: a972 ec3e 36ac 7e3d 9ed8 dcbc 5f19 0dbe
00000150: cdd2 57bc a725 81bb 1627 5c3e c064 2e3d
00000160: c634 23be c138 d0bd 0b56 63be 30a2 a43d
00000170: 8c89 5abd d39d f1be c3cc 09bf a242 16be
00000180: 98ad 723b 12db 15be 1c88 b03e 1df9 9c3d
00000190: 008d ad3e 1efb babd 1c7b 463e fb72 69be
000001a0: 6156 12bc b4a9 153e 8cf1 8a3e 8763 22be
000001b0: f7f3 503d a8f6 fd3c bda3 3f3e cdba 933d
000001c0: 6f35 063e 2bde c03d ec33 f4bd 5173 3d3d
000001d0: 3e18 413e 8249 b23d 8e5d d8bd eb9c 443e
000001e0: 5230 26be 71cd 4fbe a8fd 14bd 0804 8cbe
000001f0: 5c90 833b 8ed6 35be 7994 4fbe c0be a6be
00000200: 5696 653e 3440 be3e 943e a63e 6acd 903e
00000210: 91da 95be fc35 9ebd 29a1 013e 3230 0b3d
00000220: 93e5 ddbe 363a 1bbe 8b9e 66be 7f1c 57be
00000230: 8985 65bd a6e5 a9bd 91a4 873e 1bda 9e3c
00000240: 16d1 67be 5a46 a7bd 9124 aabe 7610 583e
00000250: 0c1b 11be e7bb 88be 6438 b83e efe5 203d
00000260: e60f 6b3e 6b83 9c3d e7ed fcbc f7d5 8c3e
00000270: c05e 2b3e 4633 a73d 9a76 503d 0447 aabc
00000280: f779 54be 053f 4c3d cd3b 01bd 47e4 063e
00000290: 1bc7 343e 1bfb dabd bea2 bf3d f3ea cc3c
000002a0: 8182 c2bd 3c54 d2bd aaed 523e b6e5 eb3c
000002b0: 4438 853e a30c a13c 9d03 d5bd 86c0 593d
000002c0: 7823 33be 2dee 0c3f 5364 813e 3185 93bd
000002d0: 0643 5f3e e359 ab3e 729e a93e 9977 4cbd
000002e0: 9921 c0bc 2ae0 fcbc cdb0 83be fea3 a13e
000002f0: 32b8 b73d 20be 093c e2ef 62bd 63b6 b93d
00000300: 1b41 4cbe a26b 89be ce75 c0bc 9115 9dbe
00000310: 3b46 24be 2079 c83d f608 d5bd 45c7 14bd
00000320: 688a 31be b4e5 d5bd 1863 e1bd b423 083e
00000330: 44a9 81be 3776 893c f258 1fbd d329 c3bd
00000340: e778 623c 00da 873e 3403 9b3e 9e44 20be
00000350: abb7 4cbe 2329 d33d 68ec a7be 7776 163d
00000360: 0d8a 69be 7514 a7be 6ef6 b7be 9fac 5d3e
00000370: 0097 7e3e a284 68bd 189e 28be fc42 64bd
00000380: 6961 06bd 004b 84be 0f9b 743e 8192 bcbd
00000390: 2a52 b3be 7dd9 383d 294a 19bd 08fe 0c3e
000003a0: 43f8 a33e c2eb b13d 4897 8ebe 4073 45be
000003b0: cf4e 2e3e d23f 14be 700c 7c3e 1aaf 743e
000003c0: e820 db3d 06a4 cbbc 98fa 37be 7f14 393e
000003d0: a0ee c1bb f438 ba3c 4cfb 15be 5447 fdbb
000003e0: 0f33 563d add7 c73d 2cd8 07be db32 25be
000003f0: 5be8 6f3b d446 de3d eee7 92be 1cae 8dbe

conv2.bias f4 [10]
-0.05143988 0.16014226 -0.27483788 0.027031848 0.51567596 0.17911603 0.33592367 0.3411026
0.2522666 0.13947767
00000000: a0b2 52bd 55fc 233e 8db7 8cbe e571 dd3c
00000010: 5703 043f 316a 373e 30fe ab3e 00a5 ae3e
00000020: 1629 813e 3cd3 0e3e

bn2.weight f4 [10]
1.0560923 1.0423076 1.1542846 0.9657392 0.99670035 0.9427622 0.94780076 0.9539226
0.9631611 0.9623904
00000000: 082e 873f 566a 853f 99bf 933f af3a 773f
00000010: c127 7f3f dd58 713f 12a3 723f 4634 743f
00000020: ba91 763f 385f 763f

bn2.bias f4 [10]
0.19073945 0.07453927 0.24975114 0.19015142 -0.025973199 -0.022980127 -0.12360916 -0.11953627
-0.08107252 0.16791654
00000000: 3451 433e 0ba8 983d c3be 7f3e 0eb7 423e
00000010: bfc5 d4bc d240 bcbc cd26 fdbd 6fcf f4bd
00000020: 5909 a6bd 50f2 2b3e

bn2.running_mean f4 [10]
0.6737451 1.0817358 0.24718018 0.66444147 1.4473875 0.8628586 0.8110881 1.1078932
1.1049732 1.0524012
00000000: 8f7a 2c3f 5276 8a3f cd1c 7d3e d618 2a3f
00000010: fe43 b93f 4de4 5c3f 78a3 4f3f 72cf 8d3f
00000020: c36f 8d3f 15b5 863f

bn2.running_var f4 [10]
1.5055387 2.163467 0.8493923 1.1244129 2.5269318 2.2662318 1.3913015 1.7554396
1.7793585 2.125274
00000000: 7eb5 c03f 3e76 0a40 c671 593f c3ec 8f3f
00000010: 40b9 2140 f109 1140 2b16 b23f 3fb2 e03f
00000020: 05c2 e33f 7d04 0840

conv3.weight f4 [20, 10, 3]
0.20288658 0.048632815 -0.102471225 0.16499494 -0.099534765 0.19098961 -0.046150394 0.08567625
-0.31600478 0.116199255 -0.32581618 -0.0047632298 -0.288706 -0.028710492 -0.27614862 0.06546478
-0.08164145 0.14725064 -0.09137953 0.2333437 -0.10215995 -0.18566239 -0.09067409 -0.19461846
-0.047252227 -0.20489031 0.11854524 -0.22237732 -0.108820535 -0.14114451 -0.03675393 0.24470441
-0.13319516 -0.12702206 -0.03969033 0.13989754 0.28726912 0.13506858 0.45753884 -0.20644277
0.14256003 -0.20759499 0.17512602 -0.03091587 -0.10567062 0.10052952 -0.121490076 0.036241665
-0.12389648 0.19038077 -0.2561749 0.09818792 -0.21789388 0.0040012794 -0.31913725 -0.20737712
-0.112254255 -0.13919204 0.19085683 0.23202462 -0.038693845 -0.035565574 0.26595286 -0.20431423
-0.16249329 0.22780082 0.037374206 -0.17913452 -0.14231321 -0.1773001 0.067695245 0.14636162
-0.13425161 0.0049723587 -0.20228083 -0.015361833 -0.022728926 0.07560521 0.06339769 0.2380399
0.24185152 0.038599186 0.14080422 0.008102187 0.21875687 0.05971723 -0.15623069 0.012484996
-0.091696 -0.1970624 0.24965528 0.083042406 0.04088072 0.33667025 0.2212539 0.028422056
-0.030379519 -0.12996069 -0.13579735 -0.1903148 -0.18865153 0.057111908 -0.28479484 -0.18390536
-0.05510654 -0.122340724 0.23220715 -0.1761177 0.13755599 -0.12876341 0.019689757 -0.054653037
-0.22526057 0.13122167 0.07135906 -0.057965968 -0.052337162 -0.25283816 -0.2032529 0.16125046
0.13157634 -0.07559766 0.19798091 0.2766817 0.32356426 0.19166099 -0.23685725 0.2043237
-0.1541771 -0.055910606 0.119221136 0.016271688 -0.06948213 -0.30474716 0.06265824 0.16894029
-0.022276726 -0.065700956 -0.21486466 0.19035028 -0.05433377 -0.21772803 -0.28143892 0.104637966
-0.23015264 0.1556727 0.0637797 0.078978695 -0.16515245 0.0813093 -0.13781667 0.010366873
0.17495708 0.16890857 -0.18963556 0.027301906 -0.23387371 0.10203872 -0.25265977 0.10496668
-0.20978914 -0.406739 -0.03444991 0.08949797 -0.23456836 -0.12896493 0.082351774 0.31159484
0.06029437 -0.16469678 -0.066302724 -0.13467194 -0.16209388 -0.25595522 0.175332 -0.22380772
-0.0689014 0.0132757295 -0.14018339 -0.010820231 -0.17714152 -0.046987284 -0.09496536 -0.20482089
-0.20175059 -0.2870419 -0.09791671 0.18584013 -0.24500878 -0.22517268 0.15674858 0.12179798
-0.16448104 -0.091281086 0.33509114 -0.018157762 0.110167906 0.16130403 0.019963074 -0.20902601
0.15551189 -0.12504068 0.15621302 0.10479876 -0.0037513468 -0.13768505 0.2548267 -0.0106409425
0.08583842 0.17159991 0.025442848 0.033023626 0.1706765 -0.1332321 -0.23239426 0.0065920744
-0.025509264 -0.17015253 -0.2622902 -0.051912457 0.3828798 0.043569915 0.062931105 0.010018181
0.031684883 0.067179464 -0.07187356 -0.05451892 -0.21316634 -0.16128641 0.07975027 0.22425151
0.030437523 0.11346082 0.21584737 -0.21082862 0.17425503 0.09463669 0.047954153 0.016927937
-0.09801699 -0.09600373 0.016675586 -0.13659096 0.0069335625 -0.037737347 -0.15137102 -0.04838567
-0.3268455 -0.06387652 0.012307364 -0.19374697 -0.1771404 0.11448465 0.11908076 0.118628025
00000000: 80c1 4f3e 3433 473d 6fdc d1bd 6ff4 283e
00000010: e2d8 cbbd c892 433e 3208 3dbd 0877 af3d
00000020: 61cb a1be e0f9 ed3d 61d1 a6be de14 9cbb
00000030: 46d1 93be 4432 ebbc 5a63 8dbe 6612 863d
00000040: a233 a7bd dfc8 163e 3125 bbbd a7f1 6e3e
00000050: 3c39 d1bd 481e 3ebe 56b3 b9bd 104a 47be
00000060: 8d8b 41bd c4ce 51be d9c7 f23d e1b6 63be
00000070: 4ddd debd 3088 10be 4a8b 16bd cb93 7a3e
00000080: 5064 08be 1212 02be 5492 22bd 4d41 0f3e
00000090: f014 933e 6b4f 0a3e 8842 ea3e bc65 53be
000000a0: 42fb 113e c893 54be 3c54 333e 4743 fdbc
000000b0: d769 d8bd 6ce2 cd3d cacf f8bd 2472 143d
000000c0: 70bd fdbd 2df3 423e 5b29 83be c016 c93d
000000d0: 931f 5fbe 2a1d 833b f565 a3be ab5a 54be
000000e0: 8fe5 e5bd 5c88 0ebe f96f 433e dd97 6d3e
000000f0: 707d 1ebd 35ad 11bd f92a 883e c037 51be
00000100: a464 26be 9e44 693e b215 193d 0a6f 37be
00000110: 8eba 11be 288e 35be cea3 8a3d d2df 153e
00000120: 4179 09be 2bef a23b b522 4fbe 33b0 7bbc
00000130: 0332 babc e8d6 9a3d a6d6 813d bbc0 733e
00000140: eda7 773e 2e1a 1e3d fb2e 103e 09bf 043c
00000150: cd01 603e 0e9a 743d f0fa 1fbe de8d 4c3c
00000160: 1dcb bbbd baca 49be a2a5 7f3e 2312 aa3d
00000170: 8b72 273d 0b60 ac3e 6290 623e 5fd5 e83c
00000180: 78de f8bc 6a14 05be 760e 0bbe e2e1 42be
00000190: de2d 41be 2dee 693d a1d0 91be b051 3cbe
000001a0: 65b7 61bd c68d fabd b6c7 6d3e 3358 34be
000001b0: 7adb 0c3e 8eda 03be 6a4c a13c dddb 5fbd
000001c0: b5aa 66be f95e 063e b324 923d b96d 6dbd
000001d0: 7e5f 56bd 0174 81be 8721 50be d71e 253e
000001e0: f3bb 063e f2d2 9abd 82bb 4a3e 39a9 8d3e
000001f0: 37aa a53e c742 443e b58a 72be 3b3a 513e
00000200: 9ae0 1dbe 8502 65bd 362a f43d 344c 853c
00000210: a64c 8ebd d207 9cbe f752 803d affe 2c3e
00000220: ae7d b6bc 398e 86bd 7b05 5cbe 2feb 423e
00000230: 168d 5ebd 19f4 5ebe c318 90be 6e4c d63d
00000240: 22ad 6bbe aa68 1f3e ee9e 823d 95bf a13d
00000250: b91d 29be 7e85 a63d d01f 0dbe d1d9 293c
00000260: f327 333e 5ef6 2c3e d32f 42be 3fa8 df3c
00000270: 977c 6fbe adf9 d03d 9f5c 81be c5f8 d63d
00000280: f7d2 56be 1840 d0be 591b 0dbd b64a b73d
00000290: b032 70be 620f 04be 0ca8 a83d 5c89 9f3e
000002a0: 3bf7 763d 46a6 28be b9c9 87bd 71e7 09be
000002b0: f0fb 25be 900c 83be 3b8a 333e da2d 65be
000002c0: 2d1c 8dbd 7282 593c 3c8c 0fbe 5747 31bc
000002d0: 9664 35be bd75 40bd 337d c2bd 91bc 51be
000002e0: b597 4ebe 28f7 92be 8e88 c8bd e04c 3e3e
000002f0: 95e3 7abe ab93 66be b382 203e 3871 f93d
00000300: b86d 28be 94f1 babd 1191 ab3e 96bf 94bc
00000310: b69f e13d e22c 253e 9a89 a33c ea0a 56be
00000320: 823e 1f3e aa0a 00be 4ef6 1f3e bba0 d63d
00000330: 28d9 75bb 4ffd 0cbe a578 823e 5957 2ebc
00000340: 0ecc af3d e3b7 2f3e 856d d03c c843 073d
00000350: d2c5 2e3e ff6d 08be c3f8 6dbe 5402 d83b
00000360: cef8 d0bc 773c 2ebe e74a 86be 28a2 54bd
00000370: d208 c43e 5e76 323d 06e2 803d 4c23 243c
00000380: 02c8 013d 6395 893d 7232 93bd 3b4f 5fbd
00000390: 4748 5abe 4428 25be 1c54 a33d 30a2 653e
000003a0: 1d58 f93c 255e e83d 1807 5d3e 75e3 57be
000003b0: e96f 323e e2d0 c13d 936b 443d 75ac 8a3c
000003c0: 22bd c8bd 9b9d c4bd 3d9b 883c 80de 0bbe
000003d0: f032 e33b 7a92 1abd 0101 1bbe 0d30 46bd
000003e0: 4b58 a7be b1d1 82bd d3a4 493c 9b65 46be
000003f0: 4b64 35be ee76 ea3d 9de0 f33d 40f3 f23d

conv3.bias f4 [20]
-0.14552306 0.11953745 -0.1543107 -0.057993785 0.13824153 0.17433147 -0.03920894 -0.1697254
-0.025022998 0.10286679 0.015833253 0.08515562 -0.14736383 -0.03899465 0.1128638 0.08684571
0.1315498 0.16262951 -0.016294805 0.04340739
00000000: ff03 15be 0dd0 f43d a003 1ebe e48a 6dbd
00000010: 308f 0d3e f383 323e 8e99 20bd 7fcc 2dbe
00000020: 08fd ccbc d3ab d23d bdb4 813c 1266 ae3d
00000030: 8be6 16be dbb8 1fbd 2325 e73d 2adc b13d
00000040: feb4 063e 5a88 263e af7c 85bc f3cb 313d

bn3.weight f4 [20]
0.9816014 0.88477725 0.84467036 1.008373 0.93645614 0.88488114 0.9182432 0.8931469
0.8508837 0.8676071 0.9020783 0.8826895 0.9517851 0.90618694 0.9020226 1.000259
0.8723766 0.9650172 1.0163568 0.85584986
00000000: 3b4a 7b3f c380 623f 513c 583f 5e12 813f
00000010: 97bb 6f3f 9287 623f fd11 6b3f 46a5 643f
00000020: 84d3 593f 801b 5e3f 9aee 663f f0f7 613f
00000030: 30a8 733f defb 673f f4ea 663f 7d08 803f
00000040: 1354 5f3f 5e0b 773f fb17 823f fa18 5b3f

bn3.bias f4 [20]
0.06297916 -0.4454456 0.28005752 0.038653124 0.3916993 0.17766665 -0.2195648 0.29941806
0.4133448 0.18348211 -0.25880876 0.23740225 -0.23076555 0.30394608 -0.28889385 -0.039281026
-0.31092614 -0.044811137 0.28458983 -0.16254829
00000000: 38fb 803d 7211 e4be b363 8f3e bd52 1e3d
00000010: d08c c83e 3fee 353e 98d5 60be 534d 993e
00000020: eea1 d33e bce2 3b3e 9582 84be 9319 733e
00000030: ce4d 6cbe d29e 9b3e e5e9 93be 24e5 20bd
00000040: b631 9fbe e28b 37bd c2b5 913e 0f73 26be

bn3.running_mean f4 [20]
-0.37720925 0.4348184 -0.3565312 -0.15076979 0.3799418 -0.07913087 -0.20211118 -0.2311978
-0.42083642 -0.0012748506 0.072647035 0.046618372 0.298121 -0.15351482 0.37673017 0.067938864
0.33005276 0.08893104 0.083228536 0.2113312
00000000: 9221 c1be 84a0 de3e 428b b6be 6563 1abe
00000010: bb87 c23e 5e0f a2bd 3cf6 4ebe 1ebf 6cbe
00000020: df77 d7be e318 a7ba f8c7 943d e8f2 3e3d
00000030: 51a3 983e fd32 1dbe c7e2 c03e 8823 8b3d
00000040: adfc a83e 7a21 b63d b973 aa3d 3567 583e

bn3.running_var f4 [20]
4.2231255 2.2012625 1.4296914 4.386514 3.014955 2.1281536 2.6012838 2.144435
1.035499 2.8990905 2.1762836 2.1007552 1.8953204 1.6943456 3.2157485 2.9876275
3.6019168 4.404726 1.579405 2.667276
00000000: d823 8740 7ce1 0c40 2100 b73f 535e 8c40
00000010: 06f5 4040 ab33 0840 6f7b 2640 6c3e 0940
00000020: 3b8b 843f b38a 3940 3b48 0b40 c672 0640
00000030: dc99 f23f 51e0 d83f d3ce 4d40 4a35 3f40
00000040: ce85 6640 84f3 8c40 f129 ca3f a6b4 2a40

fc_mu.weight f4 [20, 240]
-0.10877573 0.098859295 0.14536643 0.103005 -0.05869975 -0.0746461 -0.055988334 -0.016986128
-0.0012323787 0.08265369 -0.133107 -0.09253294 0.036336806 0.11115423 -0.108905815 -0.0067609902
0.12995611 0.10588971 0.0288936 -0.033816177 -0.0029890905 -0.09085519 0.025260204 -0.08226548
-0.041187283 -0.058466185 -0.1360023 -0.07428284 -0.05920474 0.052597344 0.08151485 0.13173033
-0.09506877 0.09078189 -0.077628486 0.047882184 0.102174096 -0.023706727 -0.04594236 0.037578505
-0.06723517 -0.16437848 -0.0018673844 0.05053056 -0.17816949 -0.036691118 -0.08336903 -0.12879087
0.10309749 0.06369027 0.08584245 -0.058648013 0.027024768 0.0708947 0.089179404 0.021706166
0.16659786 -0.04462886 0.017590206 -0.085667126 -0.004183689 -0.037768774 -0.079569496 -0.03217781
0.12626593 -0.022370255 0.005107518 0.020712221 0.060848873 -0.07770623 -0.084633864 -0.12716715
0.041658513 -0.21066092 -0.10172849 0.0037779387 0.022436542 -0.1178028 -0.09228205 -0.042740356
-0.086223625 0.095694624 -0.057277806 0.09548072 0.090831816 0.07091072 0.084539555 0.03439093
0.015108124 0.0032049029 -0.0013222416 -0.075462446 0.12814806 -0.007491159 0.10302089 0.057707984
0.026917929 0.024709681 -0.015947359 0.09418032 0.002685346 0.062395297 0.021919236 0.11935986
0.18063018 0.13892642 0.055036332 0.10426485 0.03646578 -0.14458631 -0.17905545 0.07331969
0.0036962 0.052812804 0.013456013 0.040753026 0.002196738 -0.029269652 0.016315471 -0.026127758
0.026367493 0.04280827 0.035641484 0.08389536 -0.0724667 0.055297915 -0.030333322 0.04145784
0.015696254 -0.0016413352 0.0197393 0.028909825 0.08169332 -0.108403586 -0.13671057 -0.009612624
-0.0652541 0.023667749 -0.039832603 0.08978608 0.08617979 0.08520029 -0.15467076 0.011276591
-0.16499616 -0.0049711894 -0.11212221 -0.16096525 0.08900928 0.077009015 -0.06473926 -0.19583555
0.052191783 -0.11637631 -0.08158883 0.0079321815 -0.13962689 0.051134866 0.055760387 -0.00821566
0.03397213 0.0863836 -0.014372691 -0.017497137 -0.014651503 0.16884212 -0.006763892 -0.08473801
-0.09047632 -0.0930063 -0.059011053 -0.0367107 -0.06372713 -0.04314026 -0.01589481 -0.16548
-0.044793345 -0.09784876 -0.04145142 -0.13533278 0.004904193 0.07348309 -0.09780262 0.12397466
0.12200611 0.0037566775 -0.10736252 0.10056509 0.119179256 0.08840066 0.062333625 0.19869733
0.020226682 0.0024277188 -0.002526008 0.009517639 -0.10506137 -0.008797905 0.047998134 0.02784698
-0.10768641 -0.04885163 0.0047259387 -0.20348121 0.025362147 0.0031905405 0.119580716 0.090464905
0.07863567 -0.061931297 -0.14382902 0.14192592 -0.075113766 -0.123765945 0.10741912 0.1291461
0.085344926 0.09376754 -0.04858194 0.033589244 0.21857692 0.21953847 -0.01824999 0.0550442
-0.028011164 0.07158939 0.04164342 -0.04564027 -0.029029528 -0.14332436 -0.021968806 -0.0005928014
0.033553645 -0.045188867 -0.0796873 -0.10285586 0.062024 -0.07437109 0.04934244 0.027710635
0.07114782 -0.14660993 0.09072628 -0.1290645 -0.0270472 -0.11216086 -0.06240567 -0.13133368
0.0087128 -0.11685582 -0.014538596 0.15088928 -0.07200634 0.056536693 0.13246351 0.14856844
00000000: cfc5 debd be76 ca3d f0da 143e 49f4 d23d
00000010: 266f 70bd 0ee0 98bd 0654 65bd 7e26 8bbc
00000020: c487 a1ba 5646 a93d 344d 08be e981 bdbd
00000030: e7d5 143d d4a4 e33d 030a dfbd 4c8b ddbb
00000040: 3713 053e b4dc d83d 45b2 ec3c d582 0abd
00000050: 9ee4 43bb 4912 babd 7dee ce3c ce7a a8bd
00000060: ffb3 28bd 3d7a 6fbd 3044 0bbe 9a21 98bd
00000070: ab80 72bd 5070 573d 42f1 a63d 51e4 063e
00000080: 6ab3 c2bd dbeb b93d affb 9ebd 1c20 443d
00000090: a740 d13d 9c34 c2bc 0e2e 3cbd ebeb 193d
000000a0: 98b2 89bd d552 28be 06c3 f4ba 22f9 4e3d
000000b0: 1072 36be 6d49 16bd 62bd aabd c1e1 03be
000000c0: c724 d33d 0b70 823d 2bce af3d e638 70bd
000000d0: 0c63 dd3c 3e31 913d b1a3 b63d 21d1 b13c
000000e0: a198 2a3e c0cc 36bd 5619 903c 3f72 afbd
000000f0: 5417 89bb 6eb3 1abd 55f5 a2bd e1cc 03bd
00000100: db4b 013e d341 b7bc f75c a73b adac a93c
00000110: ab3c 793d 7224 9fbd 8554 adbd 1b38 02be
00000120: 1ea2 2a3d 7fb7 57be 0757 d0bd 4b97 773b
00000130: d7cc b73c 9842 f1bd 5ffe bcbd 8310 2fbd
00000140: 0396 b0bd 8bfb c33d 229c 6abd 658b c33d
00000150: 0806 ba3d a439 913d 1323 ad3d 81dd 0c3d
00000160: 1188 773c 5909 523b 114f adba 0e8c 9abd
00000170: 3f39 033e 6578 f5bb 9efc d23d 355f 6c3d
00000180: fd82 dc3c f56b ca3c 09a4 82bc 9de1 c03d
00000190: a1fc 2f3b 3692 7f3d f88f b33c f172 f43d
000001a0: 1ef7 383e ba42 0e3e c76d 613d cf88 d53d
000001b0: 245d 153d 6f0e 14be 505a 37be a228 963d
000001c0: f23b 723b 3d52 583d 9c76 5c3c a5ec 263d
000001d0: 26f7 0f3b e9c6 efbc 06a8 853c e109 d6bc
000001e0: a400 d83c b957 2f3d cefc 113d 55d1 ab3d
000001f0: 6c69 94bd 1180 623d 967d f8bc b2cf 293d
00000200: 6e95 803c 1222 d7ba 50b4 a13c 4cd4 ec3c
00000210: d44e a73d b302 debd dbfd 0bbe 447e 1dbc
00000220: f1a3 85bd dee2 c13c 8327 23bd c4e1 b73d
00000230: 087f b03d 7d7d ae3d 0362 1ebe 73c1 383c
00000240: c1f4 28be 5ce5 a2bb 54a0 e5bd 13d4 24be
00000250: 7f4a b63d e7b6 9d3d 0496 84bd 1d89 48be
00000260: 0dc7 553d b456 eebd 0b18 a7bd fbf5 013c
00000270: 5afa 0ebe cb72 513d 0165 643d fa9a 06bc
00000280: 5c26 0b3d e3e9 b03d 6f7b 6bbc 2856 8fbc
00000290: dc0c 70bc f3e4 2c3e a3a3 ddbb 1f8b adbd
000002a0: a64b b9bd 167a bebd 93b5 71bd f55d 16bd
000002b0: 5f83 82bd d7b3 30bd d535 82bc 9773 29be
000002c0: 3a79 37bd ee64 c8bd f7c8 29bd ad94 0abe
000002d0: 5ab3 a03b 4d7e 963d bd4c c8bd 6de6 fd3d
000002e0: 57de f93d 9732 763b e2e0 dbbd 12f5 cd3d
000002f0: 4114 f43d 680b b53d 8b51 7f3d 5077 4b3e
00000300: 6db2 a53c 5d1a 1f3b 628b 25bb dfef 1b3c
00000310: 6a2a d7bd 1725 10bc b199 443d 5a1f e43c
00000320: b18a dcbd a618 48bd 0cdc 9a3b 615d 50be
00000330: 47c4 cf3c 6318 513b bce6 f43d aa45 b93d
00000340: bd0b a13d acab 7dbd ea47 13be 0755 113e
00000350: 3fd5 99bd 0079 fdbd 8efe db3d e03e 043e
00000360: 52c9 ae3d 3209 c03d dbfd 46bd e094 093d
00000370: a1d2 5f3e b1ce 603e 0181 95bc 0776 613d
00000380: ab77 e5bc 759d 923d 4a92 2a3d 4bf1 3abd
00000390: 55cf edbc 9fc3 12be edf7 b3bc 3b66 1bba
000003a0: 8c6f 093d f617 39bd 1833 a3bd 18a6 d2bd
000003b0: e10c 7e3d df4f 98bd 4c1b 4a3d 6a01 e33c
000003c0: f3b5 913d ea20 16be b3ce b93d 7c29 04be
000003d0: 1792 ddbc 98b4 e5bd 169d 7fbd 567c 06be
000003e0: 22c0 0e3c 1b52 efbd 4b33 6ebc b882 1a3e
000003f0: 0f78 93bd 0593 673d 84a4 073e 5322 183e

fc_mu.bias f4 [20]
0.3053358 -0.14148875 -0.20387444 -0.22104871 0.05428153 0.100524805 -0.08056017 0.12005378
-0.03438257 -0.119031996 0.12979357 0.10700896 -0.05279276 0.225305 -0.0314689 0.39872625
0.07559943 0.0751503 0.18253887 -0.004428015
00000000: f954 9c3e 6de2 10be 76c4 50be 985a 62be
00000010: 4f56 5e3d f3df cd3d bbfc a4bd c2de f53d
00000020: bdd4 0cbd 0cc7 f3bd 9be8 043e 8327 db3d
00000030: 393d 58bd 5bb6 663e 89e5 00bd d925 cc3e
00000040: e0d3 9a3d 67e8 993d 78eb 3a3e e218 91bb

fc_logvar.weight f4 [20, 240]
0.011299282 0.0575379 0.11444363 0.11855203 0.13279915 0.13181645 0.08909492 -0.0016704053
0.042104214 -0.00608103 -0.03993158 0.14225271 -0.059793755 0.06882481 -0.0587854 -0.06473407
-0.09804542 0.08719708 0.039886042 -0.10683707 -0.12714583 0.13513705 -0.036810696 -0.026854157
0.04562922 0.107755035 -0.13061537 0.06352137 0.05918777 -0.121689305 -0.14018482 0.1472958
0.13919222 -0.007913604 -0.08231328 0.009236544 0.11600113 -0.077611424 0.12773302 -0.036774427
-0.008116886 0.08683497 -0.07875984 0.11010274 -0.12754093 -0.06752151 0.046614632 -0.10837756
-0.03322743 -0.062038213 0.11996946 0.05778499 -0.0014015436 -0.011040017 -0.101513475 0.083235085
-0.14859456 0.039138794 -0.06246385 0.0488327 -0.12189108 -0.06976625 0.035517395 0.13004044
0.11201644 0.10252532 0.008207247 0.0077613145 -0.02543068 -0.14671127 0.10811651 -0.04314728
0.13656357 -0.07070873 0.058182627 -0.045027927 -0.06388024 -0.036532827 -0.029992983 -0.096747875
-0.023981199 0.079957694 -0.0654874 0.017860368 -0.13264687 -0.06788779 0.046995103 -0.07131231
-0.10928993 0.02418761 0.0033049136 -0.10295763 0.06456761 -0.073484726 0.089345366 -0.06645372
-0.14107376 0.07907912 -0.13953015 0.11133459 0.15019253 0.04755692 -0.10625305 -0.109416924
-0.09579103 0.019780815 -0.14660133 -0.00067590177 0.06430307 -0.059843235 0.12508723 0.12660477
-0.06281084 -0.09945445 0.042701006 -0.06425114 -0.05963643 -0.001003772 -0.060832158 0.09529875
-0.09703526 0.078416854 -0.13316785 0.14477417 -0.14542441 0.010676473 0.09121995 -0.0377454
-0.060331367 -0.0057264566 -0.041633956 -0.03743764 -0.05879259 -0.037381753 -0.013462767 0.062281743
0.009422317 0.10986999 -0.116149545 -0.08936357 0.08999021 -0.046939783 0.0029245764 -0.04822226
-0.0458733 -0.084216624 0.092864424 -0.053006582 0.010449961 -0.07171841 -0.13325338 0.11206794
0.011719421 -0.12361479 0.12800595 -0.01389657 -0.0037055016 -0.04256922 0.06985624 -0.0129722655
-0.030599155 0.043387413 -0.09546381 -0.034439586 0.08354519 -0.12179917 0.07299253 -0.14444987
-0.024307325 -0.057504177 0.08587086 0.07921815 -0.055104457 0.0011625886 -0.002639085 -0.04974872
0.14760703 -0.0978336 -0.019851282 0.10349944 0.12902749 0.086887985 -0.123590045 0.07775214
0.102989644 -0.083336905 0.09452216 -0.076597966 -0.116510294 -0.14962663 0.059979692 0.009097606
0.10525003 -0.04001546 0.009538859 0.11096591 0.025097474 -0.0644869 0.05573535 -0.069497384
0.034695506 0.12745777 0.024905622 0.02392134 -0.059843145 -0.05842226 0.082393825 0.020806044
-0.114075184 -0.07283029 0.026993662 -0.04165125 -0.1341757 -0.07735165 -0.06657867 -0.057559483
0.045014918 0.112969846 -0.08176414 -0.0034407675 0.065032065 -0.03699787 0.09126812 -0.054712594
-0.14618608 -0.13371956 0.08098665 0.048336267 -0.021447346 -0.019783929 -0.11821219 0.1189383
0.0856082 0.0043238997 -0.022044793 0.027892679 0.14230978 0.1397304 0.046800464 -0.041242085
0.029233247 -0.026903987 0.0767151 0.016619131 0.08854121 -0.11284445 -0.053377874 -0.0437999
-0.06825406 0.0717385 -0.09186791 -0.15042953 0.1302802 0.11259508 -0.059224136 0.050668567
00000000: a020 393c dcac 6b3d 6c61 ea3d 68cb f23d
00000010: 80fc 073e e4fa 063e 6677 b63d 80f1 daba
00000020: 7875 2c3d 6043 c7bb 4c8f 23bd b2aa 113e
00000030: 4cea 74bd 06f4 8c3d f6c8 70bd 4c93 84bd
00000040: 0acc c8bd 6294 b23d 8c5f 233d 65cd dabd
00000050: 8432 02be 5e61 0a3e d0c6 16bd 40fd dbbc
00000060: b4e5 3a3d acae dc3d 09c0 05be 7e17 823d
00000070: e06e 723d 3e38 f9bd 9c8c 0fbe b6d4 163e
00000080: 6888 0e3e 10a8 01bc dd93 a8bd e054 173c
00000090: 0092 ed3d bdf2 9ebd 72cc 023e c8a0 16bd
000000a0: b0fc 04bc 88d6 b13d d74c a1bd 8c7d e13d
000000b0: 179a 02be b848 8abd fcee 3e3d 0ef5 ddbd
000000c0: 7c19 08bd c81b 7ebd 8cb2 f53d f4af 6c3d
000000d0: 00b4 b7ba 30e1 34bc 4ce6 cfbd 2877 aa3d
000000e0: 2c29 18be 0050 203d 18da 7fbd cc04 483d
000000f0: 08a2 f9bd 9ce1 8ebd b07a 113d 5229 053e
00000100: e068 e53d ccf8 d13d b077 063c a052 fe3b
00000110: 0054 d0bc 7b3b 16be 306c dd3d 34bb 30bd
00000120: 52d7 0b3e bdcf 90bd e850 6e3d 346f 38bd
00000130: a5d3 82bd 72a3 15bd d8b3 f5bc c023 c6bd
00000140: 3874 c4bc dcc0 a33d 421e 86bd e84f 923c
00000150: 95d4 07be c108 8bbd f07d 403d 300c 92bd
00000160: 66d3 dfbd 1825 c63c 4097 583b 73db d2bd
00000170: 063c 843d 297f 96bd b4fa b63d e318 88bd
00000180: a475 10be 3cf4 a13d fee0 0ebe 6403 e43d
00000190: 12cc 193e 0ccb 423d 339b d9bd fb15 e0bd
000001a0: 162e c4bd 600b a23c a91e 16be 002f 31ba
000001b0: 54b1 833d 2e1e 75bd de16 003e aea4 013e
000001c0: f8a2 80bd c6ae cbbd 40e7 2e3d 1a96 83bd
000001d0: 5445 74bd 0091 83ba 242b 79bd fe2b c33d
000001e0: 6cba c6bd 0499 a03d 275d 08be ae3f 143e
000001f0: 23ea 14be 60ec 2e3c 86d1 ba3d ec9a 1abd
00000200: 061e 77bd 00a5 bbbb 5e88 2abd 3658 19bd
00000210: 80d0 70bd 9c1d 19bd f092 5cbc 241b 7f3d
00000220: 1060 1a3c 8403 e13d d0df edbd 3f04 b7bd
00000230: ca4c b83d ee43 40bd 40aa 3f3b b484 45bd
00000240: a4e5 3bbd c479 acbd b42f be3d 6e1d 59bd
00000250: 5036 2b3c 1ae1 92bd 9373 08be e083 e53d
00000260: d002 403c c029 fdbd fe13 033e 70ae 63bc
00000270: 00d8 72bb 105d 2ebd ca10 8f3d a089 54bc
00000280: 14ab fabc 00b7 313d 8882 c3bd 8610 0dbd
00000290: be19 ab3d d871 f9bd 1c7d 953d abea 13be
000002a0: 2820 c7bc 8089 6bbd 10dd af3d 203d a23d
000002b0: 36b5 61bd 0062 983a 80f4 2cbb 50c5 4bbd
000002c0: 4c26 173e fc5c c8bd 289f a2bc 84f7 d33d
000002d0: c81f 043e 54f2 b13d c71c fdbd 843c 9f3d
000002e0: 3cec d23d 8aac aabd d694 c13d 65df 9cbd
000002f0: f39c eebd b937 19be 44ad 753d 200e 153c
00000300: 548d d73d 40e7 23bd e048 1c3c 1842 e33d
00000310: 3899 cd3c b511 84bd c04a 643d a554 8ebd
00000320: e01c 0e3d 4a84 023e e006 cc3c b0f6 c33c
00000330: 161e 75bd 2e4c 6fbd 18be a83d 7071 aa3c
00000340: 40a0 e9bd 0c28 95bd d021 dd3c 809a 2abd
00000350: 5b65 09be 8b6a 9ebd 665a 88bd 7ec3 6bbd
00000360: 9061 383d bc5c e73d f573 a7bd 807e 61bb
00000370: 882f 853d 148b 17bd c8ea ba3d 501a 60bd
00000380: ceb1 15be c8ed 08be 54dc a53d 40fc 453d
00000390: 58b2 afbc e811 a2bc 3c19 f2bd ec95 f33d
000003a0: 5a53 af3d 80af 8d3b 4897 b4bc 307f e43c
000003b0: a8b9 113e 7c15 0f3e d8b1 3f3d 76ed 28bd
000003c0: 907a ef3c c065 dcbc ce1c 9d3d d824 883c
000003d0: 1855 b53d fe1a e7bd c2a2 5abd 8667 33bd
000003e0: c9c8 8bbd a2eb 923d 3e25 bcbd 330a 1abe
000003f0: 2c68 053e 4098 e63d 0295 72bd d889 4f3d

fc_logvar.bias f4 [20]
0.056193516 -0.05772743 0.026865706 -0.021858416 0.051466182 0.025765046 0.023032814 0.013483234
0.02502904 -0.014221646 -0.008100364 -0.039206743 0.056343034 0.06170764 0.017734922 0.0104004145
0.012605108 -0.06186348 0.020384245 -0.05641692
00000000: 2c2b 663d 9973 6cbd 7815 dc3c 6c10 b3bc
00000010: 34ce 523d 3811 d33c 50af bc3c c8e8 5c3c
00000020: b409 cd3c e801 69bc 64b7 04bc 4097 20bd
00000030: f4c7 663d 26c1 7c3d d448 913c 8066 2a3c
00000040: a885 4e3c 8f64 7dbd dcfc a63c 6e15 67bd

fc1.weight f4 [120, 20]
0.036569033 -0.20606846 0.008320883 -0.22921039 -0.044160873 -0.117888294 -0.16311057 -0.0019221016
0.17136496 -0.24286993 0.20323613 0.08975195 0.207276 0.18818408 -0.056088824 0.036462788
0.059918117 0.09518299 0.0816282 0.04670307 0.007274982 0.10854141 -0.12601353 -0.082513854
0.009981555 0.010302818 0.18023747 0.1210053 -0.108774215 -0.051647093 0.081039734 -0.025029859
-0.10017176 -0.031837024 -0.35952792 -0.12206355 0.14043914 -0.02191758 -0.11720633 -0.0521809
-0.06223247 0.14643477 -0.117661774 -0.034925792 0.23406902 0.02019631 0.10477309 0.0253501
-0.09377508 -0.14811946 -0.03792819 0.042827714 -0.124176696 -0.10152155 -0.07583054 0.123114355
0.03192359 0.1411348 0.062566124 -0.11831635 0.15340868 0.058411933 -0.0022325644 0.008835535
0.03670589 -0.09110125 -0.025369858 -0.08129034 0.042483304 0.0062110983 0.12714846 0.200142
0.03279763 0.14248413 0.044338014 -0.03208066 0.0969541 0.1824254 -0.16882658 0.17749509
0.102534704 -0.067286454 0.039885297 -0.027147202 -0.02207374 -0.09110142 -0.15648118 -0.073042355
-0.14828652 -0.08329224 0.10134216 0.077842765 0.08024038 -0.23358275 -0.07005826 0.112310946
0.002650197 0.02991763 0.07488192 0.037001766 0.043061446 0.122816525 -0.059869457 -0.17867777
-0.0039934553 0.040426943 -0.17275743 0.07222255 0.25476798 0.1168598 0.05731209 -0.012911221
0.08691486 0.08341168 0.1385871 0.11964663 0.036885537 -0.010974791 -0.03478006 -0.01764139
-0.0051454734 -0.077995256 0.0016805785 -0.08675551 0.1593667 -0.15928556 0.013262035 0.068933845
-0.054644886 -0.11382263 0.01094034 -0.037250128 -0.026812803 -0.001990686 0.15940237 0.07832977
-0.09247864 -0.11004478 -0.21047255 0.020796636 -0.22058707 -0.09759551 0.10710424 0.07372129
-0.122875944 -0.071522065 0.11995134 0.13288379 -0.24382223 0.25128832 0.04496706 0.036328666
0.088365726 -0.0117741665 -0.10132868 0.059907984 0.121090315 0.14626484 -0.073965855 -0.02085677
0.05112148 -0.06693348 0.061347015 -0.062036525 0.15184253 0.14384276 -0.02155812 -0.010776098
-0.045724854 0.13905098 0.19829006 0.05281759 -0.051859647 -0.13085878 -0.029538086 0.08579142
-0.044879813 -0.17929853 0.106569014 0.15834026 -0.15234737 0.13978548 0.14896916 0.1317231
0.1638659 0.09546336 -0.047311276 0.013812113 0.0072568874 0.03279847 0.10550463 0.15097083
-0.14468743 -0.05227171 0.104817994 -0.25452003 0.3090658 -0.10465135 -0.07133492 0.2386176
0.15067142 -0.018051093 0.122147314 -0.2317433 0.0043601003 0.20694925 0.1086675 0.124187715
-0.08356528 -0.031339593 -0.10620871 0.073069796 -0.0153498715 -0.03891127 0.08783465 0.20470546
-0.21708548 0.13580358 -0.06421899 -0.044831887 -0.13089807 0.13211963 -0.05846898 0.030629262
-0.16603641 0.18273601 -0.22723068 0.08366771 -0.11255395 -0.24457617 -0.1926581 0.205529
-0.09267385 -0.18437365 0.17878176 0.13232036 -0.032573823 0.11246946 0.1847343 -0.023946794
-0.1167276 -0.2708435 -0.08610198 -0.11839762 -0.1432267 -0.04383869 0.081205815 0.21732037
0.16327332 0.078846246 0.17095333 0.19330026 -0.020990347 -0.11216758 0.05991379 0.29690462
00000000: 69c9 153d 9c03 53be 5054 083c 21b6 6abe
00000010: 08e2 34bd 6b6f f1bd 7506 27be 07ef fbba
00000020: 4c7a 2f3e e5b2 78be 221d 503e dfcf b73d
00000030: 2940 543e 54b3 403e 65bd 65bd 015a 153d
00000040: b36c 753d 4def c23d b02c a73d b84b 3f3d
00000050: f962 ee3b f54a de3d b109 01be 06fd a8bd
00000060: ad89 233c 27cd 283c 2c90 383e a0d1 f73d
00000070: 04c5 debd e78b 53bd 29f8 a53d 6b0b cdbc
00000080: da26 cdbd 8a67 02bd 0b14 b8be 74fc f9bd
00000090: 47cf 0f3e 7f8c b3bc df09 f0bd a4bb 55bd
000000a0: 79e7 7ebd fff2 153e a8f8 f0bd 590e 0fbd
000000b0: caaf 6f3e bb72 a53c 4693 d63d 03ab cf3c
000000c0: 260d c0bd a1ac 17be 975a 1bbd 1d6c 2f3d
000000d0: 5a50 febd 88ea cfbd 0b4d 9bbd 6123 fc3d
000000e0: 4fc2 023d a485 103e ab22 803d d84f f2bd
000000f0: 2a17 1d3e 5a41 6f3d 3750 12bb ebc2 103c
00000100: ea58 163d 4b93 babd 73d4 cfbc 8d7b a6bd
00000110: f902 2e3d 7886 cb3b 3533 023e 06f2 4c3e
00000120: cf56 063d 5ce7 113e c79b 353d 0367 03bd
00000130: df8f c63d b9cd 3a3e e0e0 2cbe 46c1 353e
00000140: b7fd d13d 7bcd 89bd c45e 233d cf63 debc
00000150: fdd3 b4bc 6293 babd 9a3c 20be 3b97 95bd
00000160: 6cd8 17be 1f95 aabd 7a8c cf3d 076c 9f3d
00000170: 1155 a43d 5130 6fbe b47a 8fbd 4803 e63d
00000180: edae 2d3b d115 f53c b15b 993d 2a8f 173d
00000190: 3361 303d 3b87 fb3d ad39 75bd 4ef7 36be
000001a0: 88db 82bb b996 253d 53e7 30be 6be9 933d
000001b0: f370 823e 3154 ef3d 15c0 6a3d 9689 53bc
000001c0: 6b00 b23d bed3 aa3d c7e9 0d3e 4b09 f53d
000001d0: 4a15 173d 9ccf 33bc 8975 0ebd ad84 90bc
000001e0: 5c9b a8bb fabb 9fbd db46 dc3a dfac b1bd
000001f0: 0631 233e c11b 23be 0249 593c 302d 8d3d
00000200: 51d3 5fbd d71b e9bd 1d3f 333c 9793 18bd
00000210: 86a6 dbbc 2b76 02bb 603a 233e 5c6b a03d
00000220: 7165 bdbd 285f e1bd 1e86 57be b55d aa3c
00000230: 94e1 61be 28e0 c7bd 7859 db3d 30fb 963d
00000240: 62a6 fbbd 297a 92bd 0ca9 f53d b012 083e
00000250: 89ac 79be dda8 803e 612f 383d 5ecd 143d
00000260: 17f9 b43d 6fe8 40bc 6985 cfbd 1362 753d
00000270: 33fe f73d 73c6 153e 697b 97bd d1db aabc
00000280: c264 513d 6c14 89bd 0247 7b3d 031a 7ebd
00000290: 9c7c 1b3e 844b 133e a89a b0bc 3b8e 30bc
000002a0: fc49 3bbd 6163 0e3e 8d0c 4b3e 4257 583d
000002b0: c86a 54bd d8ff 05be dbf9 f1bc 69b3 af3d
000002c0: e5d3 37bd 099a 37be db40 da3d f323 223e
000002d0: f300 1cbe ed23 0f3e 5f8b 183e 6ce2 063e
000002e0: 76cc 273e 4b82 c33d 78c9 41bd 334c 623c
000002f0: 2fcb ed3b b057 063d d012 d83d 1998 1a3e
00000300: f128 14be dc1a 56bd d1aa d63d 7350 82be
00000310: df3d 9e3e 7253 d6bd 0b18 92bd 2c58 743e
00000320: 9c49 1a3e e3df 93bc 5f28 fa3d 1e4e 6dbe
00000330: 2cdf 8e3b 81ea 533e 118d de3d 2156 fe3d
00000340: 4624 abbd f25d 00bd f483 d9bd 9ea5 953d
00000350: 077e 7bbc 6d61 1fbd a7e2 b33d 4f9e 513e
00000360: a84b 5ebe 1810 0b3e 3f85 83bd a4a1 37bd
00000370: 250a 06be 5e4a 073e 2b7d 6fbd 38ea fa3c
00000380: 7305 2abe 261f 3b3e 29af 68be fa59 ab3d
00000390: af82 e6bd 2d72 7abe 2a48 45be 3276 523e
000003a0: cacb bdbd 72cc 3cbe 9112 373e fd7e 073e
000003b0: 216c 05bd 6356 e63d fd2a 3d3e 112c c4bc
000003c0: e10e efbd 00ac 8abe 3c56 b0bd 747a f2bd
000003d0: 05aa 12be 3390 33bd 3c4f a63d 3b89 5e3e
000003e0: 1f31 273e 247a a13d 640e 2f3e 81f0 453e
000003f0: f3f3 abbc 1eb8 e5bd 2a68 753d e203 983e

fc1.bias f4 [120]
0.28821793 -0.02228227 0.312546 0.081554346 0.17534368 0.09206352 -0.091604136 0.048886467
0.14457938 0.13600965 0.063513756 0.14838251 -0.11451303 0.14053673 -0.09218857 0.21504852
0.10078249 0.13016893 -0.21771513 0.15558147 0.2812032 0.061168626 0.1075284 0.04820028
0.29381007 0.32199472 -0.12353631 -0.0022772923 -0.107299894 -0.0730821 0.1393561 0.1972719
-0.053116214 -0.09562731 -0.06932666 0.033849817 -0.1856191 0.052080266 0.14145555 0.15854912
0.17351706 -0.0361676 0.31857157 0.20015909 0.11085482 0.3628074 -0.11296921 0.17338325
0.05949919 0.19111301 -0.15713537 0.20188749 0.09064989 0.1012535 0.043130387 0.2843089
0.04238624 -0.104655236 0.12197121 0.073687755 -0.08623963 0.09308039 0.03250439 0.0056377253
-0.25743338 -0.06843837 0.18406294 0.004994595 -0.07554139 0.040206 0.124426365 -0.15990187
0.24765362 0.030399231 0.15325943 0.16344859 0.102986306 -0.04786133 -0.029377501 0.07543374
0.16569583 -0.24176212 0.11613679 -0.2498442 -0.1684912 0.22294748 -0.10794782 0.1459814
0.23827027 0.018398387 0.23451574 0.35465285 0.18737908 0.1373397 0.06886599 -0.067868195
-0.14792365 0.2142463 -0.18204509 0.031311974 -0.31933895 0.023846872 0.1775069 -0.2926405
-0.044447675 -0.03637764 -0.10032333 0.09705874 0.21432966 0.077080004 0.26644206 -0.027878804
0.07180087 0.26111594 0.070627294 -0.13378468 -0.0076804115 0.20571198 0.075499326 0.005351742
00000000: 4d91 933e 4f89 b6bc 0806 a03e f705 a73d
00000010: 4b8d 333e cc8b bc3d f39a bbbd 2d3d 483d
00000020: 9e0c 143e 1d46 0b3e 8013 823d 96f1 173e
00000030: cf85 eabd dce8 0f3e 5ccd bcbd ae35 5c3e
00000040: 0d67 ce3d 014b 053e b7f0 5ebe c050 1f3e
00000050: def9 8f3e f48b 7a3d da37 dc3d a86d 453d
00000060: 466e 963e 7edc a43e 9b00 fdbd a03e 15bb
00000070: 0cc0 dbbd 11ac 95bd 5eb3 0e3e a501 4a3e
00000080: 6390 59bd 40d8 c3bd 23fb 8dbd 1ba6 0a3d
00000090: ef12 3ebe 1e52 553d b9d9 103e b35a 223e
000000a0: 75ae 313e 7a24 14bd d01b a33e 81f6 4c3e
000000b0: da07 e33d e4c1 b93e 675c e7bd 618b 313e
000000c0: 6cb5 733d 21b3 433e 18e8 20be 98bb 4e3e
000000d0: a6a6 b93d ff5d cf3d 7da9 303d f090 913e
000000e0: 329d 2d3d 7c55 d6bd 0bcc f93d 9be9 963d
000000f0: 679e b0bd eea0 be3d 5323 053d abbc b83b
00000100: 4fce 83be 6b29 8cbd ff7a 3c3e b3a9 a33b
00000110: 72b5 9abd 0caf 243d 40d3 fe3d 51bd 23be
00000120: e998 7d3e cf07 f93c 0af0 1c3e 115f 273e
00000130: 7cea d23d 3e0a 44bd 16a9 f0bc 017d 9a3d
00000140: 2bac 293e 7d90 77be 20d9 ed3d 28d7 7fbe
00000150: f588 2cbe 584c 643e bf13 ddbd 267c 153e
00000160: 1ffd 733e 37b8 963c e524 703e 0f95 b53e
00000170: 4de0 3f3e c7a2 0c3e 9d09 8d3d 7bfe 8abd
00000180: 4c79 17be 6263 5b3e 076a 3abe fc40 003d
00000190: 6580 a3be 845a c33c 5ec4 353e fad4 95be
000001a0: c40e 36bd b800 15bd 5176 cdbd bcc6 c63d
000001b0: 3c79 5b3e 1fdc 9d3d 186b 883e 1762 e4bc
000001c0: 560c 933d fdb0 853e 0ba5 903d dafe 08be
000001d0: f6ab fbbb 29a6 523e 649f 9a3d aa5d af3b
