DomainAda/documents/sae_model_params.pth (torch, 72740 bytes, 38 tensors)

conv1.weight f4 [10, 20, 3]
-0.103604265 -0.15612718 -0.049428977 -0.086710185 0.040361524 0.11028346 -0.21685602 -0.088813
0.034749098 -0.2026167 0.020291736 -0.11237314 0.036156684 -0.18657878 0.24483559 0.15045878
0.05965193 0.17626469 -0.24871261 0.0020723478 -0.21764822 -0.08903113 0.15145783 0.054523338
0.14646494 -0.052332282 0.2364715 -0.11404169 0.18280433 -0.008787729 0.002202087 -0.09135983
0.22094746 -0.1556275 -0.20673345 0.06612793 -0.20311026 0.2610307 -0.15500319 0.10218628
0.249621 0.16032015 -0.07022219 -0.2598506 -0.2274428 -0.14037956 0.14515693 -0.15475789
-0.23560478 0.208802 -0.0002959338 -0.049065877 -0.14999062 0.15460019 0.22836663 -0.15628797
0.22357914 -0.033542555 -0.04159068 0.20889625 0.06937435 0.057825014 -0.14301512 -0.14491387
-0.121034026 -0.21044944 0.002295578 0.08015633 -0.22929169 0.04649072 -0.28200045 -0.09061939
-0.1858019 -0.07888169 0.23017554 0.020484082 -0.16342151 -0.25084645 -0.2162465 -0.287593
0.18058003 0.103417315 0.0033960848 0.06949004 0.0012396534 0.12839691 -0.10285873 -0.22590403
-0.263547 -0.013011975 0.085916355 0.17495275 -0.06580356 0.19483075 -0.1755973 -0.1949371
-0.025051676 -0.13257973 -0.12770978 0.0736691 -0.09824504 0.19930528 0.18846394 -0.0832894
-0.22727168 0.20946091 0.2527456 0.1175944 -0.14629899 0.21787266 0.0580036 -0.23343146
-0.00927755 0.095149346 0.20129244 -0.1668282 -0.14988251 0.0942763 0.050608497 -0.19698764
-0.15488844 -0.24632892 -0.05652242 -0.24560116 -0.0791632 0.02455365 -0.08495289 0.021667335
0.24888197 0.26388654 -0.1713787 0.19128701 -0.1095809 -0.18362615 -0.00038089702 0.2402103
-0.16320816 0.08383244 0.2787176 -0.021939186 0.026628949 0.059158634 0.094896294 0.0022315579
-0.019761752 -0.13628398 0.13731009 0.12164548 0.24066715 0.011542399 0.157531 0.23242928
0.19720271 0.19629331 -0.17112604 -0.19843835 -0.20779721 -0.21493223 0.02330776 0.06427559
0.25714144 -0.022404602 -0.15724936 0.05011423 0.2329029 0.13236454 -0.049689792 -0.188087
-0.20346718 -0.137954 -0.11337148 0.14855996 -0.18234289 0.12463342 0.06521685 -0.093941726
0.047903556 0.15317738 -0.041391138 -0.19130391 -0.13999078 0.17210782 -0.0993307 0.24783885
0.04379178 0.24727885 -0.13100468 0.2504114 -0.17925568 0.029379668 -0.08345099 -0.1557652
-0.18402426 -0.0685968 -0.08245954 -0.26176894 -0.2607487 -0.09695186 0.15355769 0.0015655062
0.031215722 -0.32207012 0.10665513 -0.08540519 -0.29678965 -0.17567842 -0.1846441 0.08755929
0.13116316 -0.215917 -0.29590696 -0.08491944 -0.204042 0.047468744 0.054827843 -0.25067794
-0.054173622 -0.11699989 0.19494464 -0.076555274 -0.14547108 -0.04663994 0.21039422 0.06521485
-0.17474711 0.042925563 -0.18889692 -0.11738635 -0.064120725 -0.19404931 0.17926683 -0.1948359
-0.21032266 -0.08879835 0.0038774174 -0.010193777 -0.010193201 -0.218677 0.12248316 0.09361972
-0.24627227 -0.12675168 -0.035782948 0.17956227 0.20270656 0.06301272 0.07940054 -0.13786474
-0.19927739 0.029934764 -0.17325284 -0.21998419 -0.20133954 -0.17919438 -0.16530406 -0.020068264
00000000: 792e d4bd cedf 1fbe 0a76 4abd 1c95 b1bd
00000010: 2052 253d 4bdc e13d 810f 5ebe 97e3 b5bd
00000020: 1255 0e3d c17a 4fbe db3a a63c e423 e6bd
00000030: 0819 143d 820e 3fbe 2eb6 7a3e de11 1a3e
00000040: 9555 743d bb7e 343e 85ae 7ebe 3ad0 073b
00000050: 2ddf 5ebe f455 b6bd c317 1b3e dd53 5f3d
00000060: e8fa 153e 605a 56bd 9625 723e b18e e9bd
00000070: 0f31 3b3e 68fa 0fbc e450 103b dd1a bbbd
00000080: 0d40 623e d15c 1fbe efb1 53be 156e 873d
00000090: 23fc 4fbe d1a5 853e 28b9 1ebe 0a47 d13d
000000a0: a69c 7f3e f72a 243e a7d0 8fbd 230b 85be
000000b0: c4e6 68be a9bf 0fbe 05a4 143e da78 1ebe
000000c0: 6142 71be 31d0 553e 9027 9bb9 4df9 48bd
000000d0: 2497 19be 834f 1e3e f1d8 693e f409 20be
000000e0: eef1 643e eb63 09bd fd5a 2abd e6e8 553e
000000f0: 2414 8e3d ecd9 6c3d 8e72 12be 4d64 14be
00000100: b0e0 f7bd 0f80 57be 6871 163b 0029 a43d
00000110: 71cb 6abe 0e6d 3e3d 5d62 90be a996 b9bd
00000120: da42 3ebe b98c a1bd 23b3 6b3e 3cce a73c
00000130: f857 27be f26e 80be b96f 5dbe 643f 93be
00000140: f9e9 383e 75cc d33d d990 5e3b cb50 8e3d
00000150: de7b a23a 7b7a 033e 99a7 d2bd 6353 67be
00000160: a2ef 86be 2e30 55bc eaf4 af3d d026 333e
00000170: 04c4 86bd b681 473e c7cf 33be 979d 47be
00000180: 2c39 cdbc fbc2 07be 5ac6 02be d3df 963d
00000190: b234 c9bd af16 4c3e b1fc 403e a293 aabd
000001a0: e8b9 68be ec7c 563e df67 813e 55d5 f03d
000001b0: 67cf 15be 031a 5f3e 2f95 6d3d a808 6fbe
000001c0: dd00 18bc a9dd c23d 9b1f 4e3e 03d5 2abe
000001d0: cd7a 19be ef13 c13d db4a 4f3d 21b7 49be
000001e0: 139b 1ebe a63d 7cbe 0e84 67bd df7e 7bbe
000001f0: 5120 a2bd bc24 c93c c8fb adbd b27f b13c
00000200: eada 7e3e 231c 873e e67d 2fbe bee0 433e
00000210: f36b e0bd 7e08 3cbe 22b3 c7b9 b0f9 753e
00000220: 0a20 27be 58b0 ab3d 13b4 8e3e cfb9 b3bc
00000230: f424 da3c 5350 723d fd58 c23d 543f 123b
00000240: 66e3 a1bc 078e 0bbe 049b 0c3e 4421 f93d
00000250: 7371 763e 551c 3d3c ce4f 213e f101 6e3e
00000260: 82ef 493e 1d01 493e aa3b 2fbe 6c33 4bbe
00000270: cbc8 54be 3217 5cbe eaef be3c eca2 833d
00000280: 0ba8 833e db89 b7bc fa05 21be 9444 4d3d
00000290: 197e 6e3e 928a 073e 8687 4bbd e199 40be
000002a0: b359 50be d043 0dbe 4e2f e8bd 1a20 183e
000002b0: 18b8 3abe ce3f ff3d 6990 853d 8564 c0bd
000002c0: 8536 443d 88da 1c3e c189 29bd 2ce5 43be
000002d0: be59 0fbe 083d 303e e56d cbbd 78c9 7d3e
000002e0: 025f 333d ab36 7d3e 1726 06be ec35 803e
000002f0: cd8e 37be a1ad f03c 5ae8 aabd ea80 1fbe
00000300: db70 3cbe 7b7c 8cbd 8ce0 a8bd 9406 86be
00000310: db80 85be b28e c6bd 3a3e 1d3e ac31 cd3a
00000320: 1db8 ff3c 60e6 a4be 016e da3d ebe8 aebd
00000330: d0f4 97be 0be5 33be 5813 3dbe 4952 b33d
00000340: a34f 063e 5919 5dbe 1e81 97be 3eea adbd
00000350: 63f0 50be 966e 423d 2993 603d dc58 80be
00000360: 29e5 5dbd a39d efbd 919f 473e 03c9 9cbd
00000370: 5ff6 14be 8609 3fbd 9571 573e 5d8f 853d
00000380: e8f0 32be b7d2 2f3d 326e 41be 4168 f0bd
00000390: ba51 83bd ddb4 46be b991 373e 1083 47be
000003a0: d35e 57be e9db b5bd 451c 7e3b cd03 27bc
000003b0: 6201 27bc ddec 5fbe 73d8 fa3d b2bb bf3d
000003c0: cc2e 7cbe 31cb 01be 2491 12bd 2cdf 373e
000003d0: 4f92 4f3e d00c 813d c09c a23d 6a2c 0dbe
000003e0: 5f0f 4cbe c039 f53c 3169 31be 8943 61be
000003f0: f42b 4ebe bb7e 37be 7845 29be 3366 a4bc

conv1.bias f4 [10]
0.030903306 -0.027267568 0.0876775 0.027628724 0.025023373 -0.003590632 -0.025558827 0.036318015
0.14893672 0.08228377
00000000: ee28 fd3c 3c60 dfbc 4390 b33d a255 e23c
00000010: d1fd cc3c cf50 6bbb bf60 d1bc 33c2 143d
00000020: de82 183e 6584 a83d

bn1.weight f4 [10]
0.9925542 0.9520751 0.94306207 0.914113 0.9983686 1.0779876 0.93454885 1.0814745
1.0392375 1.0559607
00000000: 0818 7e3f 32bb 733f 846c 713f 4f03 6a3f
00000010: 1695 7f3f 7ffb 893f 983e 6f3f c26d 8a3f
00000020: bc05 853f b829 873f

bn1.bias f4 [10]
-0.073477805 0.014594718 0.052652925 0.09798812 -0.07722272 0.072138056 -0.0050555114 -0.006755425
0.07877987 -0.03157214
00000000: 887b 96bd af1e 6f3c 98aa 573d ffad c83d
00000010: f226 9ebd 1ebd 933d b4a8 a5bb 9d5c ddbb
00000020: 5757 a13d ca51 01bd

bn1.running_mean f4 [10]
0.0032192648 0.008249099 0.083075926 0.13084137 6e-45 0.28669408 0.1267023 0.37863636
0.75916487 0.7026384
00000000: 4dfa 523b 3b27 073c b623 aa3d 48fb 053e
00000010: 0400 0000 91c9 923e 3fbe 013e a0dc c13e
00000020: a158 423f 1ce0 333f

bn1.running_var f4 [10]
0.0012187918 0.0014864578 0.034975003 0.055932358 6e-45 0.022395067 0.03981727 0.023393888
0.07792113 0.10358854
00000000: debf 9f3a 3fd5 c23a f341 0f3d 5419 653d
00000010: 0400 0000 dc75 b73c 6f17 233d 8aa4 bf3c
00000020: 1d95 9f3d 3a26 d43d

conv2.weight f4 [10, 10, 3]
-0.26699668 -0.17548971 -0.017514657 0.101220846 -0.14012359 0.23337293 0.24377531 0.09976038
0.07659861 -0.30804247 0.14820199 -0.23600325 0.11584802 -0.35327154 0.08846738 -0.1591314
0.009476536 -0.04401381 -0.15241216 -0.19074623 0.05504907 0.02607501 -0.22586167 -0.31806487
0.18284862 -0.18301871 0.20192175 0.17417218 0.11709086 -0.11075379 -0.06220763 0.12757851
-0.0011546727 -0.11072664 -0.021135129 0.012006546 -0.06686159 -0.019972494 0.0565938 0.13270806
0.07936982 0.014447991 -0.00031908666 -0.2724454 0.23301117 0.027537048 -0.25765046 0.0056152237
-0.101440854 0.096199654 -0.15916145 -0.030227413 -0.43697616 0.10413615 -0.4060274 -0.3829944
0.0025089309 0.25197732 -0.048997324 -0.0066814795 0.020998772 0.12718108 0.08252607 -0.14003785
-0.169309 -0.21090622 -0.13707909 0.16661009 -0.15034513 0.1435854 -0.08686759 -0.18775
-0.065129675 -0.014379911 -0.23492955 -0.23717901 -0.21529262 -0.15288356 0.17502923 -0.3458077
0.11091972 -0.052110635 -0.3698311 -0.14118575 -0.10751664 0.10498349 -0.031247275 0.102991894
0.42078194 0.028483639 0.2168063 -0.23188905 0.3717884 0.30659303 0.25736728 0.24070975
0.06298703 0.08612813 -0.0575374 0.08343376 0.4532621 -0.19961487 -0.22003509 0.18040909
0.058308713 -0.014019168 0.057112005 0.062317036 0.30898255 -0.025002418 0.1373406 -0.15254875
-0.11670027 0.008792134 0.082480185 0.2992324 -0.0040816525 -0.1768761 -0.32979286 -0.22370364
-0.024190834 0.020555163 0.089475214 -0.10209733 -0.15962765 -0.13397911 0.19563858 0.27183706
0.24199446 0.22443384 -0.20164976 0.11370892 0.2435058 0.0034154952 0.2302932 -0.002375519
0.16954349 -0.34725723 0.08451426 0.115408905 -0.033064697 -0.19088353 -0.16760635 -0.03400413
-0.18789278 -0.0611315 0.039183162 -0.18224128 0.38152996 0.10831355 -0.047477018 0.17014988
-0.1555075 -0.03915204 -0.13693614 -0.00040393232 -0.12104231 0.08308679 0.19438519 -0.10915382
0.12520753 0.18418853 -0.41124645 -0.3396672 -0.36315328 0.20918594 -0.0450289 -0.22243676
0.016062733 -0.089524925 -0.20854628 0.2153064 0.41237393 0.08315377 0.07091452 0.080478966
-0.049748275 0.07961081 -0.23210755 0.0072668907 0.1619255 -0.18040706 0.21646488 -0.29846567
-0.18595852 -0.34974116 0.14971043 0.1884432 -0.06775123 -0.19589117 0.05430307 -0.09819594
-0.054095827 -0.05161825 -0.112870045 -0.13851117 -0.2771299 -0.09174844 0.11903733 0.018689442
-0.2898838 0.3804062 -0.17378928 0.005425386 0.20672706 -0.09888924 0.11836988 0.101931065
0.0030679982 0.35724896 -0.029248333 -0.017804226 -0.2243532 -0.12708086 0.34054232 -0.20574892
-0.33679786 0.23772755 -0.16470282 0.19261225 0.11377328 0.3089622 -0.046280533 -0.14972591
0.2094592 0.1560673 -0.09679759 0.1836748 0.044791076 -0.056570653 0.25675353 0.14898726
-0.005481767 0.2668097 0.21097857 -0.14938517 -0.20163625 0.13655831 -0.31210667 -0.3625098
0.078320034 -0.31999594 -0.029077828 0.13513538 0.1678801 0.06954587 0.17709449 -0.056518372
-0.04028614 0.09046374 -0.27542406 0.08609897 -0.22712304 -0.31578156 0.07783497 -0.27545053
00000000: cab3 88be 93b3 33be e67a 8fbc e04c cf3d
00000010: 8f7c 0fbe 50f9 6e3e 3ca0 793e 2c4f cc3d
00000020: bbdf 9c3d beb7 9dbe 43c2 173e d6aa 71be
00000030: ba41 ed3d 02e0 b4be 632e b53d 57f3 22be
00000040: 7943 1b3c d347 34bd ef11 1cbe fb52 43be
00000050: 227b 613d 429b d53c 4848 67be 66d9 a2be
00000060: ab3c 3b3e 4269 3bbe 93c4 4e3e 315a 323e
00000070: 55cd ef3d e2d2 e2bd 6ecd 7ebd f1a3 023e
00000080: 6358 97ba a6c4 e2bd 9423 adbc 1bb7 443c
00000090: bbee 88bd 5b9d a3bc e7ce 673d 9fe4 073e
000000a0: a58c a23d 44b7 6c3c 164b a7b9 f77d 8bbe
000000b0: 7b9a 6e3e 6095 e13c c3ea 83be e9ff b73b
000000c0: 39c0 cfbd 5304 c53d 38fb 22be 7b9f f7bc
000000d0: 57bb dfbe 5545 d53d d3e2 cfbe d817 c4be
000000e0: e06c 243b 2c03 813e 6bb1 48bd 50f0 dabb
000000f0: 9e05 ac3c c23b 023e 6e03 a93d 1566 0fbe
00000100: 575f 2dbe cdf7 57be 765e 0cbe d69b 2a3e
00000110: 13f4 19be 0d08 133e a3e7 b1bd 8941 40be
00000120: b562 85bd b899 6bbc 5f91 70be 0edf 72be
00000130: ab75 5cbe 828d 1cbe dd3a 333e b50d b1be
00000140: e129 e33d f671 55bd 805a bdbe ff92 10be
00000150: af31 dcbd 9601 d73d 49fa ffbc 6aed d23d
00000160: bb70 d73e 8556 e93c 7902 5e3e 5374 6dbe
00000170: 0d5b be3e c3f9 9c3e a5c5 833e 9e7c 763e
00000180: 58ff 803d f263 b03d 56ac 6bbd 52df aa3d
00000190: f811 e83e d767 4cbe e150 61be 29bd 383e
000001a0: 1ed5 6e3d a7b0 65bc 47ee 693d 2640 7f3d
000001b0: f632 9e3e dfd1 ccbc 04a3 0c3e bd35 1cbe
000001c0: 8d00 efbd e20c 103c 5feb a83d fd34 993e
000001d0: 62bf 85bb 021f 35be 9cda a8be 9112 65be
000001e0: db2b c6bc 4d63 a83c c83e b73d 6818 d1bd
000001f0: 6e75 23be d231 09be 7b55 483e 3a2e 8b3e
00000200: 65cd 773e fcd1 653e 467d 4ebe 39e0 e83d
00000210: 9659 793e 80d6 5f3b fbd1 6b3e 98ae 1bbb
00000220: cf9c 2d3e b3cb b1be d015 ad3d 815b ec3d
00000230: d96e 07bd f976 43be 00a1 2bbe ea47 0bbd
00000240: f766 40be 0665 7abd 867e 203d 759d 3abe
00000250: e557 c33e 7fd3 dd3d 4377 42bd c53b 2e3e
00000260: 5c3d 1fbe e45d 20bd fd38 0cbe e1c6 d3b9
00000270: 08e5 f7bd 6829 aa3d e90c 473e 0a8c dfbd
00000280: 6736 003e eb9b 3c3e e58e d2be dce8 adbe
00000290: 3aef b9be d734 563e 3970 38bd 76c6 63be
000002a0: fe95 833c d858 b7bd 288d 55be 4879 5c3e
000002b0: ad22 d33e 864c aa3d a23b 913d 28d2 a43d
000002c0: d9c4 4bbd fe0a a33d 9aad 6dbe 191f ee3b
000002d0: cccf 253e a1bc 38be f8a8 5d3e 7ed0 98be
000002e0: e96b 3ebe 4611 b3be b14d 193e 41f7 403e
000002f0: 28c1 8abd b297 48be e56c 5e3d f41a c9bd
00000300: 9693 5dbd a86d 53bd 6928 e7bd dfd5 0dbe
00000310: f8e3 8dbe 9be6 bbbd d8c9 f33d 9a1a 993c
00000320: a66b 94be 9ac4 c23e d1f5 31be 70c7 b13b
00000330: 42b0 533e 7186 cabd e86b f23d 3cc1 d03d
00000340: 7810 493b 56e9 b63e 339a efbc 2bda 91bc
00000350: d8bc 65be 7c21 02be 905b ae3e d8af 52be
00000360: c570 acbe da6e 733e dba7 28be 253c 453e
00000370: f701 e93d 4b30 9e3e a890 3dbd c051 19be
00000380: 797c 563e 1bd0 1f3e d13d c6bd 3f15 3c3e
00000390: d976 373d a1b6 67bd 3375 833e 1e90 183e
000003a0: 65a0 b3bb 489b 883e c40a 583e 6df8 18be
000003b0: bc79 4ebe f1d5 0b3e 72cc 9fbe e29a b9be
000003c0: 4166 a03d 82d6 a3be a034 eebc ee60 0a3e
000003d0: c3e8 2b3e 116e 8e3d 4258 353e cf7f 67bd
000003e0: 1403 25bd 0e45 b93d 6204 8dbe a854 b03d
000003f0: f192 68be 1fae a1be f167 9f3d da07 8dbe

conv2.bias f4 [10]
0.25251177 -0.015077523 0.26115206 -0.09077728 -0.14909329 0.16463862 0.29818913 0.011210683
-0.0066823084 -0.2269288
00000000: 3949 813e b707 77bc b9b5 853e 70e9 b9bd
00000010: e9ab 18be 0797 283e 3fac 983e 03ad 373c
00000020: 44f7 dabb 0660 68be

bn2.weight f4 [10]
0.9536707 0.941547 1.0073402 1.0385385 0.9683039 0.9779782 1.0632159 1.0459999
0.99168843 1.021615
00000000: c323 743f 3909 713f 86f0 803f d4ee 843f
00000010: c4e2 773f c85c 7a3f 7517 883f 53e3 853f
00000020: 4bdf 7d3f 48c4 823f

bn2.bias f4 [10]
-0.03634501 -0.07275139 -0.047496084 0.26126948 0.10888909 -0.018024122 -0.10905833 0.29001737
-0.11924809 0.10529153
00000000: 81de 14bd aefe 94bd 418b 42bd 1dc5 853e
00000010: 3e01 df3d 53a7 93bc f959 dfbd 287d 943e
00000020: 5838 f4bd 16a3 d73d

bn2.running_mean f4 [10]
0.69162923 0.46728155 0.8186538 0.6497278 0.46281728 0.55048734 0.70062053 0.78538495
0.48987603 0.4263457
00000000: 9d0e 313f 873f ef3e 4c93 513f 9054 263f
00000010: 63f6 ec3e bdec 0c3f de5b 333f fd0e 493f
00000020: 08d1 fa3e fc49 da3e

bn2.running_var f4 [10]
1.2100648 0.4020321 1.3338112 1.7827834 1.0320734 0.43026638 1.0994692 1.4342213
0.39211258 0.6266139
00000000: 67e3 9a3f 27d7 cd3e 53ba aa3f 3f32 e43f
00000010: fb1a 843f e04b dc3e 68bb 8c3f 9094 b73f
00000020: fbc2 c83e c569 203f

conv3.weight f4 [20, 10, 3]
0.13072336 -0.18263975 -0.17076306 -0.083420716 -0.24765368 -0.13514651 -0.06277692 0.1138751
-0.16575393 -0.11653296 -0.06608105 0.03328661 0.17757663 -0.10328846 0.019256126 -0.1986902
-0.13927726 0.11096549 0.04920246 -0.09746198 0.21609792 -0.21271715 0.1214248 -0.008057696
-0.22941539 -0.21054249 -0.1303846 0.026300259 0.27946594 0.0015794425 0.16211201 0.24148743
0.06927904 -0.057366297 -0.026304802 0.0024307538 0.20898467 0.16062386 -0.07085062 0.16614702
0.03978479 -0.1927423 0.14013799 0.1807991 0.11293797 -0.11135821 -0.15934817 0.07599151
-0.003930444 0.13175376 -0.07836747 -0.17768967 -0.079238206 0.06940884 0.00040771812 0.15750808
-0.26421854 0.045339722 -0.19921812 0.067180075 0.15580085 -0.12909378 -0.23064695 0.2509116
0.11317734 0.09559721 0.07803495 -0.05538008 -0.23114896 -0.12378566 0.1317951 0.16087833
-0.17214733 -0.16253506 -0.13825867 -0.2092124 -0.16659671 -0.018310461 -0.11680645 -0.17047967
-0.031729553 0.021111466 0.1395847 -0.08959438 -0.011279034 0.14911872 0.07131571 -0.15474418
-0.16557483 -0.0608712 -0.035657365 0.1971268 -0.007974298 0.23367713 0.007975225 -0.03624977
-0.045874838 0.1860412 -0.04546674 0.04991402 -0.039846513 -0.13003029 0.14926784 -0.17141339
0.1980339 -0.18994702 0.08496399 -0.13982034 0.14574164 0.28345966 0.20213754 -0.19915836
-0.32313338 -0.0165129 0.049481414 -0.06936982 0.10592441 -0.06404753 0.1739289 -0.22738081
0.20846353 -0.021394258 -0.18652508 0.014265094 0.0952048 -0.13004386 0.11865768 0.1730015
0.0017265617 0.09773098 0.24709615 -0.01388927 0.1079148 0.14468595 0.17992018 0.17614873
0.25462565 0.2465775 0.009878542 -0.051096614 0.11016315 -0.1654882 -0.01036014 0.09603539
-0.038649645 0.28264973 0.23649418 -0.10933296 -0.07706975 0.06711732 -0.13292213 -0.086228915
0.19921935 0.1478041 0.17752284 0.25573328 -0.0711494 0.21899621 0.31231657 -0.20808247
0.16670795 0.05252896 -0.20166008 0.23760577 0.16119745 -0.08250994 0.10782895 -0.13793221
0.1399255 0.20739663 0.12515926 0.16966943 -0.041837048 0.12729925 0.06326916 0.016481379
0.16837464 -0.085382216 -0.2103805 0.048501454 -0.25762147 0.0548796 0.033133768 -0.061449707
0.0048307623 0.20508614 -0.23053686 -0.11513276 -0.034595765 -0.09641047 -0.2031061 -0.16728356
-0.17910594 -0.17521046 0.0010935132 -0.09424351 -0.05209669 -0.018051771 -0.104212075 0.06888942
0.007795498 0.010124913 -0.19236256 -0.20342143 0.24879888 0.010927235 -0.0968128 -0.13156554
-0.2055385 -0.20156495 -0.081840254 0.20777427 0.06676021 -0.087835 0.18899682 0.050514072
0.023715273 0.22163421 -0.12056394 0.17759652 -0.17122485 -0.21637133 0.19951649 0.11977185
0.02688828 0.012837623 0.07272258 -0.1894466 -0.13257883 0.17847544 -0.07015285 0.10366233
-0.18868144 -0.07146793 -0.1682489 0.1492055 0.08744191 0.13040061 0.07062533 0.16371584
-0.1745644 0.20971246 0.27085778 0.14773594 0.1978725 0.058919307 0.17295018 -0.09299567
0.1231675 -0.053925432 -0.14046866 0.15845904 -0.14289895 0.17976157 0.27614936 0.22900094
00000000: 58dc 053e ea05 3bbe 83dc 2ebe 7bd8 aabd
00000010: ed98 7dbe d963 0abe 3091 80bd 5937 e93d
00000020: 66bb 29be d5a8 eebd 8055 87bd 8a57 083d
00000030: a6d6 353e e688 d3bd 06bf 9d3c 7275 4bbe
00000040: b39e 0ebe e041 e33d 8588 493d 269a c7bd
00000050: c648 5d3e 86d2 59be 91ad f83d 6d04 04bc
00000060: deeb 6abe 7398 57be 8a83 05be a473 d73c
00000070: 2916 8f3e 4c05 cf3a b100 263e 7b48 773e
00000080: 2be2 8d3d ecf8 6abd 2b7d d7bc 484d 1f3b
00000090: 1400 563e 957a 243e 211a 91bd 7222 2a3e
000000a0: 60f5 223d 3d5e 45be 5580 0f3e 6623 393e
000000b0: 064c e73d c60f e4bd 2b2c 23be 70a1 9b3d
000000c0: f4ca 80bb 75ea 063e 207f a0bd 48f4 35be
000000d0: a447 a2bd 3926 8e3d 00c3 d539 cc49 213e
000000e0: a747 87be 25b6 393d d6ff 4bbe b595 893d
000000f0: 428a 1f3e 2931 04be b72e 6cbe 7c77 803e
00000100: 85c9 e73d 78c8 c33d cad0 9f3d 39d6 62bd
00000110: 50b2 6cbe 5683 fdbd 4bf5 063e 4abd 243e
00000120: 6447 30be 976f 26be ae93 0dbe c63b 56be
00000130: 5498 2abe d2ff 95bc 3838 efbd 3992 2ebe
00000140: d9f6 01bd f4f1 ac3c 4bef 0e3e 427d b7bd
00000150: b3cb 38bc 94b2 183e f90d 923d 4275 1ebe
00000160: 738c 29be 1454 79bd 750d 12bd 9cdb 493e
00000170: a1a6 02bc 0f49 6f3e 85aa 023c a47a 14bd
00000180: 41e7 3bbd 9681 3e3e 553b 3abd a572 4c3d
00000190: 1936 23bd a926 05be abd9 183e fe86 2fbe
000001a0: 66c9 4a3e 7981 42be 9a01 ae3d 102d 0fbe
000001b0: 4c3d 153e a021 913e 25fd 4e3e 2bf0 4bbe
000001c0: bd71 a5be 1046 87bc 06ad 4a3d c411 8ebd
000001d0: e6ee d83d 5a2b 83bd 6b1a 323e 84d6 68be
000001e0: 7777 553e 0343 afbc 6e00 3fbe 24b8 693c
000001f0: bcfa c23d 382a 05be cc02 f33d 4e27 313e
00000200: cc4d e23a 2e27 c83d c606 7d3e d28f 63bc
00000210: 6f02 dd3d 8e28 143e ff3c 383e 5560 343e
00000220: 4b5e 823e d07e 7c3e 9cd9 213c af4a 51bd
00000230: 389d e13d bd75 29be 94bd 29bc 34ae c43d
00000240: 174f 1ebd 77b7 903e 882b 723e f5e9 dfbd
00000250: bfd6 9dbd ce74 893d bd1c 08be c998 b0bd
00000260: 2800 4c3e f559 173e 8cc8 353e 79ef 823e
00000270: c7b6 91bd 8b40 603e f5e7 9f3e 9213 55be
00000280: 7db5 2a3e 9b28 573d fb7f 4ebe ed4e 733e
00000290: f210 253e f9fa a8bd 6dd5 dc3d 1a3e 0dbe
000002a0: a148 0f3e c85f 543e c029 003e d3bd 2d3e
000002b0: 535d 2bbd bc5a 023e 4393 813d f503 873c
000002c0: 676a 2c3e dfdc aebd fc6d 57be 76a9 463d
000002d0: f6e6 83be 6ec9 603d 46b7 073d b0b2 7bbd
000002e0: 5f4b 9e3b 1a02 523e db11 6cbe b9ca ebbd
000002f0: 4ab4 0dbd da72 c5bd 0cfb 4fbe 624c 2bbe
00000300: 8c67 37be 5f6a 33be 3754 8f3a be02 c1bd
00000310: 5763 55bd 4fe1 93bc 246d d5bd e515 8d3d
00000320: 6071 ff3b f7e2 253c b1fa 44be b54d 50be
00000330: 22c5 7e3e 2508 333c ca45 c6bd 1eb9 06be
00000340: af78 52be 0b67 4ebe dd9b a7bd c7c2 543e
00000350: 94b9 883d d6e2 b3bd 6288 413e d8e7 4e3d
00000360: 8846 c23c 14f4 623e 3aea f6bd dddb 353e
00000370: 9155 2fbe 7290 5dbe 0d4e 4c3e f24a f53d
00000380: cf44 dc3c e554 523c 93ef 943d 4afe 41be
00000390: bfc2 07be 44c2 363e 4cac 8fbd ea4c d43d
000003a0: b535 41be c75d 92bd 7149 2cbe 54c9 183e
000003b0: be14 b33d bd87 053e 03a4 903d 20a5 273e
000003c0: 03c1 32be ddbe 563e dfad 8a3e 1748 173e
000003d0: 179f 4a3e 5f55 713d da19 313e 8474 bebd
000003e0: 3e3f fc3d eae0 5cbd 04d7 0fbe 1643 223e
000003f0: 1a54 12be 6b13 383e 7363 8d3e 397f 6a3e

conv3.bias f4 [20]
-0.1286728 -0.10184236 -0.0066973497 0.14105949 0.017318703 0.049847145 0.107854135 0.03207473
-0.033207774 0.1386735 0.13227433 -0.08604253 -0.07031217 0.09017692 0.027202414 0.14348951
-0.035413504 0.15727414 0.036275238 0.0222659
00000000: cdc2 03be ba92 d0bd 7175 dbbb e671 103e
00000010: f4df 8d3c 852c 4c3d a1e2 dc3d cb60 033d
00000020: e004 08bd 6d00 0e3e ec72 073e 1137 b0bd
00000030: d4ff 8fbd adae b83d 99d7 de3c eaee 123e
00000040: c00d 11bd 790c 213e 5895 143d fa66 b63c

bn3.weight f4 [20]
1.0048441 1.0085347 0.98152924 0.9964326 0.88702816 0.9771034 0.95326686 1.0499984
0.9990668 0.92960817 1.0190545 1.0387655 0.9040488 0.9929013 0.96264845 1.0285399
0.98866534 0.9285915 0.9527336 0.94683874
00000000: bb9e 803f aa17 813f 8045 7b3f 3516 7f3f
00000010: 4714 633f 7323 7a3f 4c09 743f 5966 863f
00000020: d8c2 7f3f cdfa 6d3f 6170 823f 45f6 843f
00000030: be6f 673f c82e 7e3f 2170 763f 32a7 833f
00000040: 2c19 7d3f 2cb8 6d3f 59e6 733f 0664 723f

bn3.bias f4 [20]
0.07285727 0.11330195 -0.12242012 0.16418725 -0.15348269 -0.010834092 -0.018810708 0.09798787
0.07917119 -0.00022528156 0.09242913 -0.17644924 0.13643663 -0.040279932 0.0005526424 -0.09515162
0.051670123 0.008392555 0.008701792 0.14975579
00000000: 3136 953d da0a e83d 66b7 fabd b420 283e
00000010: 912a 1dbe 7a81 31bc ea18 9abc ddad c83d
00000020: 8124 a23d 8f39 6cb9 7c4b bd3d 1caf 34be
00000030: 0bb6 0b3e 92fc 24bd 34df 103a dade c2bd
00000040: 0da4 533d ed80 093c f691 0e3c 9559 193e

bn3.running_mean f4 [20]
-0.29050112 -0.11836338 -0.1914823 -0.07940787 0.34255314 0.27738333 -0.46085438 0.05842297
0.17023988 -0.31874168 -0.13651654 0.1521534 0.13517515 0.23093432 0.107592866 0.1026488
-0.68143135 0.07541432 0.15095662 -0.3131093
00000000: 90bc 94be 8068 f2bd f013 44be 98a0 a2bd
00000010: 2063 af3e 3005 8e3e 1bf5 ebbe ed4c 6f3d
00000020: 5d53 2e3e 1c32 a3be feca 0bbe 1ace 1b3e
00000030: 5b6b 0a3e 0c7a 6c3e a659 dc3d 8939 d23d
00000040: 4972 2ebf d372 9a3d 5f94 1a3e dd4f a0be

bn3.running_var f4 [20]
1.6613065 2.1473942 2.6353514 3.4381115 1.1105076 3.0481517 1.8902558 1.7028818
3.150872 1.4754835 2.2458596 2.2466533 1.0281669 3.9798224 2.2429013 2.9792435
2.515073 2.2664454 1.7261966 1.6347144
00000000: b1a5 d43f e86e 0940 99a9 2840 050a 5c40
00000010: 1d25 8e3f eb14 4340 e7f3 f13f 08f8 d93f
00000020: e3a7 4940 a5dc bc3f 2abc 0f40 2bc9 0f40
00000030: f99a 833f 69b5 7e40 b28b 0f40 edab 3e40
00000040: f5f6 2040 710d 1140 03f4 dc3f 523e d13f

fc_mu.weight f4 [20, 240]
-0.08163399 0.07064908 -0.0057880566 0.0672169 0.071689524 -0.086875506 0.084182 0.08302355
-0.035817664 -0.074582614 -0.047514465 0.14575008 -0.009565322 -0.06684611 -0.09685759 0.12226997
-0.034948595 0.1198126 -0.08857925 -0.12756339 0.046009775 -0.0008193279 -0.06488258 -0.03634511
-0.02857797 0.104682036 -0.08707017 -0.08757443 0.10702363 0.03190674 -0.04028051 -0.104814745
0.11468445 0.017596932 -0.10185126 0.097595885 -0.024280284 0.10357195 -0.13571656 -0.04842979
0.02760762 -0.1460981 -0.10561288 -0.008116285 -0.042511307 0.06135162 0.061557945 -0.1938531
-0.030159455 0.07772329 0.066426136 -0.109441735 0.09664911 0.032320052 0.11492639 -0.056776077
-0.042721905 0.03215708 -0.052405607 0.009903494 0.065430894 0.08924872 0.054105945 -0.10593505
0.13081212 0.10104747 0.111112 0.025968153 -0.02654304 0.0457293 0.079640985 0.027662447
-0.095438585 0.07823784 -0.007857635 -0.001159413 0.13748015 0.10845222 -0.12018886 0.13023019
-0.055775337 -0.08022859 0.1408778 -0.12777299 -0.16493526 -0.1311636 -0.18933707 -0.048395064
0.03871507 0.0025915299 0.08931734 0.0691148 0.0772444 0.011818538 0.022261407 -0.012392193
-0.06818355 -0.114351876 -0.083628036 0.011593225 -0.075802445 -0.0734345 -0.0557003 0.081644095
-0.16037893 -0.11252626 -0.09740297 0.121322766 -0.000688384 -0.12129298 0.06384643 -0.053352226
0.0018751337 -0.0899744 0.035749417 0.108183116 -0.014334951 -0.12410882 0.1315068 0.041183088
0.053850226 -0.25483945 -0.18209654 -0.03723686 -0.10530097 -0.051104657 0.11222177 0.07526671
-0.023669755 -0.15055427 -0.100021064 0.11568449 0.09689937 0.04414161 0.09694376 -0.08557879
0.080727555 0.099912144 0.11963499 0.040007465 0.06243411 0.10260562 0.13416907 0.0680288
-0.06872399 0.013199523 -0.11424681 0.0029138469 -0.12340923 -0.03408503 -0.0027646332 -0.12255663
-0.044215977 0.08227161 0.12040659 -0.053230915 -0.00097522733 0.072218396 0.16182296 -0.10568563
0.01793498 0.030224523 -0.013658614 -0.049980573 -0.09155579 0.004136166 0.004059666 0.025220381
0.17430992 -0.045603286 0.08534393 0.03398899 -0.033330828 -0.08340103 -0.032278266 -0.07592557
0.04671714 0.015032236 -0.067842335 -0.12750104 -0.09221322 0.063643806 0.18716565 -0.02666511
-0.016964734 0.0054444238 0.10022445 -0.14122628 0.13278788 -0.011639454 0.024594544 0.16838315
-0.07666443 -0.07411019 -0.18838978 -0.09204766 -0.04488599 -0.10349197 0.057169113 -0.0020237789
0.18991633 0.059598494 -0.02945024 -0.04834576 -0.0018614341 -0.14610901 -0.17700806 -0.04830904
0.13682462 0.061554965 0.118510485 0.0015156943 0.045262545 0.08429886 -0.13391295 0.07101545
-0.12667605 0.024916353 -0.084835105 0.058900025 -0.048513845 0.091210514 -0.106353685 -0.12745628
-0.01985849 -0.056565218 0.0025747134 -0.06152985 -0.12874365 0.08355295 -0.023830019 -0.058180977
-0.11293082 -0.119577944 -0.057239648 0.11254925 -0.07274452 0.023930052 -0.019305218 -0.09373229
0.04369245 -0.032081313 -0.022989081 0.0927822 0.003850346 -0.03365401 0.027391132 0.11978762
0.13385707 0.14395793 0.13247833 -0.11207947 0.02308342 0.13795279 0.09158849 -0.10436076
00000000: b92f a7bd 77b0 903d bda9 bdbb 04a9 893d
00000010: f5d1 923d c9eb b1bd 9d67 ac3d 4008 aa3d
00000020: 8bb5 12bd c5be 98bd 879e 42bd 823f 153e
00000030: deb7 1cbc 9de6 88bd 465d c6bd ae68 fa3d
00000040: 4226 0fbd 4f60 f53d 0a69 b5bd fa9f 02be
00000050: bf74 3c3d 2ac8 56ba 28e1 84bd 9cde 14bd
00000060: 591c eabc 8963 d63d d851 b2bd 395a b3bd
00000070: 342f db3d a4b0 023d 2dfd 24bd 1da9 d6bd
00000080: aedf ea3d 7127 903c 6597 d0bd 5ae0 c73d
00000090: 72e7 c6bc 881d d43d 48f9 0abe 515e 46bd
000000a0: 6029 e23c be9a 15be 914b d8bd 2bfa 04bc
000000b0: 5620 2ebd d64b 7b3d 2f24 7c3d 6d81 46be
000000c0: f610 f7bc 632d 9f3d 6d0a 883d fd22 e0bd
000000d0: f8ef c53d 0862 043d 875e eb3d 088e 68bd
000000e0: 2afd 2ebd 24b7 033d 43a7 56bd 4442 223c
000000f0: a200 863d 08c8 b63d 329e 5d3d 7af4 d8bd
00000100: 9df3 053e faf1 ce3d b08e e33d 2abb d43c
00000110: ca70 d9bc a54e 3b3d d01a a33d 5b9c e23c
00000120: 4e75 c3bd 293b a03d 4fbd 00bc 72f7 97ba
00000130: 99c7 0c3e 331c de3d 9425 f6bd 105b 053e
00000140: ae74 64bd e34e a4bd 4542 103e ecd6 02be
00000150: cae4 28be c04f 06be 94e1 41be e739 46bd
00000160: b193 1e3d a8d6 293b 02ec b63d 0f8c 8d3d
00000170: 5032 9e3d 8ba2 413c 8e5d b63c a008 4bbc
00000180: d1a3 8bbd 5131 eabd 2d45 abbd 83f1 3d3c
00000190: 503e 9bbd d464 96bd ff25 64bd 0535 a73d
000001a0: 603a 24be 2b74 e6bd 357b c7bd 1278 f83d
000001b0: ab74 34ba 7468 f8bd ebc1 823d dd87 5abd
000001c0: 0cc7 f53a 8044 b8bd fb6d 123d 1c8f dd3d
000001d0: 24dd 6abc c42c febd b8a9 063e 99af 283d
000001e0: 0e92 5c3d 517a 82be 8477 3abe ad85 18bd
000001f0: 09a8 d7bd 1e53 51bd 87d4 e53d 6f25 9a3d
00000200: 13e7 c1bc e62a 1abe d8d7 ccbd fdeb ec3d
00000210: 2d73 c63d d5cd 343d 738a c63d ef43 afbd
00000220: 7d54 a53d bd9e cc3d 3103 f53d dede 233d
00000230: e9ba 7f3d e522 d23d 9e63 093e af52 8b3d
00000240: 2abf 8cbd d042 583c 3bfa e9bd 3df6 3e3b
00000250: fabd fcbd bf9c 0bbd d92e 35bb f8fe fabd
00000260: d01b 35bd 057e a83d bb97 f63d a908 5abd
00000270: 66a6 7fba 3de7 933d ebb4 253e b571 d8bd
00000280: 61ec 923c 6b99 f73c 61c8 5fbc 6eb8 4cbd
00000290: 9a81 bbbd ad88 873b f206 853b f99a ce3c
000002a0: 4d7e 323e 83ca 3abd ccc8 ae3d 0a38 0b3d
000002b0: e885 08bd 29ce aabd 3736 04bd de7e 9bbd
000002c0: 795a 3f3d c549 763c ecf0 8abd a28f 02be
000002d0: 49da bcbd af57 823d 5aa8 3f3e ca70 dabc
000002e0: a0f9 8abc 2367 b23b 7a42 cd3d 9f9d 10be
000002f0: 8cf9 073e 69b3 3ebc 7f7a c93c a26c 2c3e
00000300: 3e02 9dbd 15c7 97bd 40e9 40be 7c83 bcbd
00000310: 5fda 37bd 99f3 d3bd 292a 6a3d 60a1 04bb
00000320: 6d79 423e 8d1d 743d a141 f1bc 3406 46bd
00000330: 5dfb f3ba 9a9d 15be 9a41 35be b3df 45bd
00000340: c11b 0c3e 0f21 7c3d a0b5 f23d 43aa c63a
00000350: 3865 393d e1a4 ac3d 7a20 09be 8c70 913d
00000360: 5eb7 01be 611d cc3c 07be adbd 2741 713d
00000370: 74b6 46bd 94cc ba3d f6cf d9bd e683 02be
00000380: 46ae a2bc eeb0 67bd 86bc 283b b906 7cbd
00000390: 60d5 03be cf1d ab3d 2c37 c3bc 2d4f 6ebd
000003a0: 4648 e7bd 48e5 f4bd 1f74 6abd 3980 e63d
000003b0: 14fb 94bd f508 c43c fa25 9ebc b7f6 bfbd
000003c0: dbf6 323d b267 03bd 9953 bcbc 9804 be3d
000003d0: 1656 7c3b cad8 09bd 5e63 e03c 3653 f53d
000003e0: d411 093e b569 133e 66a8 073e ec89 e5bd
000003f0: 7119 bd3c 7f43 0d3e bf92 bb3d 18bb d5bd

fc_mu.bias f4 [20]
-0.12871717 0.05335689 -0.15362199 0.083859526 0.15133502 -0.07645926 -0.02803014 0.0012526953
0.054071706 0.07643487 0.0007835555 0.02553814 -0.017369354 -0.1142338 -0.03155917 0.11425489
-0.01611205 0.09550092 -0.037832744 0.03052496
00000000: 6fce 03be c18c 5a3d 154f 1dbe 8bbe ab3d
00000010: 91f7 1a3e ac96 9cbd 779f e5bc 7b31 a43a
00000020: 4b7a 5d3d e389 9c3d 8567 4d3a 5d35 d13c
00000030: 2d4a 8ebc 69f3 e9bd 3044 01bd 78fe e93d
00000040: 6bfd 83bc fd95 c33d 82f6 1abd 7b0f fa3c

fc_logvar.weight f4 [20, 240]
0.14492825 -0.10520224 -0.1282679 -0.13899599 -0.100373 -0.09361772 -0.14701144 0.023236796
-0.04146689 -0.030482225 0.028447017 -0.1454359 -0.123161964 0.03970495 -0.14834484 0.13041312
-0.13413784 -0.010266975 0.14266384 -0.0033273995 -0.011146352 -0.045093626 0.059594393 -0.10511196
0.08588484 0.03371322 -0.13630246 -0.030491583 -0.08584747 -0.04741165 0.13251227 -0.10081254
0.08365436 -0.14965269 -0.10153698 -0.123799406 0.031415105 -0.1393868 -0.006940171 0.13738564
0.046768293 0.063952744 -0.081913665 -0.070959 0.0022043735 0.050026983 -0.102454014 0.13866416
0.054210335 -0.04836662 0.04893531 -0.0054776073 0.06466049 0.07316953 0.08933492 -0.048184626
-0.11672205 0.027551323 0.08273339 -0.07332785 0.13714558 -0.059826992 -0.08868282 -0.09996404
0.07544215 -0.13089064 -0.055265196 -0.043793783 -0.077444896 0.03500521 -0.002426535 -0.14049684
0.12504604 0.017108306 -0.09110783 -0.07407584 0.1310072 -0.0032934248 -0.074676365 -0.022614256
-0.002882734 -0.020829529 -0.05164227 -0.14668052 -0.12269433 0.043246955 0.029069155 0.0678262
-0.049149886 -0.01637119 -0.08726496 -0.09657793 0.08853142 0.04602079 0.036983922 0.11290464
-0.07786177 -0.1356575 0.03316492 -0.03136546 -0.04955151 0.000377357 0.0997279 0.04812722
0.036840945 -0.02657643 -0.028745204 -0.13410471 -0.118952155 -0.14986025 -0.0636314 -0.06196011
-0.108954936 0.043273717 0.022298768 -0.11660584 -0.058950685 0.0897433 0.013847351 0.12772048
0.048507944 0.11597118 0.036446333 -0.09514169 0.1095393 0.029928818 0.07298732 0.14578435
-0.03599401 0.008689716 0.0921226 0.0468352 -0.0010884702 -0.042146116 0.12854779 -0.08227193
-0.03609149 0.10079202 0.011973023 -0.0771267 -0.09464741 0.12825963 -0.041616894 -0.0020987242
-0.078058094 0.12383786 0.12999788 -0.0141402185 -0.1432005 0.0029165149 0.1275405 -0.12348362
-0.04387252 0.059092015 -0.118542776 0.024496198 -0.043551482 0.05486615 -0.019557104 -0.14937852
-0.064437225 -0.12766933 0.13774672 0.06529245 -0.092725724 -0.13315402 0.10340074 0.05751486
0.07641989 -0.0012778342 0.09061141 -0.14258313 0.024331182 0.08316451 -0.13077468 0.07606928
-0.08089183 -0.09156065 -0.07454607 -0.0034139603 -0.07508757 -0.15083554 -0.023143604 0.118919015
0.023825318 0.009173989 0.10429397 0.10843003 -0.019914925 0.039714947 -0.15085903 0.008598909
0.029410899 0.032130107 0.09961292 0.14825988 0.008951515 0.080530465 0.0963196 0.09700456
0.045292154 0.14009255 0.034291938 0.035185665 0.14231959 -0.0909887 -0.096901916 -0.106443346
-0.077732995 -0.10208288 0.055198535 0.049528033 0.01410152 -0.04882808 0.13331577 0.09797335
-0.018747881 -0.027390167 0.039075643 -0.06375735 0.037985116 -0.08211228 0.007788345 -0.06333774
0.077258974 0.013231933 -0.12161701 0.02740693 0.015913561 -0.13452671 -0.05013763 0.020269513
0.10875854 -0.12079536 0.14525178 0.13135797 -0.012190819 -0.1514869 0.14375511 0.054418594
-0.037045084 -0.042532258 -0.007042676 -0.04645755 -0.105564535 -0.02151993 0.13898838 -0.13681582
-0.08813602 0.15041941 0.13867456 -0.05301605 -0.13236931 -0.013982102 0.053197607 0.095873624
00000000: 1268 143e 4674 d7bd a958 03be f754 0ebe
00000010: 5c90 cdbd a6ba bfbd 2b8a 16be 185b be3c
00000020: 30d9 29bd dcb5 f9bc b809 e93c 26ed 14be
00000030: 573c fcbd a8a1 223d b6e7 17be 048b 053e
00000040: 6e5b 09be d036 28bc 7816 123e 8010 5abb
00000050: 309f 36bc 18b4 38bd 4019 743d f044 d7bd
00000060: 64e4 af3d e016 0a3d df92 0bbe 7cc9 f9bc
00000070: ccd0 afbd b832 42bd 4cb1 073e ce76 cebd
00000080: fa52 ab3d 8e3e 19be 9ff2 cfbd 8b8a fdbd
00000090: 20ad 003d 6abb 0ebe 606a e3bb d2ae 0c3e
000000a0: 1c90 3f3d a8f9 823d 5ac2 a7bd f452 91bd
000000b0: 4077 103b 18e9 4c3d 69d3 d1bd fafd 0d3e
000000c0: a80b 5e3d 141c 46bd 6470 483d 807d b3bb
000000d0: b86c 843d e8d9 953d 3af5 b63d 3e5d 45bd
000000e0: f80b efbd 50b3 e13c 2070 a93d e92c 96bd
000000f0: e46f 0c3e 260d 75bd 579f b5bd f2b9 ccbd
00000100: 6a81 9a3d 3208 06be c25d 62bd 1c61 33bd
00000110: 6e9b 9ebd a061 0f3d 8006 1fbb 67de 0fbe
00000120: 120c 003e b826 8c3c be96 babd 13b5 97bd
00000130: c026 063e 80d6 57bb ecef 98bd 8841 b9bc
00000140: 40ec 3cbb b0a2 aabc d886 53bd 6b33 16be
00000150: 2a47 fbbd b823 313d 7022 ee3c 76e8 8a3d
00000160: 6451 49bd e01c 86bc f9b7 b2bd a6ca c5bd
00000170: f64f b53d 4c80 3c3d 747c 173d 8c3a e73d
00000180: fe75 9fbd cde9 0abe f0d7 073d 1279 00bd
00000190: 86f6 4abd 00d8 c539 243e cc3d 0c21 453d
000001a0: 88e6 163d d0b6 d9bc 107b ebbc bf52 09be
000001b0: 309d f3bd f774 19be 2e51 82bd e2c9 7dbd
000001c0: c423 dfbd c83f 313d e8ab b63c 0bcf eebd
000001d0: 4676 71bd 56cb b73d 00e0 623c 28c9 023e
000001e0: 44b0 463d 4c82 ed3d c048 153d a5d9 c2bd
000001f0: 2456 e03d 482d f53c 607a 953d 7e48 153e
00000200: 746e 13bd 505f 0e3c c6aa bc3d 44d6 3f3d
00000210: 00ab 8eba 68a1 2cbd 08a2 033e 307e a8bd
00000220: acd4 13bd 0c6c ce3d 802a 443c 9af4 9dbd
00000230: 80d6 c1bd 7e56 033e 7a76 2abd c08a 09bb
00000240: ecdc 9fbd b49e fd3d 2a1e 053e 60ac 67bc
00000250: 27a3 12be 0023 3f3b fa99 023e fbe4 fcbd
00000260: acb3 33bd 780a 723d 8ec6 f2bd 40ac c83c
00000270: 0a63 32bd 54bb 603d 3836 a0bc aff6 18be
00000280: aaf7 83bd c0bb 02be 7a0d 0d3e 0cb8 853d
00000290: fce6 bdbd 8759 08be c4c3 d33d b494 6b3d
000002a0: 0882 9c3d 007d a7ba 7a92 b93d 5001 12be
000002b0: 3052 c73c 2852 aa3d cce9 05be 36ca 9b3d
000002c0: 9eaa a5bd 2684 bbbd 9cab 98bd c0bc 5fbb
000002d0: 83c7 99bd a274 1abe a897 bdbc d08b f33d
000002e0: 502d c33c 804e 163c 1498 d53d 9010 de3d
000002f0: a024 a3bc 24ac 223d ca7a 1abe 70e2 0c3c
00000300: 20ef f03c dc9a 033d dc01 cc3d 70d1 173e
00000310: 60a9 123c 28ed a43d 3643 c53d 54aa c63d
00000320: 4484 393d 6c74 0f3e b475 0c3d d81e 103d
00000330: 3abc 113e 4958 babd 8374 c6bd f8fe d9bd
00000340: 7a32 9fbd d410 d1bd dc17 623d e8dd 4a3d
00000350: 100a 673c f4ff 47bd ee83 083e 40a6 c83d
00000360: 2895 99bc 5861 e0bc c80d 203d 3793 82bd
00000370: 4896 1b3d 7c2a a8bd 6035 ff3b 38b7 81bd
00000380: f439 9e3d c0ca 583c 5712 f9bd 8084 e03c
00000390: 285d 823c 5fc1 09be 1e5d 4dbd 400c a63c
000003a0: ccbc de3d 8f63 f7bd e2bc 143e b482 063e
000003b0: 00bc 47bc 621f 1bbe 8a34 133e 08e6 5e3d
000003c0: 96bc 17bd 4e36 2ebd 40c6 e6bb 464a 3ebd
000003d0: 3832 d8bd 904a b0bc f852 0e3e 7219 0cbe
000003e0: a880 b4bd 8c07 1a3e b400 0e3e 5c27 59bd
000003f0: d28b 07be 3015 65bc bce5 593d 6459 c43d

fc_logvar.bias f4 [20]
0.05751747 0.0578759 -0.03601896 0.01626774 -0.055597782 0.018564045 0.02760379 -0.05880452
0.012636349 -0.0153420195 -0.002381932 0.04682506 -0.02238144 -0.026799012 0.061572544 -0.049965013
0.04459417 -0.05580306 -0.01849901 0.042687245
00000000: 7097 6b3d 480f 6d3d 9e88 13bd ec43 853c
00000010: 80ba 63bd a013 983c 5821 e23c 02dd 70bd
00000020: b008 4f3c 185d 7bbc 301a 1cbb a2cb 3f3d
00000030: 4859 b7bc 9a89 dbbc 7e33 7c3d 1da8 4cbd
00000040: 60a8 363d c091 64bd 3c8b 97bc d2d8 2e3d

fc1.weight f4 [120, 20]
-0.22892953 0.00337206 -0.070541985 -0.157212 -0.080870524 -0.20825145 0.1950355 0.08409794
0.07144159 -0.048798222 -0.020121722 -0.21609874 0.18456441 -0.23547612 0.030528279 0.09516894
-0.16139719 -0.024682473 -0.0042855474 0.022774613 -0.05474035 0.13387123 0.0013484414 0.08332908
-0.03672997 -0.032292295 -0.06891026 0.15206885 0.1777161 0.18022461 0.09942582 0.12646902
0.16128373 -0.12108373 -0.015565984 0.11899812 0.023532186 0.110669956 -0.014627125 -0.09575075
0.12815152 -0.057344172 0.20364444 -0.03855267 0.008404924 -0.15658112 0.031106038 0.03649118
-0.03487245 -0.20195442 0.17381598 0.028695542 0.02156283 -0.17894135 0.085595764 0.13726512
-0.09221749 0.05287716 -0.06462073 -0.0099265985 -0.058681026 -0.017169688 0.15353496 0.11121451
-0.06570546 -0.106284514 0.07721048 0.033186536 0.010236597 -0.008901775 -0.2637507 -0.18905392
-0.053842947 -0.10330203 -0.2172503 0.092366464 0.057191096 -0.018782409 0.26605 -0.15335646
-0.01902067 -0.024585202 -0.41368365 0.05665934 0.17645943 -0.15552773 -0.09570153 0.016487908
0.001517562 0.07253741 0.03713982 -0.2306014 0.049766302 -0.13727506 -0.08940029 -0.09480575
-0.04065767 -0.010367128 0.049761593 0.016046891 -0.05815022 0.009659232 -0.042515207 -0.14325367
0.05815689 0.11463168 0.08146397 -0.15315725 0.090825215 0.21337907 -0.010999232 0.031627756
0.16536373 -0.058120772 0.09438881 -0.12592585 -0.054031763 0.028054116 0.056306526 -0.11316788
0.03694174 -0.052314114 -0.14453143 -0.01758075 -0.15833583 0.06327641 0.17135519 -0.047469895
0.1716082 -0.090530165 0.0036798166 -0.058179315 0.14143771 -0.03424363 -0.20204884 -0.098201565
-0.045233056 0.14999633 -0.024420422 -0.15465945 -0.14058328 -0.11853083 -0.038870227 -0.11486852
-0.0737679 -0.024945075 0.10875226 0.079992004 0.0004671601 0.026461462 -0.03141118 0.107321806
-0.01562654 0.02155077 -0.10428241 0.1329408 -0.12789406 -0.003180125 0.0998767 -0.19524078
0.021647997 -0.061764862 -0.23369046 -0.093229726 -0.051838886 0.04948499 0.18723169 -0.053129937
0.006242037 0.027890962 0.09730538 -0.20898063 0.09696753 0.031069644 0.07128958 -0.020453481
-0.16991906 0.028453598 0.13859889 0.040840227 -0.13101782 -0.17660949 -0.002854375 0.06084448
0.12801836 -0.096656 0.13916661 -0.19652763 -0.009778838 0.02279444 0.017306287 -0.15664378
-0.0526561 -0.07440494 -0.10605716 -0.11622865 -0.103290565 0.07253222 -0.14454739 0.012048031
-0.22807437 0.16337809 0.0011084202 0.012462151 0.007979603 -0.20466764 -0.12999511 0.11010705
0.1184547 -0.060261484 0.05184781 0.12362264 -0.055351544 -0.022448255 -0.073992826 0.16949129
0.15077284 0.14896001 0.064502135 -0.035566043 -0.23914187 -0.06396524 -0.16744232 0.032460265
0.19296092 0.10469824 0.20398846 0.13306074 0.1734592 0.22272126 -0.09430756 -0.15132862
0.18339914 -0.04723343 -0.21196091 0.16543084 -0.09161163 0.012867476 0.048006766 -0.2681062
0.045268066 0.16839036 0.19335411 -0.11437186 0.091743745 0.030463522 -0.19368654 0.10287963
0.1544757 -0.116041325 -0.05838524 0.031897195 0.105590105 -0.038390692 -0.068632536 0.052829288
00000000: 816c 6abe c7fd 5c3b 5178 90bd 2ffc 20be
00000010: 729f a5bd de3f 55be 63b7 473e 8a3b ac3d
00000020: f84f 923d a5e0 47bd 4fd6 a4bc fd48 5dbe
00000030: 74fe 3c3e a720 71be 7116 fa3c efe7 c23d
00000040: 4e45 25be e632 cabc c76d 8cbb d391 ba3c
00000050: 6b37 60bd 8a15 093e 2fbe b03a 70a8 aa3d
00000060: 2a72 16bd ed44 04bd d320 8dbd f0b7 1b3e
00000070: 36fb 353e cd8c 383e c49f cb3d 1881 013e
00000080: 9027 253e bffa f7bd 7808 7fbc 49b5 f33d
00000090: 92c6 c03c eea6 e23d 9ca6 6fbc f818 c4bd
000000a0: 273a 033e b9e1 6abd 2b88 503e 68e9 1dbd
000000b0: ceb4 093c cd56 20be 17d2 fe3c c777 153d
000000c0: 6ad6 0ebd 24cd 4ebe d1fc 313e ea12 eb3c
000000d0: 88a4 b03c 673c 37be d54c af3d 3a8f 0c3e
000000e0: 86dc bcbd b995 583d e057 84bd 2ca3 22bc
000000f0: 845b 70bd 72a7 8cbc 4538 1d3e 6fc4 e33d
00000100: 9690 86bd b2ab d9bd 8720 9e3d 9bee 073d
00000110: 66b7 273c c0d8 11bc 550a 87be 5a97 41be
00000120: 6c8a 5cbd 0490 d3bd dd76 5ebe a12a bd3d
00000130: 3641 6a3d 91dd 99bc b537 883e 7a09 1dbe
00000140: 3cd1 9bbc e866 c9bc 58ce d3be a013 683d
00000150: c8b1 343e a942 1fbe 2aff c3bd a611 873c
00000160: eee8 c63a 7e8e 943d ed1f 183d c622 6cbe
00000170: c0d7 4b3d d591 0cbe 8017 b7bd 8429 c2bd
00000180: a888 26bd e3da 29bc d0d2 4b3d c574 833c
00000190: ed2e 6ebd c141 1e3c 6d24 2ebd 17b1 12be
000001a0: eb35 6e3d 04c4 ea3d 95d6 a63d 41d5 1cbe
000001b0: 9202 ba3d 0b80 5a3e 1f36 34bc 1b8c 013d
000001c0: 1c55 293e 0c10 6ebd ec4e c13d b5f2 00be
000001d0: 6950 5dbd bfd1 e53c aca1 663d 90c4 e7bd
000001e0: 3950 173d 5347 56bd 0c00 14be 8105 90bc
000001f0: ca22 22be 1097 813d bc77 2f3e cb6f 42bd
00000200: 0fba 2f3e e167 b9bd 1429 713b 6f4d 6ebd
00000210: 0cd5 103e 0c43 0cbd e4e5 4ebe e71d c9bd
00000220: 4c46 39bd a398 193e 560d c8bc 0c5f 1ebe
00000230: 10f5 0fbe 4bc0 f2bd 6336 1fbd 3040 ebbd
00000240: a013 97bd 9d59 ccbc 81b9 de3d d9d2 a33d
00000250: 2bed f439 b5c5 d83c 02a9 00bd 89cb db3d
00000260: 3b03 80bc 3e8b b03c 0492 d5bd a221 083e
00000270: a9f6 02be a569 50bb 288c cc3d 33ed 47be
00000280: 2457 b13c 27fd 7cbd 8d4c 6fbe 3aef bebd
00000290: 0355 54bd c6b0 4a3d aab9 3f3e c79e 59bd
000002a0: 008a cc3b 967b e43c 0b48 c73d 05ff 55be
000002b0: ea96 c63d c485 fe3c 4500 923d 0f8e a7bc
000002c0: 43ff 2dbe 8517 e93c deec 0d3e 1548 273d
000002d0: 8929 06be 1ed9 34be 7710 3bbb 1038 793d
000002e0: 3f17 033e 95f3 c5bd b181 0e3e 8a3e 49be
000002f0: 6b37 20bc 68bb ba3c eac5 8d3c 3a67 20be
00000300: ecad 57bd 9e61 98bd 7f34 d9bd 4909 eebd
00000310: 018a d3bd c68b 943d 3b04 14be 1b65 453c
00000320: 548c 69be 964c 273e 6948 913a 0d2e 4c3c
00000330: e1bc 023c 6594 51be 701d 05be ce7f e13d
00000340: 6198 f23d bfd4 76bd 5f5e 543d de2d fd3d
00000350: 4db8 62bd 67e5 b7bc 8d89 97bd 208f 2d3e
00000360: 3264 1a3e f988 183e b219 843d b3ad 11bd
00000370: 9be1 74be 3500 83bd 0076 2bbe 0ef5 043d
00000380: 8c97 453e 086c d63d 5ae2 503e 1341 083e
00000390: 4a9f 313e 0b11 643e 5224 c1bd e4f5 1abe
000003a0: fccc 3b3e d777 41bd 480c 59be b466 293e
000003b0: e19e bbbd 1bd2 523c bea2 443d 3745 89be
000003c0: 026b 393d 866e 2c3e 9ffe 453e cb3b eabd
000003d0: 25e4 bb3d a38e f93c c455 46be 8eb2 d23d
000003e0: e12e 1e3e 13a7 edbd 5d25 6fbd a2a6 023d
000003f0: a03f d83d 8f3f 1dbd 378f 8cbd 8663 583d

fc1.bias f4 [120]
-0.0064841276 0.051516302 0.21031266 0.07258852 0.027708689 0.19358516 -0.07195475 -0.06495205
-0.15717348 0.03780947 -0.011288555 0.058994804 0.17782457 0.06084129 0.12556 -0.13293807
0.14475937 0.14117189 -0.114559814 -0.009986312 -0.23282164 0.17472593 0.09336014 0.12914498
0.13312729 0.12670074 0.19824016 0.06723935 0.09354011 0.04840462 0.34009612 0.042017728
-0.13459688 -0.016594946 0.10037417 -0.21366166 0.11156435 0.07959008 -0.09259949 -0.1147694
0.055883557 0.36951408 0.22881655 0.08870775 -0.06945796 0.036306474 -0.025242874 0.033234973
0.12931828 -0.0058457768 0.076823175 0.14964575 0.029494038 -0.14491907 -0.17200972 -0.049073555
0.26013866 0.26287594 -0.037311103 0.115534894 0.0540813 -0.0834581 0.04077341 -0.19042775
0.00958851 0.16084084 -0.20826797 -0.054800108 -0.12144961 -0.12252408 0.074660525 0.21647216
-0.07357367 0.04625957 -0.100208 0.12433303 -0.014721739 0.1473455 0.18924579 -0.019776775
-0.24774584 0.18301876 -0.07801604 -0.15592843 0.020621955 -0.0071997386 -0.029212883 0.15384871
-0.105705306 0.2785633 0.117313564 0.18949667 0.18686077 0.20309454 -0.035876703 0.066809505
-0.077377185 -0.015420638 0.056750752 0.05895302 0.24718584 -0.11867366 0.071085125 -0.26009887
-0.122242585 -0.18630691 -0.12895177 0.13838908 -0.10695043 -0.10736174 -0.13926545 -0.071897574
-0.1974039 0.082012005 0.11976042 -0.119841844 -0.21022391 -0.21661675 0.13768476 0.058041587
00000000: ce78 d4bb c202 533d 345c 573e 4aa9 943d
00000010: 55fd e23c 303b 463e 035d 93bd 9505 85bd
00000020: 16f2 20be 1ade 1a3d a2f3 38bc 89a4 713d
00000030: a517 363e b734 793d cd92 003e eb20 08be
00000040: cd3b 143e 5d8f 103e 569e eabd a19d 23bc
00000050: cc68 6ebe 5beb 323e 9a33 bf3d 953e 043e
00000060: 8552 083e d7bd 013e 78ff 4a3e c9b4 893d
00000070: f591 bf3d ec43 463d 1421 ae3e c81a 2c3d
00000080: c4d3 09be 20f2 87bc f990 cd3d 1fca 5abe
00000090: da7b e43d 2000 a33d cda4 bdbd 380c ebbd
000000a0: 28e6 643d f330 bd3e e34e 6a3e 69ac b53d
000000b0: fa3f 8ebd 19b6 143d 25ca cebc 6521 083d
000000c0: 036c 043e ee8d bfbb 7855 9d3d bc3c 193e
000000d0: 7b9d f13c aa65 14be 5123 30be 5a01 49bd
000000e0: e530 853e ad97 863e 87d3 18bd 8f9d ec3d
000000f0: 5a84 5d3d 15ec aabd 0502 273d 7eff 42be
00000100: 2019 1d3c 76b3 243e 3344 55be 1476 60bd
00000110: 93ba f8bd e8ed fabd 9ee7 983d e1aa 5d3e
00000120: cbad 96bd ad7a 3d3d da39 cdbd 51a2 fe3d
00000130: 7333 71bc bde1 163e a6c9 413e e702 a2bc
00000140: 16b1 7dbe 4569 3b3e e0c6 9fbd b4ab 1fbe
00000150: 60ef a83c c9eb ebbb db4f efbc 848a 1d3e
00000160: 067c d8bd d99f 8e3e 1842 f03d 6a0b 423e
00000170: 6e58 3f3e 04f8 4f3e 73f3 12bd 6cd3 883d
00000180: ee77 9ebd d8a6 7cbc 7a73 683d b978 713d
00000190: 491e 7d3e 2d0b f3bd 1495 913d ae2b 85be
000001a0: 525a fabd 3dc7 3ebe ef0b 04be deb5 0d3e
000001b0: d408 dbbd 79e0 dbbd 9a9b 0ebe 093f 93bd
000001c0: 3f24 4abe e9f5 a73d f344 f53d a46f f5bd
000001d0: f044 57be c8d0 5dbe 3cfd 0c3e 04bd 6d3d
